Lab2/best results/DeepConvNet_ReLU.pt (torch, 617015 bytes, 28 tensors)

convnet1.0.weight f4 [25, 1, 1, 5]
-0.3755663 0.15485838 -0.16363545 0.1670517 -0.0009467479 -0.18202342 -0.0015627795 0.19744103
-0.023056883 0.3709949 -0.06886561 -0.31574708 -0.32393557 -0.24375491 0.12237657 -0.4346962
0.12741938 0.24998304 0.30467352 -0.3565304 0.0431792 -0.29605964 -0.10105021 -0.05076846
0.22995426 0.08896088 0.055668373 -0.21487632 -0.46768382 -0.26953194 0.23763134 -0.20896582
-0.07669518 -0.2511634 0.28327227 -0.2842667 -0.08458232 0.2835071 -0.1790767 -0.021245493
0.24676065 0.2997183 -0.19302072 0.03250127 -0.35950774 -0.40397018 -0.31333083 0.19123188
0.13473898 -0.31429115 0.029092407 -0.3385124 0.1463684 0.20169261 -0.055703007 0.35721284
-0.40445396 -0.33097163 0.23243639 0.35012662 -0.29808506 0.4675538 0.27416083 -0.15630735
-0.29888743 0.06505131 0.40316322 0.16016744 -0.4093983 -0.29841715 0.025356704 0.20979075
0.23274449 0.18703067 -0.36880562 -0.1782327 -0.11313637 -0.3731298 0.048942145 0.20033559
0.34626174 0.09063552 -0.37633565 0.037387084 0.18858834 -0.24529944 0.15005632 0.30001158
-0.35086742 0.20647205 -0.36896873 0.024247173 0.0037041644 0.039717328 -0.119467594 0.23312578
0.16841346 -0.10255708 -0.20978634 0.34371516 0.19379345 0.32671317 -0.2522281 0.0011866025
-0.22666141 -0.1680552 0.25969598 0.059288457 0.07068878 -0.20112252 0.22448283 -0.46637952
0.18103085 0.47448242 -0.37269917 -0.28422487 -0.057794034 0.12030799 -0.0070629795 0.15005381
0.14169459 0.3499465 0.22013123 -0.40852317 0.13918822
00000000: 3a4a c0be 3293 1e3e 0d90 27be 9a0f 2b3e
00000010: 2d2f 78ba 5964 3abe 2ed6 ccba fb2d 4a3e
00000020: cae1 bcbc 0bf3 bd3e 6a09 8dbd 9aa9 a1be
00000030: e2da a5be e39a 79be 91a0 fa3d 8090 debe
00000040: 3a7a 023e 8efb 7f3e 2bfe 9b3e 278b b6be
00000050: acdc 303d 2195 97be 6af3 cebd 97f2 4fbd
00000060: 2179 6b3e 1f31 b63d 8504 643d 8a08 5cbe
00000070: 4174 efbe 1700 8abe a155 733e 23fb 55be
00000080: 5d12 9dbd 7d98 80be 1009 913e 688b 91be
00000090: 7f39 adbd d827 913e e25f 37be 070b aebc
000000a0: d3ae 7c3e ad74 993e 39a7 45be 0d20 053d
000000b0: 6611 b8be 2ed5 cebe e66c a0be 4ad2 433e
000000c0: 04f9 093e c5ea a0be 3353 ee3c 7f51 adbe
000000d0: 99e1 153e 8288 4e3e d628 64bd 9ae4 b63e
000000e0: 9714 cfbe 1d75 a9be ce03 6e3e cc43 b33e
000000f0: 9b9e 98be 3663 ef3e cf5e 8c3e 090f 20be
00000100: c607 99be 9f39 853d 696b ce3e ef02 243e
00000110: a79c d1be 22ca 98be ddb8 cf3c 63d3 563e
00000120: 9254 6e3e f884 3f3e 17d4 bcbe a282 36be
00000130: 0bb4 e7bd df0a bfbe 8f77 483d c624 4d3e
00000140: 3849 b13e 1e9f b93d 11af c0be 3323 193d
00000150: 4d1d 413e c72f 7bbe 5da8 193e 1e9b 993e
00000160: e5a4 b3be 696d 533e 78e9 bcbe 02a2 c63c
00000170: 91c1 723b a3ae 223d 6dab f4bd 86b8 6e3e
00000180: 9474 2c3e 7209 d2bd 3bd2 56be 6ffb af3e
00000190: ca71 463e f346 a73e 0b24 81be c687 9b3a
000001a0: ee19 68be aa16 2cbe dff6 843e 74d8 723d
000001b0: 47c5 903d 10f3 4dbe d4de 653e 4cc9 eebe
000001c0: 2760 393e 5cef f23e 6dd2 bebe ec85 91be
000001d0: 70b9 6cbd 0964 f63d 9170 e7bb b5a7 193e
000001e0: 6318 113e 302c b33e 156a 613e f329 d1be
000001f0: 5b87 0e3e

convnet1.0.bias f4 [25]
0.26431713 0.046454802 -0.18811847 -0.2068498 -0.30336806 0.1388541 0.34720972 -0.15283471
0.10221766 -0.07093059 -0.18059188 -0.049620237 0.08963857 -0.3091494 0.4208171 0.1160274
-0.10811471 -0.13842489 0.13401818 -0.07573819 0.08542668 -0.13581434 0.18706582 0.41514957
-0.30412748
00000000: 9354 873e 6447 3e3d 21a2 40be 6fd0 53be
00000010: 0f53 9bbe c52f 0e3e 79c5 b13e b480 1cbe
00000020: 7e57 d13d 0f44 91bd 14ed 38be 973e 4bbd
00000030: 6d94 b73d d548 9ebe 5775 d73e c69f ed3d
00000040: 3f6b ddbd 41bf 0dbe 103c 093e a01c 9bbd
00000050: 2ff4 ae3d ea12 0bbe 2f8e 3f3e 7c8e d43e
00000060: 99b6 9bbe

convnet1.1.weight f4 [25, 25, 2, 1]
-0.030621486 0.026133329 -0.15618514 -0.06969262 -0.1044087 -0.0078019244 -0.2908493 0.054365277
0.15866977 0.022666603 -0.023652054 0.029371984 0.07102276 -0.10168125 0.08673195 0.034107085
-0.17054594 0.07137678 -0.080418 0.03901124 0.13178664 -0.065924264 0.20418255 0.02404538
-0.29919726 -0.02210382 -0.14552207 0.13000208 -0.07060727 -0.04426124 0.08250344 -0.08487474
0.14656006 0.02596318 -0.32938522 0.122165546 -0.022720922 0.07398916 0.037224375 -0.10414428
0.02393252 -0.07260754 -0.060935684 -0.1292306 0.17701937 -0.12384477 -0.05705487 0.14231746
-0.16288285 0.09668926 -0.02880769 -0.054086976 -0.10485691 0.21187021 0.14300314 -0.044424772
0.02641006 0.10433791 -0.029432977 -0.18340762 0.021494549 0.015788203 -0.06443721 0.014260315
-0.03613147 -0.012441222 -0.023176033 0.099038266 0.08793681 -0.015899278 0.0778408 -0.16685055
-0.1159436 0.05074254 -0.14413032 0.15963958 0.073024675 0.020639425 -0.16841315 0.057491053
0.15888216 -0.07894684 -0.06177255 0.001330603 -0.10754466 0.358188 0.02608941 0.073979236
0.00026522457 -0.017719602 0.05299102 -0.13390404 -0.060811237 -0.067934215 -0.11775857 -0.23324767
0.05706724 0.09916496 -0.039163303 0.053394213 -0.071400255 -0.24206805 -0.21033238 0.09442226
0.09762731 -0.010933416 -0.19311221 0.072278075 -0.123183616 0.056985565 0.091911115 -0.13301484
0.105312444 -0.07219339 -0.07629828 -0.09722073 0.07284749 -0.057382222 -0.088703685 -0.014013251
-0.2043881 0.054156896 -0.055597246 0.0005584217 0.15442553 -0.00252494 0.013159604 0.15439002
-0.11821392 0.15838759 0.046508156 0.052147884 0.15357263 0.0067948983 0.035972428 -0.021400835
-0.0034702 -0.15856664 0.023529893 0.09594142 0.024793321 -0.047100395 -0.14330098 0.121631004
-0.31618038 0.066769704 -0.14791948 -0.04752011 0.017544623 0.06540659 -0.09546826 -0.061339363
0.091912955 -0.022552963 -0.13097139 -0.12871236 -0.12406626 0.3217694 0.051631257 0.031095129
0.05874594 -0.0062834914 0.015265555 -0.17182949 0.016094478 -0.017977402 -0.017894141 -0.082271785
-0.12146493 0.15871821 0.052279323 0.10684721 0.031860527 -0.21032828 -0.0756813 0.2177045
-0.043571122 0.12683718 0.08513688 -0.085908964 -0.06266386 -0.00853082 0.21043693 -0.14628254
-0.00023662513 0.15364522 0.026432846 0.14217465 -0.052586082 -0.14447811 -0.04125311 -0.054407395
0.050036766 0.09549421 0.08518674 0.32831338 -0.06117001 0.0757354 0.084047765 0.11973467
0.13031842 -0.1882561 -0.07323371 -0.0067341453 0.12606792 -0.16549976 -0.1558772 0.09868763
0.03638552 -0.009395737 0.07272935 -0.02392073 0.1766518 0.033979252 0.06347538 -0.04729256
0.13340253 0.027797 0.16740458 0.046604894 0.11426583 -0.054856118 -0.1259869 0.0886621
0.09245576 -0.1853967 -0.10869029 -0.00970378 0.021888427 0.13019627 0.04922166 -0.05530757
-0.008046023 0.22108428 0.039235216 -0.14378475 0.15052772 0.033072896 -0.010348237 0.0767966
-0.08128629 -0.052744538 0.026292909 0.019897927 -0.06104963 0.3283775 0.116379976 -0.1278397
0.05977805 -0.012780835 -0.14494912 -0.12015886 -0.083275445 -0.095639445 -0.013815914 -0.048772346
00000000: e9d9 fabc 9015 d63c ffee 1fbe 01bb 8ebd
00000010: 3ad4 d5bd 49a7 ffbb 33ea 94be 20ae 5e3d
00000020: 547a 223e 50af b93c f4c1 c1bc 849d f03c
00000030: 6174 913d 423e d0bd 85a0 b13d dfb3 0b3d
00000040: 98a3 2ebe fd2d 923d 31b2 a4bd 40ca 1f3d
00000050: 14f3 063e 4d03 87bd 3b15 513e d1fa c43c
00000060: 6230 99be 1213 b5bc bd03 15be 441f 053e
00000070: 8b9a 90bd 464b 35bd 90f7 a83d cfd2 adbd
00000080: d713 163e bcb0 d43c 2ea5 a8be ee31 fa3d
00000090: 3a21 babc a187 973d 9678 183d 9949 d5bd
000000a0: 220e c43c 43b3 94bd b297 79bd 0755 04be
000000b0: 9144 353e 54a2 fdbd 5eb2 69bd abbb 113e
000000c0: c3ca 26be 0505 c63d 1bfe ebbc 4e8a 5dbd
000000d0: 38bf d6bd 81f4 583e 6a6f 123e c0f6 35bd
000000e0: e959 d83c 1daf d53d 6d1d f1bc 35cf 3bbe
000000f0: 5615 b03c 4356 813c a8f7 83bd 19a4 693c
00000100: 98fe 13bd 44d6 4bbc aadb bdbc 93d4 ca3d
00000110: 3718 b43d 343f 82bc ff6a 9f3d dfda 2abe
00000120: d773 edbd 69d7 4f3d e696 13be 8f78 233e
00000130: f68d 953d 0314 a93c 7f74 2cbe bd7b 6b3d
00000140: 01b2 223e e1ae a1bd 3705 7dbd a167 ae3a
00000150: 6040 dcbd 6b64 b73e 75b9 d53c 6d82 973d
00000160: d70d 8b39 b328 91bc 1d0d 593d 241e 09be
00000170: 3415 79bd 1821 8bbd 682b f1bd 7ad8 6ebe
00000180: 57bf 693d 0017 cb3d b369 20bd e4b3 5a3d
00000190: 4c3a 92bd b0e0 77be 5f61 57be 7560 c13d
000001a0: d4f0 c73d 1222 33bc 35bf 45be 8706 943d
000001b0: b147 fcbd b269 693d e53b bc3d 0b35 08be
000001c0: 0dae d73d 21da 93bd 4642 9cbd a91b c7bd
000001d0: 1131 953d 9f09 6bbd 47aa b5bd d697 65bc
000001e0: 1d4b 51be 9fd3 5d3d f0b9 63bd 0c63 123a
000001f0: ba21 1e3e 7779 25bb 619b 573c 6b18 1e3e
00000200: 241a f2bd 5b30 223e 567f 3e3d 0599 553d
00000210: 2542 1d3e bda7 de3b d357 133d ce50 afbc
00000220: 4c6c 63bb 4b5f 22be c3c1 c03c ef7c c43d
00000230: 5d1b cb3c 58ec 40bd 7ebd 12be ad19 f93d
00000240: 65e2 a1be 8ebe 883d 3478 17be 72a4 42bd
00000250: beb9 8f3c e4f3 853d dd84 c3bd fc3e 7bbd
00000260: dc3c bc3d fec0 b8bc 5d1d 06be 2ccd 03be
00000270: 7416 febd f5be a43e 4c7b 533d 36bb fe3c
00000280: 959f 703d bfe5 cdbb 611c 7a3c 12f4 2fbe
00000290: 91d8 833c 5845 93bc bc96 92bc 1c7e a8bd
000002a0: 9bc2 f8bd 0787 223e d822 563d b6d2 da3d
000002b0: 2f80 023d 4c60 57be ccfe 9abd eeed 5e3e
000002c0: a277 32bd 9be1 013e 3f5c ae3d 0af1 afbd
000002d0: e955 80bd dac4 0bbc c77c 573e 17cb 15be
000002e0: 931e 78b9 2c55 1d3e b289 d83c 3b96 113e
000002f0: 8164 57bd 12f2 13be 05f9 28bd 4ada 5ebd
00000300: 5af3 4c3d 7892 c33d 6376 ae3d b118 a83e
00000310: 688d 7abd 291b 9b3d 3c21 ac3d 7337 f53d
00000320: 3172 053e 35c6 40be 8efb 95bd 1baa dcbb
00000330: f317 013e c578 29be 469e 1fbe bd1c ca3d
00000340: fc08 153d 94f0 19bc 20f3 943d 68f5 c3bc
00000350: 36e4 343e d42d 0b3d 61ff 813d d8b5 41bd
00000360: ac9a 083e 89b6 e33c 1b6c 2b3e c6e4 3e3d
00000370: 3404 ea3d cfb0 60bd b602 01be 7a94 b53d
00000380: 7259 bd3d a2d8 3dbe 0499 debd 9afc 1ebc
00000390: 5c4f b33c 2c52 053e a79c 493d 318a 62bd
000003a0: 77d3 03bc eb63 623e 1bb5 203d 4f3c 13be
000003b0: f023 1a3e 7277 073d a78b 29bc 8947 9d3d
000003c0: 6d79 a6bd a80a 58bd 3a64 d73c fa00 a33c
000003d0: 2d0f 7abd 1821 a83e a058 ee3d 69e8 02be
000003e0: d4d9 743d b566 51bc 8b6d 14be d915 f6bd
000003f0: 518c aabd 9dde c3bd 255c 62bc 83c5 47bd

convnet1.1.bias f4 [25]
0.14220828 0.08934656 0.049260255 0.038435496 -0.05089653 0.016074805 0.13150646 0.059416905
0.02771505 -0.018948767 0.036059376 -0.06943414 -0.1062792 0.10850164 -0.059037805 -0.0521707
-0.04286633 -0.0337033 -0.032756213 -0.06504581 0.026349396 -0.018919185 -0.10260239 0.13629656
-0.07747908
00000000: 0c9f 113e 54fb b63d 1fc5 493d 8a6e 1d3d
00000010: e178 50bd 4faf 833c a1a9 063e 245f 733d
00000020: ac0a e33c 723a 9bbc ffb2 133d 7d33 8ebd
00000030: e9a8 d9bd 1c36 de3d a0d1 71bd f2b0 55bd
00000040: 9b94 2fbd 790c 0abd 612b 06bd bd36 85bd
00000050: b0da d73c 68fc 9abc 3421 d2bd 5391 0b3e
00000060: 5aad 9ebd

convnet1.2.weight f4 [25]
0.9512686 0.933973 0.9216683 0.9476805 0.92702377 0.9790581 0.91602564 1.0067645
0.97369593 0.87905526 0.9043139 0.9805694 0.9889839 0.91071814 1.1112831 0.99330103
0.9008322 0.94883895 0.94865227 0.8690337 0.9305884 0.9722131 0.96175766 0.8801999
1.009896
00000000: 5786 733f db18 6f3f 74f2 6b3f 309b 723f
00000010: 6e51 6d3f 8da3 7a3f a880 6a3f a9dd 803f
00000020: 2344 793f c409 613f 1e81 673f 9906 7b3f
00000030: 0d2e 7d3f d324 693f 863e 8e3f fa48 7e3f
00000040: f09c 663f 1ce7 723f e0da 723f fe78 5e3f
00000050: 0b3b 6e3f f5e2 783f c035 763f c854 613f
00000060: 4644 813f

convnet1.2.bias f4 [25]
-0.44951418 -0.34190193 -0.30772978 -0.37909096 -0.24430923 -0.52049613 -0.08418669 -0.15173528
-0.42259625 -0.43208188 -0.21835749 -0.42162806 -0.41278082 -0.38406122 -0.13905017 -0.19948953
-0.34854147 -0.56066346 -0.1476215 -0.2745999 -0.36609626 -0.2993023 -0.27425513 -0.27815083
-0.2308065
00000000: b926 e6be c50d afbe c28e 9dbe 3618 c2be
00000010: 332c 7abe 3c3f 05bf 126a acbd 7e60 1bbe
00000020: 895e d8be d639 ddbe 1b99 5fbe a2df d7be
00000030: 0258 d3be aca3 c4be 2b63 0ebe fc46 4cbe
00000040: 0774 b2be a487 0fbf 172a 17be 5c98 8cbe
00000050: f870 bbbe 273e 99be 2b6b 8cbe c969 8ebe
00000060: 8a58 6cbe

convnet1.2.running_mean f4 [25]
0.123830095 0.037826303 -0.16010593 -0.11409025 0.12363406 0.2075823 0.043627083 0.19752595
-0.08855392 -0.16184853 -0.026480865 -0.10784523 -0.25693592 0.03182304 0.0844927 0.13852653
-0.04568289 -0.15906498 -0.10413939 0.38383374 -0.03712741 -0.058754887 0.010992846 0.08830768
0.031170174
00000000: a29a fd3d c1ef 1a3d cff2 23be 26a8 e9bd
00000010: db33 fd3d 7490 543e 50b2 323d 3e44 4a3e
00000020: c25b b5bd 9fbb 25be 66ee d8bc f6dd dcbd
00000030: 1b8d 83be e058 023d 820a ad3d e6d9 0d3e
00000040: fb1d 3bbd eee1 22be 0847 d5bd db85 c43e
00000050: e912 18bd f7a8 70bd 571b 343c a8da b43d
00000060: 9858 ff3c

convnet1.2.running_var f4 [25]
5.887637 5.253913 9.623062 7.9016557 4.47797 5.924089 5.888424 12.452477
13.015602 14.8053 7.326915 7.0707264 40.29429 6.068657 10.026774 7.0485544
6.524096 5.8300066 6.309993 5.508123 12.960107 4.292076 9.715342 3.3610723
12.641031
00000000: 8667 bc40 0e20 a840 10f8 1941 5dda fc40
00000010: 884b 8f40 2392 bd40 f86d bc40 593d 4741
00000020: e83f 5041 82e2 6c41 1676 ea40 6443 e240
00000030: 5a2d 2142 7032 c240 ab6d 2041 c28d e140
00000040: 65c5 d040 6a8f ba40 76eb c940 8b42 b040
00000050: 995c 4f41 b058 8940 0a72 1b41 cf1b 5740
00000060: aa41 4a41

convnet2.0.weight f4 [50, 25, 1, 5]
0.2051015 -0.027644029 0.107376754 0.026388267 0.17472732 -0.08505119 -0.09326707 0.028050406
-0.041468997 -0.05158635 0.1760589 0.17283756 -0.007994915 0.08923608 -0.021598645 0.06872931
-0.17074957 -0.15706694 -0.17954704 -0.016178537 0.04690835 -0.002536023 0.013091187 0.038353514
-0.07130495 -0.10586953 -0.048188668 0.06164262 -0.06806696 -0.13157514 -0.13070473 0.18492159
0.042378888 0.066867836 -0.18257584 0.04528418 0.012333594 -0.05861949 0.03314541 0.016778996
0.12329703 0.15193747 -0.057083588 -0.07571536 -0.016390128 0.03284768 0.13715056 -0.018775012
0.006065503 -0.003883357 -0.027870001 0.08975453 0.016908053 0.10200751 -0.03446068 0.007726606
-0.1979307 -0.23234957 -0.023975294 0.0826386 -0.04835759 0.07792957 0.06358068 -0.0042363983
0.02990245 -0.0512171 -0.09546165 -0.18630946 -0.0946538 -0.025989741 -0.04290112 -0.13107038
0.0069939015 0.072920226 0.007336683 -0.04920566 -0.12758368 -0.13561115 0.015743598 0.05384802
-0.03923902 0.10281141 -0.06598792 -0.048013255 -0.033406273 -0.0132998815 -0.040530134 -0.0016522654
-0.055701844 -0.0816849 -0.032849412 -0.05944559 -0.08706383 -0.041461155 -0.037557527 -0.010959188
0.09987399 0.17559919 0.1518054 -0.064221725 -0.015467289 -0.0062265177 -0.003609217 -0.07630088
0.028690474 0.064091705 -0.03709454 0.08683483 -0.014921645 -0.1277467 0.05323456 -0.15331276
-0.09995044 -0.122941785 -0.0811345 0.04443741 0.17651755 -0.084060326 -0.001412781 0.13784674
-0.07343369 -0.12014911 -0.012894948 0.08427673 0.045558978 -0.064576924 -0.06297756 -0.08626214
-0.038278226 -0.0148209445 0.008995099 0.0065739444 0.011935656 -0.00063013565 -0.08623042 -0.07701908
-0.030664967 -0.105358645 -0.13411622 -0.09407771 0.0152241215 -0.04433594 0.0640664 0.06255394
0.008654739 0.11228932 0.09557937 0.11255143 0.12071131 -0.012593926 0.054780927 -0.0722212
-0.08124668 -0.030375678 0.059835467 -0.007090599 -0.03836678 0.02709083 -0.032597832 -0.021006644
0.025411995 0.017359026 0.06514707 0.11249765 0.12273154 -0.095388874 -0.020529278 -0.1337425
-0.12280785 -0.05484741 -0.08262125 -0.12128281 -0.18359183 -0.14186262 -0.1879585 -0.07098029
0.011547214 0.07850803 -0.01750979 -0.043227226 0.0020083692 -0.03646418 0.03838057 0.029699016
-0.05481157 -0.08292546 -0.10754397 -0.10521234 -0.19231881 -0.20679879 -0.0029772145 0.01682878
-0.048594717 -0.003808246 -0.026078423 -0.025201596 -0.0758319 -0.05228416 -0.08077039 0.0071035293
-0.05376607 -0.041102182 -0.08326466 -0.07671528 -0.03327739 -0.0036170974 0.15955746 0.041952446
0.08091685 0.062361483 -0.02716489 -0.14842375 -0.021168835 -0.041969802 0.036284223 0.19838297
0.10768294 0.015412795 0.032579537 -0.0140789235 -0.11054254 -0.08916759 -0.0026955574 -0.018837733
-0.06719879 -0.005250253 -0.05690544 -0.05266909 -0.090572834 -0.12504996 0.24226637 -0.010348518
0.07079096 0.12475771 0.118942685 0.13879114 0.006473244 0.078367144 0.11671223 0.07268085
0.07383829 -0.0068827206 0.054575708 0.080624476 -0.02204082 0.027772194 0.057547204 0.036600422
-0.07089332 -0.08035427 -0.080987446 -0.08270147 -0.13339414 -0.093908496 0.052740138 0.043469884
00000000: 2106 523e bb75 e2bc 58e8 db3d 352c d83c
00000010: b8eb 323e 512f aebd ce02 bfbd f7c9 e53c
00000020: 65db 29bd 354c 53bd c948 343e 54fc 303e
00000030: 1bfd 02bc 68c1 b63d a4ef b0bc f4c1 8c3d
00000040: fad8 2ebe 28d6 20be 2edb 37be da88 84bc
00000050: f822 403d 6833 26bb 6b7c 563c 9318 1d3d
00000060: 5408 92bd 20d2 d8bd 7b61 45bd f97c 7c3d
00000070: b166 8bbd a2bb 06be 76d7 05be 165c 3d3e
00000080: 7c95 2d3d 01f2 883d 29f5 3abe e87b 393d
00000090: d812 4a3c fe1a 70bd 7bc3 073d 1b74 893c
000000a0: 2783 fc3d 7f95 1b3e 7bd0 69bd a810 9bbd
000000b0: 9744 86bc 4a8b 063d 3271 0c3e 0ece 99bc
000000c0: 21c1 c63b eb7f 7ebb a14f e4bc 39d1 b73d
000000d0: c282 8a3c 50e9 d03d a426 0dbd 782f fd3b
000000e0: 58ae 4abe 0ced 6dbe d667 c4bc 6d3e a93d
000000f0: 9c12 46bd 8a99 9f3d 9636 823d 7cd1 8abb
00000100: fcf5 f43c 06c9 51bd 6681 c3bd e8c7 3ebe
00000110: dad9 c1bd 70e8 d4bc 16b9 2fbd 5037 06be
00000120: 192d e53b 3357 953d 8f68 f03b e08b 49bd
00000130: 4ca5 02be a6dd 0abe b8f8 803c be8f 5c3d
00000140: 18b9 20bd ca8e d23d ad24 87bd 8ca9 44bd
00000150: 04d5 08bd bfe7 59bc ed02 26bd d490 d8ba
00000160: 9e27 64bd 6a4a a7bd 1b8d 06bd 387d 73bd
00000170: 854e b2bd 2cd3 29bd ecd5 19bd 2b8e 33bc
00000180: bc8a cc3d 46d0 333e e072 1b3e ae86 83bd
00000190: 836a 7dbc d107 ccbb 9d88 6cbb a343 9cbd
000001a0: 4908 eb3c 8342 833d 72f0 17bd 76d6 b13d
000001b0: ea79 74bc 08d0 02be 7b0c 5a3d 05fe 1cbe
000001c0: d1b2 ccbd e7c8 fbbd d829 a6bd 0004 363d
000001d0: 04c1 343e d227 acbd 102d b9ba b227 0d3e
000001e0: 6764 96bd bd10 f6bd 5545 53bc 4799 ac3d
000001f0: 0d9c 3a3d e840 84bd 61fa 80bd 34aa b0bd
00000200: a1c9 1cbd 8cd3 72bc 2e60 133c 3e6a d73b
00000210: c58d 433c b02f 25ba 9399 b0bd 2ebc 9dbd
00000220: 1935 fbbc 46c6 d7bd c355 09be d0ab c0bd
00000230: 986e 793c 9a99 35bd 3f35 833d 481c 803d
00000240: 9bcc 0d3c f1f7 e53d 1ebf c33d 5d81 e63d
00000250: 7e37 f73d c156 4ebc f761 603d b5e8 93bd
00000260: a964 a6bd 6ad6 f8bc 0916 753d 4158 e8bb
00000270: 7c26 1dbd 97ed dd3c 4e85 05bd 2016 acbc
00000280: d12c d03c 8434 8e3c d46b 853d 2b65 e63d
00000290: ac5a fb3d 3e5b c3bd 042d a8bc cbf3 08be
000002a0: af82 fbbd aea7 60bd 5435 a9bd 1f63 f8bd
000002b0: 7fff 3bbe 6f44 11be 3178 40be 1d5e 91bd
000002c0: 8730 3d3c d1c8 a03d b170 8fbc 080f 31bd
000002d0: d89e 033b 775b 15bd f234 1d3d 5a4b f33c
000002e0: 1982 60bd d3d4 a9bd 0340 dcbd 9179 d7bd
000002f0: 39ef 44be 10c3 53be 5f1d 43bb 82dc 893c
00000300: 410b 47bd c493 79bb 6ba2 d5bc 9473 cebc
00000310: c14d 9bbd ea27 56bd f26a a5bd b9c4 e83b
00000320: d039 5cbd c35a 28bd a986 aabd e71c 9dbd
00000330: df4d 08bd d30c 6dbb 0863 233e 54d6 2b3d
00000340: bcb7 a53d c16e 7f3d e788 debc 65fc 17be
00000350: 446a adbc 87e8 2bbd c49e 143d e824 4b3e
00000360: e088 dc3d f385 7c3c 1f72 053d 49ab 66bc
00000370: 2164 e2bd 7f9d b6bd f3a7 30bb 9751 9abc
00000380: 859f 89bd 500a acbb ae15 69bd 8bbb 57bd
00000390: 407e b9bd 190d 00be ad14 783e d58c 29bc
000003a0: dafa 903d f880 ff3d 3998 f33d 441f 0e3e
000003b0: 821d d43b f47e a03d d206 ef3d b3d9 943d
000003c0: 8838 973d 7288 e1bb c78a 5f3d 721e a53d
000003d0: f38e b4bc 8382 e33c 9eb6 6b3d 53ea 153d
000003e0: 8430 91bd c890 a4bd bfdc a5bd 635f a9bd
000003f0: 7998 08be 1953 c0bd 0b06 583d 7a0d 323d

convnet2.0.bias f4 [50]
-0.09755463 -0.038222443 -0.026042067 0.021213992 -0.069069855 -0.073588304 0.081946515 0.062047087
0.07190007 -0.07456991 -0.04761057 0.07106624 -0.015717441 0.016999792 -0.0242209 -0.07880592
0.052216608 0.0818671 0.056589734 0.027829345 0.08144628 -0.026749233 0.014614855 0.031502802
-0.024295699 -0.07904479 -0.06973115 -0.066861756 -0.07035136 0.049170185 0.068011045 0.08232246
0.088003404 -0.027381977 -0.01907439 0.035234068 0.09339003 0.061036237 -0.055341933 -0.07499797
0.042662635 -0.048995607 0.022566488 -0.03212597 -0.06996525 -0.068292215 -0.037313983 -0.07294867
0.0083469935 -0.0056443783
00000000: b9ca c7bd 238f 1cbd 2c56 d5bc f7c8 ad3c
00000010: 7f74 8dbd 77b5 96bd 93d3 a73d 1625 7e3d
00000020: 5840 933d 1cb8 98bd 4d03 43bd 2d8b 913d
00000030: ddc1 80bc 2643 8b3c e96a c6bc 0065 a1bd
00000040: 15e1 553d f0a9 a73d a3ca 673d 5efa e33c
00000050: 4fcd a63d 3521 dbbc 2573 6f3c 1509 013d
00000060: c607 c7bc 3ce2 a1bd 35cf 8ebd d1ee 88bd
00000070: 6014 90bd ad66 493d 6049 8b3d ae98 a83d
00000080: 213b b43d 2b50 e0bc e541 9cbc 9951 103d
00000090: 4643 bf3d 2201 7a3d 39ae 62bd 8998 99bd
000000a0: 04bf 2e3d 9eaf 48bd 5bdd b83c 8596 03bd
000000b0: f149 8fbd cadc 8bbd 8cd6 18bd 1d66 95bd
000000c0: d4c1 083c 7af4 b8bb

convnet2.1.weight f4 [50]
1.0061471 1.0539814 0.90412873 0.9731483 0.8781565 1.0043741 1.058653 0.9742433
1.0518047 0.9962661 0.9464437 0.996792 0.94146246 0.99820125 1.0028627 0.94940895
0.9578022 1.0441953 1.0157524 0.9335291 0.8851582 1.036241 0.98648185 1.0431411
1.0544924 1.0232466 0.98548335 1.057974 1.0043832 0.9483835 0.96761525 0.9987187
0.87600523 1.0674825 0.95181566 0.9682609 0.97564965 1.0382571 0.99630827 1.0221574
0.9607264 0.92084175 0.93439776 0.9890672 1.0439788 1.0656601 1.0659615 0.9278538
0.9856153 1.011303
00000000: 6ec9 803f dde8 863f fb74 673f 3f20 793f
00000010: ddce 603f 558f 803f f181 873f 0268 793f
00000020: 89a1 863f 4c0b 7f3f 224a 723f c32d 7f3f
00000030: af03 713f 1e8a 7f3f ce5d 803f 770c 733f
00000040: 8632 753f 31a8 853f 2d04 823f c3fb 6e3f
00000050: ba99 623f 8ca3 843f 138a 7c3f a685 853f
00000060: 9bf9 863f bff9 823f a348 7c3f b16b 873f
00000070: a18f 803f 43c9 723f a2b5 773f 07ac 7f3f
00000080: e141 603f 44a3 883f 31aa 733f f2df 773f
00000090: 2dc4 793f 9ce5 843f 0f0e 7f3f 0ed6 823f
000000a0: 2af2 753f 49bc 6b3f b134 6f3f 8233 7d3f
000000b0: 19a1 853f 8d67 883f 6d71 883f d487 6d3f
000000c0: 4951 7c3f 6072 813f

convnet2.1.bias f4 [50]
-0.08424809 -0.28555614 -0.1557865 -0.2614833 -0.3246057 -0.1692535 -0.2540651 -0.24950224
-0.2165546 -0.19382143 -0.30857107 -0.12590924 -0.1349609 -0.32120353 -0.19929282 -0.30321446
-0.1418041 -0.16325021 -0.32684347 -0.19704305 -0.26802146 -0.10737443 -0.3404613 -0.008141658
-0.26055342 -0.31804556 -0.14668359 -0.16076931 -0.22069064 -0.18328476 -0.12145718 -0.08401144
-0.3046287 -0.081879735 -0.24057363 -0.1439261 -0.16590133 -0.12140229 -0.1650909 -0.1861148
-0.1686779 -0.22066891 -0.17840879 -0.31009394 -0.22744416 -0.15667321 -0.10460764 -0.1683924
-0.29677215 -0.122474335
00000000: 438a acbd 6a34 92be 7f86 1fbe 24e1 85be
00000010: b832 a6be ca50 2dbe d214 82be 847d 7fbe
00000020: 7dc0 5dbe 2079 46be 07fd 9dbe 5aee 00be
00000030: 3133 0abe ca74 a4be 6b13 4cbe ed3e 9bbe
00000040: 1835 11be 102b 27be 0758 a7be a7c5 49be
00000050: 1c3a 89be 20e7 dbbd f250 aebe 9764 05bc
00000060: 4267 85be ded6 a2be 3934 16be b6a0 24be
00000070: bafc 61be 00af 3bbe 8bbe f8bd 310e acbd
00000080: 4bf8 9bbe 90b0 a7bd ef58 76be 5d61 13be
00000090: 0ae2 29be c4a1 f8bd 970d 29be e194 3ebe
000000a0: e6b9 2cbe 08f7 61be cbb0 36be a2c4 9ebe
000000b0: 1fe7 68be f16e 20be 883c d6bd 0f6f 2cbe
000000c0: 85f2 97be d3d3 fabd

convnet2.1.running_mean f4 [50]
-0.41667038 -0.4638915 -0.09999231 -0.38358924 1.2411046 -1.0570757 -0.29059672 0.24572042
-0.86751425 -0.90664417 0.6847504 -0.73962957 -1.0127311 -0.5982272 0.8860294 -0.40069303
-0.39533576 -1.1455748 -0.13054086 0.53666747 0.6351039 -0.5302983 -0.31923243 -0.11654919
0.50857466 1.7186998 0.75711703 -0.9399813 -1.6907477 0.9726291 0.24891724 -0.14804922
1.3593035 -1.001079 -0.19065902 -0.3427209 -1.1738226 -0.54394424 -0.21700333 -0.5173073
0.7924137 -0.6849967 -0.9548379 -0.37169755 -0.3643881 -0.08219378 -0.20713405 -0.6256281
-0.2581957 -0.2770923
00000000: d255 d5be 3083 edbe c5c8 ccbd cf65 c4be
00000010: 84dc 9e3f 424e 87bf 18c9 94be 229e 7b3e
00000020: 6a15 5ebf d519 68bf cd4b 2f3f 5d58 3dbf
00000030: 2ca1 81bf 6b25 19bf d3d2 623f a327 cdbe
00000040: 7369 cabe 32a2 92bf 81ac 05be 0a63 093f
00000050: 2b96 223f a1c1 07bf 6f72 a3be 57b1 eebd
00000060: f331 023f 5bfe db3f 6cd2 413f 9da2 70bf
00000070: 6c6a d8bf 38fe 783f 29e4 7e3e 379a 17be
00000080: a8fd ad3f 5b23 80bf 1e3c 43be 1d79 afbe
00000090: d23f 96bf ee3f 0bbf 1f36 5ebe 406e 04bf
000000a0: a0db 4a3f f25b 2fbf 4270 74bf 244f bebe
000000b0: 1491 babe 3655 a8bd f31a 54be 2a29 20bf
000000c0: 3a32 84be 0bdf 8dbe

convnet2.1.running_var f4 [50]
1.4433225 1.1803794 2.900057 1.0517198 2.5317419 2.7929566 1.468307 1.3320988
2.658355 3.2521756 1.8949536 2.6358082 3.1781833 1.5363985 1.1588953 1.149387
2.2224445 3.5918233 1.2041416 1.7348878 2.0041716 2.4129317 1.3157489 1.5944524
1.5649229 2.8106704 2.664418 3.3187342 4.830736 2.2357163 1.1070834 3.3300922
1.8576767 2.7686129 1.4806683 2.798065 4.7429442 1.9578506 1.4657323 3.199489
3.905617 1.1758269 3.403225 1.2003424 1.8075485 2.0209904 2.2202892 3.0866628
1.1928003 1.8304393
00000000: cbbe b83f ac16 973f 899a 3940 c19e 863f
00000010: 0f08 2240 cdbf 3240 7cf1 bb3f 3782 aa3f
00000020: 7d22 2a40 a523 5040 d78d f23f 15b1 2840
00000030: 5b67 4b40 b5a8 c43f ae56 943f 1d1f 933f
00000040: 883c 0e40 6fe0 6540 5021 9a3f ce10 de3f
00000050: 5944 0040 796d 1a40 766a a83f 0417 cc3f
00000060: 654f c83f 06e2 3340 d385 2a40 2466 5440
00000070: 6495 9a40 fa15 0f40 e9b4 8d3f 3b20 5540
00000080: 5ac8 ed3f f430 3140 8a86 bd3f 7f13 3340
00000090: 33c6 9740 d99a fa3f 1e9d bb3f 6ec4 4c40
000000a0: a1f5 7940 7f81 963f 70ce 5940 d2a4 993f
000000b0: c05d e73f e857 0140 3819 0e40 e28b 4540
000000c0: aead 983f d64b ea3f

convnet3.0.weight f4 [100, 50, 1, 5]
0.016428957 0.06329995 0.036433563 -0.041183323 0.16775362 0.074216664 0.097028956 0.13749206
0.025286283 0.109862246 0.12714316 0.081327006 0.010484829 0.10518855 0.20142487 0.030989088
0.17158423 -0.13825628 0.06125603 -0.002085588 0.098730125 0.12812166 -0.010202666 -0.0102588795
0.07956811 -0.009028628 -0.02861799 0.03632836 0.07022899 0.015070068 0.063901454 0.088561065
0.07402498 0.09652018 0.18537886 -0.055173025 0.041240912 -0.003324949 0.07285669 0.03174045
0.05808243 -0.025410675 0.1193414 -0.00268141 0.12670295 0.04992001 -0.019128997 0.064860225
0.15747409 0.00011862197 0.10104585 -0.01150336 0.08430783 -0.029992776 0.13000199 -0.036433894
-0.06598506 -0.057118434 -0.01782853 0.059587177 -0.07195558 0.029157776 0.018509451 0.039241474
-0.02330509 -0.042895798 0.15172341 0.02513895 0.04817987 0.04660241 0.14866279 0.12570244
0.022946864 0.10945488 0.10259021 0.059464782 0.03737145 -0.062409345 0.024060488 -0.03993372
0.017630467 0.04947476 -0.0049556303 0.1407722 0.08974642 0.06400059 0.011229259 -0.055413984
-0.024234835 -0.059561256 0.06139968 0.1757927 -0.00023811198 0.015759038 0.14623307 0.10663955
0.050060328 0.0352281 0.030382609 0.09242815 -0.07900549 0.046353523 -0.09975202 0.11847578
0.0273876 -0.027187096 0.0227621 0.03329117 -0.018171413 0.019433845 0.096866295 -0.02385848
-0.023644077 -0.059162196 -0.0067313234 0.1076107 -0.044093557 0.1251474 -0.0011881439 0.065645404
0.04977132 -0.03676194 -0.07412372 -0.031748068 0.1160425 0.070673436 0.11471958 0.19238676
0.03422567 0.11227073 0.05357119 0.034326766 0.12462384 0.12546131 0.0956926 0.09206658
0.08967109 0.017523997 0.0062196557 0.120560296 0.03508715 -0.018179692 0.10466869 -0.07660953
0.039306525 0.056119077 0.051412977 0.033238377 0.019756736 -0.059776008 0.053321008 0.029800743
0.13714927 -0.072774865 0.020979932 -0.013304057 0.23534791 -0.0013257522 0.06293458 0.08504808
0.06809823 0.05209085 0.043441635 0.01859614 0.014153592 0.060832486 -0.084290326 -0.00880567
0.06917104 0.026418975 0.07567917 -0.050666165 0.09051816 -0.050925717 0.05393804 -0.013076236
-0.06673492 0.003440922 0.046022564 0.014339335 0.054155808 0.056300327 0.12539257 -0.047358945
0.05645451 0.13909025 -0.0021399437 -0.052941483 -0.025656557 -0.057939287 0.020089753 0.1123648
-0.08334561 0.081116095 0.03572786 -0.10316656 -0.023881298 0.050968498 -0.0011728813 0.118339285
0.10010755 0.13289358 0.030181482 0.032464672 0.12666434 0.0063189766 -0.025250595 -0.029159898
0.09820616 -0.051759485 -0.060617592 0.070577174 0.072595134 0.066693455 0.10217907 0.0144219035
-0.009386761 -0.017327027 -0.03745484 0.0012392891 0.006456713 0.106802166 0.061751306 0.002386267
0.036708068 -0.027674513 0.21107222 0.015625965 -0.1335025 0.001809987 -0.025078563 0.09514829
-0.036732137 0.03260719 0.02080749 -0.07013729 -0.021937007 0.072325386 -0.012737516 0.0181253
-0.07454739 0.006321156 -0.1318158 -0.025099913 -0.013013303 0.033270966 -0.025992265 -0.071213685
0.022371117 0.02105999 0.039181627 0.012134531 0.037423503 0.046971295 0.02706418 0.008170899
00000000: 0596 863c 67a3 813d 5c3b 153d d8af 28bd
00000010: 9bc7 2b3e e8fe 973d 1eb7 c63d b8ca 0c3e
00000020: 2e25 cf3c 75ff e03d d131 023e c68e a63d
00000030: 8fc8 2b3c 186d d73d 5242 4e3e d4dc fd3c
00000040: c7b3 2f3e 0e93 0dbe 9ae7 7a3d 5cae 08bb
00000050: 0533 ca3d 5332 033e 1529 27bc dc14 28bc
00000060: 9bf4 a23d cfec 13bc 4670 eabc 0ccd 143d
00000070: 37d4 8f3d 72e8 763c c4de 823d 815f b53d
00000080: 699a 973d 5fac c53d f5d3 3d3e 1cfd 61bd
00000090: 3bec 283d 63e7 59bb e335 953d 4602 023d
000000a0: d8e7 6d3d 0c2a d0bc 4469 f43d 98ba 2fbb
000000b0: 6bbe 013e ed78 4c3d 6ab4 9cbc 70d5 843d
000000c0: e340 213e afc4 f838 20f1 ce3d 9778 3cbc
000000d0: 95a9 ac3d 69b3 f5bc 3e1f 053e b53b 15bd
000000e0: 2d23 87bd 05f5 69bd 230d 92bc af11 743d
000000f0: 725d 93bd 4adc ee3c 22a1 973c abbb 203d
00000100: 51ea bebc 81b3 2fbd 625d 1b3e 33f0 cd3c
00000110: 4158 453d 2be2 3e3d 0f3b 183e 24b8 003e
00000120: 10fb bb3c e129 e03d d11a d23d 5891 733d
00000130: ce12 193d f1a0 7fbd 801a c53c 8a91 23bd
00000140: c56d 903c 0ca6 4a3d d762 a2bb 9626 103e
00000150: f9cc b73d be12 833d edfa 373c c6f9 62bd
00000160: 2288 c6bc 81f6 73bd 3b7e 7b3d 0003 343e
00000170: b3ad 79b9 1919 813c 1fbe 153e d665 da3d
00000180: 0f0c 4d3d 574b 103d f3e4 f83c f84a bd3d
00000190: a1cd a1bd 31dd 3d3d c94a ccbd 6ea3 f23d
000001a0: f65b e03c 79b7 debc 9577 ba3c 525c 083d
000001b0: 37dc 94bc ba33 9f3c d661 c63d dc72 c3bc
000001c0: 39b1 c1bc 0f54 72bd 6f92 dcbb 0063 dc3d
000001d0: 729b 34bd a426 003e 7ebb 9bba 1971 863d
000001e0: 03dd 4b3d b093 16bd 2dce 97bd 430a 02bd
000001f0: b1a7 ed3d 3cbd 903d 19f2 ea3d 0901 453e
00000200: 3730 0c3d 32ee e53d 776d 5b3d 399a 0c3d
00000210: c93a ff3d ee78 003e 7bfa c33d 678d bc3d
00000220: 7aa5 b73d 7c8e 8f3c 41ce cb3b 51e8 f63d
00000230: 8bb7 0f3d 94ed 94bc 8a5c d63d 75e5 9cbd
00000240: e1ff 203d 1edd 653d 6a96 523d f724 083d
00000250: e1d8 a13c b0d7 74bd 2167 5a3d b020 f43c
00000260: dc70 0c3e fd0a 95bd 1bde ab3c 42f9 59bc
00000270: 0bff 703e ddc4 adba d8e3 803d b02d ae3d
00000280: 1677 8b3d 375d 553d dbef 313d ef56 983c
00000290: 78e4 673c 7c2b 793d 68a0 acbd a845 10bc
000002a0: 8ca9 8d3d 9b6c d83c aefd 9a3d 5387 4fbd
000002b0: 9661 b93d 7c97 50bd 22ee 5c3d b53d 56bc
000002c0: 51ac 88bd 1781 613b 2882 3c3d 88ef 6a3c
000002d0: 7bd2 5d3d 2c9b 663d e966 003e 74fb 41bd
000002e0: d83c 673d ad6d 0e3e 4c3e 0cbb 2bd9 58bd
000002f0: b32d d2bc bf51 6dbd 4493 a43c 841f e63d
00000300: 1ab1 aabd 3220 a63d 6057 123d fd48 d3bd
00000310: b6a2 c3bc 58c4 503d 5ebb 99ba de5b f23d
00000320: 3005 cd3d 4115 083e 283f f73c adf9 043d
00000330: 4cb4 013e 6b0f cf3b 56da cebc bde0 eebc
00000340: 5020 c93d c101 54bd 274a 78bd c48a 903d
00000350: c2ac 943d 9496 883d 4343 d13d d949 6c3c
00000360: eeca 19bc 69f1 8dbc 3f6a 19bd a46f a23a
00000370: d692 d33b 18bb da3d f0ee 7c3d eb62 1c3b
00000380: 335b 163d a9b5 e2bc 5123 583e 0602 803c
00000390: e1b4 08be 163d ed3a 8f71 cdbc 1bdd c23d
000003a0: 7074 16bd 1e8f 053d 7874 aa3c 24a4 8fbd
000003b0: 3db5 b3bc 551f 943d 04b1 50bc 827b 943c
000003c0: 4dac 98bd b321 cf3b b9fa 06be 559e cdbc
000003d0: c035 55bc 2347 083d bbed d4bc 7bd8 91bd
000003e0: a243 b73c 0086 ac3c ea7c 203d e9cf 463c
000003f0: 6349 193d f964 403d b3b5 dd3c 3cdf 053c

convnet3.0.bias f4 [100]
-0.050658073 0.020418849 -0.06375097 0.013475293 0.007732862 -0.031129522 0.06377538 -0.002157659
-0.04795548 0.019344026 0.014829996 -0.042407323 -0.015294703 0.029554617 -0.017441258 0.060325556
-0.0022860311 -0.05916033 -0.047018014 -0.046755668 -0.013422213 -0.024096685 0.010217994 -0.050100304
-0.024946002 -0.02508869 0.034687243 -0.030857349 -0.054326758 0.044689618 -0.052420177 -0.011621667
-0.00010237614 0.06321208 0.015849186 -0.04394013 -0.01977803 0.013956252 0.031996835 0.015875362
-0.052284617 -0.0027185995 -0.03810272 -0.011413912 -0.027910281 -0.005227068 -0.020645726 -0.03138844
-0.06378944 -0.047973745 0.016015608 -0.010619745 0.06797441 0.017459067 0.052808534 -0.056657806
-0.01484813 -0.072913446 0.066518456 -0.063037306 0.057553984 -0.015351774 -0.047350183 0.015048881
-0.035258975 -0.06588765 -0.040371392 0.04156892 -0.050404333 0.006860148 -0.045052942 0.0503117
-0.0054459437 -0.03780813 -0.015704961 0.060956843 0.026309913 -0.05219282 0.020851128 0.026931277
-0.04222728 0.025537003 -0.027205085 -0.015809461 0.011882212 0.055968042 -0.03424327 -0.019948876
0.04470203 0.072438896 0.06672484 -0.03398346 0.024315229 0.032064527 -0.003196578 -0.009605956
-0.0107428925 0.010951683 -0.037681863 -0.013240592
00000000: d77e 4fbd 6e45 a73c de8f 82bd 7ac7 5c3c
00000010: f363 fd3b 5703 ffbc ab9c 823d 8367 0dbb
00000020: f76c 44bd 5d77 9e3c 83f9 723c 4db3 2dbd
00000030: a296 7abc 861c f23c f8e0 8ebc ee17 773d
00000040: 3dd1 15bb 1a52 72bd f695 40bd df82 3fbd
00000050: d7e8 5bbc 6966 c5bc 6069 273c fa35 4dbd
00000060: 8f5b ccbc cc86 cdbc 3614 0e3d 8dc8 fcbc
00000070: bc85 5ebd 760c 373d 8ab6 56bd ce68 3ebc
00000080: c6b2 d6b8 5675 813d 27d6 813c 91fa 33bd
00000090: 8905 a2bc c3a8 643c 1d0f 033d 0c0d 823c
000000a0: 6528 56bd 882a 32bb 9911 1cbd 6b01 3bbc
000000b0: 1aa4 e4bc d347 abbb 3a21 a9bc 2a91 00bd
000000c0: 0aa4 82bd 1e80 44bd 2a33 833c 70fe 2dbc
000000d0: 2b36 8b3d 5106 8f3c c34d 583d 0412 68bd
000000e0: 9245 73bc a553 95bd d43a 883d b419 81bd
000000f0: babd 6b3d 0286 7bbc 44f2 41bd 958f 763c
00000100: b76b 10bd 1bf0 86bd 795c 25bd 2c44 2a3d
00000110: c674 4ebd 18cb e03b 6f89 38bd a413 4e3d
00000120: e373 b2bb b3dc 1abd b1a7 80bc e2ad 793d
00000130: e387 d73c 23c8 55bd fccf aa3c fb9e dc3c
00000140: 83f6 2cbd fa32 d13c 33dd debc d882 81bc
00000150: 9cad 423c bf3e 653d ac42 0cbd d36b a3bc
00000160: 7a19 373d d85a 943d 08a7 883d 3e32 0bbd
00000170: bb30 c73c 1856 033d ae7d 51bb 4d62 1dbc
00000180: f502 30bc b06e 333c 4c58 1abd 11ef 58bc

convnet3.1.weight f4 [100]
1.0771009 1.0264604 0.86989844 0.99632907 0.9393034 0.92157614 0.9197085 0.8735017
0.903501 0.87389535 1.0784395 0.9279264 1.0392702 0.9052601 1.0208503 1.1551355
1.0180434 1.0066105 0.9774217 1.0889761 0.7292358 0.9951593 0.86883026 1.0769452
0.924567 0.9946704 1.0541872 1.0836481 0.87174815 1.0292617 1.1003313 1.1337664
1.0660098 0.9784357 0.9715142 0.9437841 0.8405168 0.9296132 0.9988763 0.9871827
1.0073949 0.99009 0.9724719 0.8819813 1.0296011 1.0185783 1.0576986 0.9976915
0.92451054 1.0741005 1.0186995 1.0736618 0.8664667 0.96243894 1.0170746 0.96707684
0.96129876 0.9697617 0.9352508 0.98747724 1.0892029 0.9588169 0.9861932 1.097409
1.0330821 1.0217657 1.0684404 0.99870926 1.0816629 1.0452113 1.0122657 0.9269425
1.0615685 1.0790406 0.8842461 1.0105668 1.0320425 0.9661784 0.9605856 0.94611114
0.99870545 0.9755374 0.93582034 0.9817098 1.0879436 1.0440419 0.9812676 1.069988
1.0713392 0.8919907 0.9825804 0.95497394 1.0335131 1.0386157 1.125591 0.9496385
0.85915965 1.0682095 1.2057838 1.0434557
00000000: 71de 893f 0e63 833f aab1 5e3f 6c0f 7f3f
00000010: 3076 703f 6aec 6b3f 0472 6b3f cf9d 5f3f
00000020: d74b 673f 9bb7 5f3f 4e0a 8a3f 968c 6d3f
00000030: ce06 853f 20bf 673f 39ab 823f 7bdb 933f
00000040: 3f4f 823f 9dd8 803f 4f38 7a3f 9263 8b3f
00000050: 33af 3a3f c3c2 7e3f a96b 5e3f 57d9 893f
00000060: 6cb0 6c3f b8a2 7e3f 9bef 863f fbb4 8a3f
00000070: e32a 5f3f d9be 833f a8d7 8c3f 421f 913f
00000080: 0273 883f c37a 7a3f 28b5 783f d69b 713f
00000090: 1c2c 573f 21fb 6d3f 5bb6 7f3f 01b8 7c3f
000000a0: 51f2 803f 8a76 7d3f ebf3 783f 87c9 613f
000000b0: f8c9 833f c660 823f ab62 873f b668 7f3f
000000c0: b9ac 6c3f 207c 893f bf64 823f c06d 893f
000000d0: c3d0 5d3f 6662 763f 802f 823f 5992 773f
000000e0: ad17 763f 4e42 783f 996c 6f3f 4fcb 7c3f
000000f0: 006b 8b3f 0675 753f 2877 7c3f e677 8c3f
00000100: 093c 843f 38c9 823f a8c2 883f 69ab 7f3f
00000110: ee73 8a3f 7cc9 853f ec91 813f 1b4c 6d3f
00000120: 7ae1 873f 011e 8a3f f45d 623f 415a 813f
00000130: f819 843f 7857 773f f0e8 753f 5734 723f
00000140: 29ab 7f3f d2bc 793f ec91 6f3f 5551 7b3f
00000150: bc41 8b3f 2aa3 853f 5a34 7b3f 5ef5 883f
00000160: a521 893f 8159 643f 648a 7b3f 2c79 743f
00000170: 284a 843f 5cf1 843f 5e13 903f 821b 733f
00000180: e3f1 5b3f 17bb 883f 2057 9a3f f58f 853f

convnet3.1.bias f4 [100]
-0.17523126 -0.15449537 -0.06329443 -0.22551325 -0.049201366 -0.22142728 -0.2250553 -0.07500859
-0.16847244 -0.19105893 -0.2570359 -0.12891969 -0.1502869 -0.073148616 -0.08981403 -0.39337215
-0.15635942 -0.18812457 -0.09724628 -0.30931616 -0.16414574 -0.1553438 -0.14125466 -0.22828911
-0.18116274 -0.106885746 -0.21732903 -0.11738177 -0.2691335 -0.19829978 -0.018584024 -0.16793483
-0.05338819 -0.18194655 -0.15948373 -0.07506849 -0.18508871 -0.1618504 -0.19190192 -0.15890893
-0.12718244 -0.07022843 -0.20122752 -0.17658876 -0.2360711 -0.086870894 -0.08233227 -0.13356172
-0.15965782 -0.05275681 -0.11607891 -0.12453168 -0.1870534 0.0059445873 -0.08967699 -0.17766918
-0.16230902 -0.10534069 -0.16820328 -0.07101535 -0.15606648 -0.20184392 -0.21775001 -0.16486432
-0.12797792 -0.15201479 -0.20625772 -0.18622118 -0.16169721 -0.19196616 -0.13298433 -0.18199459
-0.29350114 -0.14088355 -0.20579167 -0.13254978 -0.19853714 -0.09537808 -0.14740624 -0.096054286
-0.06480158 -0.18921721 -0.13408555 -0.1285909 -0.12753741 -0.03754424 -0.20288369 -0.2033498
-0.32554376 -0.08396693 -0.1903478 -0.107492805 -0.049579564 -0.1786114 -0.066063166 -0.16685392
-0.15961027 -0.1195537 -0.15578073 -0.15163775
00000000: d36f 33be 0934 1ebe 83a0 81bd f2ec 66be
00000010: 5f87 49bd d5bd 62be e674 66be 1b9e 99bd
00000020: 0a84 2cbe f4a4 43be 369a 83be 8603 04be
00000030: cfe4 19be f1ce 95bd 6bf0 b7bd 1368 c9be
00000040: af1c 20be baa3 40be 0f29 c7bd b05e 9ebe
00000050: d215 28be 7212 1fbe 10a5 10be 9fc4 69be
00000060: ba82 39be eae6 dabd 808b 5ebe da65 f0bd
00000070: decb 89be 190f 4bbe 863d 98bc 1cf7 2bbe
00000080: 93ad 5abd 3250 3abe b44f 23be 82bd 99bd
00000090: e587 3dbe 1cbc 25be f081 44be 06b9 22be
000000a0: 1d3c 02be ecd3 8fbd 960e 4ebe afd3 34be
000000b0: 9fbc 71be 5ee9 b1bd d29d a8bd 67c4 08be
000000c0: 577d 23be 8617 58bd c8ba edbd 770a ffbd
000000d0: ed8a 3fbe d0ca c23b 92a8 b7bd e9ee 35be
000000e0: 5634 26be dcbc d7bd 7b3d 2cbe 7f70 91bd
000000f0: e4cf 1fbe 2cb0 4ebe dcf9 5ebe 31d2 28be
00000100: a50c 03be c4a9 1bbe 3935 53be c4b0 3ebe
00000110: f493 25be c792 44be 0b2d 08be ca5c 3abe
00000120: c845 96be c743 10be 0dbb 52be 21bb 07be
00000130: 524d 4bbe 9555 c3bd a9f1 16be 1cb8 c4bd
00000140: b1b6 84bd 28c2 41be b94d 09be 55ad 03be
00000150: 2b99 02be fdc7 19bd bec0 4fbe ee3a 50be
00000160: acad a6be dbf6 abbd 89ea 42be 3025 dcbd
00000170: f113 4bbd e8e5 36be 204c 87bd c1db 2abe
00000180: e070 23be 92d8 f4bd fc84 1fbe ed46 1bbe

convnet3.1.running_mean f4 [100]
2.7579634 -1.5362715 -0.23640253 -0.77646875 0.593362 0.2629047 -0.8102606 -0.40516105
-0.5624084 1.2645627 2.5567198 -0.24576461 0.33776808 1.1893098 1.1536435 1.5471734
-0.19657683 2.2586033 0.18781765 1.9779665 0.43102366 -0.8596774 -0.2911893 2.1181297
0.069719516 0.45139897 0.37763846 -0.7837843 0.93491995 2.7097027 -0.38762653 2.4534888
-1.1554157 -0.856535 -1.1257919 -0.7878305 1.1698774 1.9043751 -1.6312828 -0.34022787
1.4075878 0.1733736 3.0121403 0.36343053 2.0127912 -0.40626892 0.25747842 1.6228352
0.3881961 0.21019061 0.66383034 2.3908975 -0.43551508 0.8005176 -0.35389298 1.9753004
0.17113967 -0.40469638 -0.16240449 1.8409405 1.884527 -0.23875968 -2.0227487 1.0484077
-0.3120303 -0.41156682 2.5084972 0.4305829 1.5418125 0.047727495 -0.36206096 -0.23315315
1.8709862 0.058673777 2.2357223 0.018606938 3.0418406 1.0442837 1.8468809 0.26793563
-0.3825035 0.3329748 -0.28043535 -0.17031576 -0.98436856 -0.8128226 0.5721623 1.3328608
1.7435822 -0.15650928 1.538491 1.6161911 -0.91285276 2.435739 -0.84644043 -0.77838486
-0.55926967 1.7466552 1.5709348 -0.9410503
00000000: 7982 3040 8ba4 c4bf 8113 72be a8c6 46bf
00000010: 92e6 173f 729b 863e 3d6d 4fbf 4571 cfbe
00000020: fff9 0fbf 31dd a13f 4ca1 2340 b8a9 7bbe
00000030: f0ef ac3e 4e3b 983f 97aa 933f c709 c63f
00000040: 704b 49be f58c 1040 4553 403e 022e fd3f
00000050: 22af dc3e d113 5cbf c416 95be 708f 0740
00000060: 1bc9 8e3d c41d e73e d459 c13e 16a6 48bf
00000070: ea56 6f3f c56b 2d40 fc76 c6be f605 1d40
00000080: a9e4 93bf e145 5bbf f319 90bf 42af 49bf
00000090: 8bbe 953f 90c2 f33f e0cd d0bf 5932 aebe
000000a0: d62b b43f d988 313e e8c6 4040 9113 ba3e
000000b0: 92d1 0040 7b02 d0be 36d4 833e 10b9 cf3f
000000c0: a4c1 c63e 353c 573e c9f0 293f 7704 1940
000000d0: d5fb debe b9ee 4c3f 7631 b5be a5d6 fc3f
000000e0: 3d3f 2f3e 5d34 cfbe 5d4d 26be f0a3 eb3f
000000f0: 2e38 f13f 6b7d 74be b774 01c0 3932 863f
00000100: 6fc2 9fbe e3b8 d2be 388b 2040 5d75 dc3e
00000110: 1d5a c53f e87d 433d 0e60 b9be b3bf 6ebe
00000120: 7a7c ef3f ea53 703d 1316 0f40 946d 983c
00000130: 84ad 4240 17ab 853f 9866 ec3f dc2e 893e
00000140: 80d7 c3be ac7b aa3e 3995 8fbe 4167 2ebe
00000150: 94ff 7bbf 2415 50bf 3a79 123f 2f9b aa3f
00000160: b42d df3f f843 20be 46ed c43f 5adf ce3f
00000170: b8b0 69bf 26e3 1b40 52b0 58bf 3b44 47bf
00000180: 4c2c 0fbf 6692 df3f 6414 c93f ace8 70bf

convnet3.1.running_var f4 [100]
13.483172 7.0528045 6.178585 2.8406458 3.8671865 6.31743 7.5294423 3.1844559
8.11535 9.950789 10.91835 5.3812113 5.4946036 6.8042192 5.1005125 7.578219
3.0182638 10.701589 3.5863383 9.334813 7.749465 4.0539956 7.2334375 11.380634
5.3155985 2.9267263 6.7268 4.3173757 6.2306414 13.425531 4.9639688 11.704963
4.7777123 6.6046176 5.7160435 6.3960495 7.336906 8.090246 4.9253845 5.124991
6.0079436 4.7126412 13.745383 5.2264953 9.495847 4.152706 4.864046 10.230702
2.7284582 3.943872 6.9586687 12.219125 6.681771 4.750282 4.9022465 11.26185
7.4035544 2.8563945 6.247493 7.2128954 6.7018585 5.2200227 6.775091 4.886473
3.7023027 4.361356 11.719379 6.4396176 6.841653 6.258491 2.7713099 6.4434733
7.7867074 3.6593742 9.753097 4.391052 12.471176 5.330148 7.340178 6.501661
5.0030456 8.737957 6.4919744 8.801321 3.3420053 6.3828025 7.8884807 7.689385
11.03375 5.2396846 6.877288 7.494652 4.2020884 9.563319 5.4480577 8.38308
4.110803 10.399593 9.135524 4.269165
00000000: 13bb 5741 93b0 e140 f8b6 c540 24cd 3540
00000010: fc7f 7740 6328 ca40 31f1 f040 20ce 4b40
00000020: 79d8 0141 6f36 1f41 90b1 2e41 e232 ac40
00000030: cbd3 af40 2abc d940 6637 a340 c580 f240
00000040: 3c2b 4140 b539 2b41 9186 6540 655b 1541
00000050: 9efb f740 55ba 8140 5278 e740 1417 3641
00000060: 6219 aa40 7c4f 3b40 f241 d740 f127 8a40
00000070: 6a61 c740 face 5641 d5d8 9e40 8747 3b41
00000080: 05e3 9840 0759 d340 d4e9 b640 70ac cc40
00000090: efc7 ea40 a671 0141 c09c 9d40 edff a340
000000a0: 1341 c040 f5cd 9640 17ed 5b41 733f a740
000000b0: fdee 1741 f8e2 8440 44a6 9b40 f5b0 2341
000000c0: 0f9f 2e40 6668 7c40 6aad de40 8981 4341
000000d0: 11d1 d540 4f02 9840 34df 9c40 8a30 3441
000000e0: ebe9 ec40 2bcf 3640 76eb c740 0ad0 e640
000000f0: a075 d640 6d0a a740 8ccd d840 fd5d 9c40
00000100: 87f2 6c40 3a90 8b40 9482 3b41 5911 ce40
00000110: d2ee da40 8f45 c840 245d 3140 ef30 ce40
00000120: b52c f940 3033 6a40 af0c 1c41 7f83 8c40
00000130: f089 4741 9390 aa40 bde2 ea40 9b0d d040
00000140: f318 a040 acce 0b41 41be cf40 36d2 0c41
00000150: 6ae3 5540 eb3f cc40 6f6e fc40 710f f640
00000160: 3d8a 3041 7fab a740 be12 dc40 30d4 ef40
00000170: 8277 8640 5b03 1941 7d56 ae40 1821 0641
00000180: b38b 8340 bc64 2641 1b2b 1241 009d 8840

convnet4.0.weight f4 [200, 100, 1, 5]
-0.025266472 -0.0529193 0.045936786 -0.089399524 -0.0516438 0.09229738 0.14177647 0.11174696
-0.12957534 0.053167418 0.009337852 0.030399254 0.06938068 -0.08852862 -0.001175568 -0.08777612
-0.105234705 -0.015836207 0.018663296 -0.01138219 -0.0972919 0.0010237659 0.048052073 -0.020724004
0.058009975 0.10877311 -0.05867691 0.060690705 -0.040658146 -0.004477758 0.21939938 0.020584574
-0.12104723 -0.046298347 -0.019332357 -0.0069364635 -0.104870014 -0.018408636 -0.02913606 0.17646565
0.013163548 0.058948003 0.07375918 0.020130947 0.08601419 0.060379107 -0.04607711 0.05658976
0.010365227 0.019628914 0.045812137 -0.04645228 -0.04079148 -0.114181034 0.011646938 0.07538642
0.12538055 0.01465006 -0.04772177 -0.057246994 -0.12719892 -0.0054070675 0.0078867 -0.03316234
0.029012717 -0.022933697 0.0013276216 0.054225963 -0.015280191 0.066398904 -0.060630176 -0.078176044
-0.04936986 0.051684182 -0.11801235 0.07600876 -0.043334324 0.0940537 -0.013653975 0.06991154
-0.06666805 -0.079140894 -0.04179679 -0.03332647 -0.09627353 -0.08641202 -0.008388249 0.104017824
-0.017916135 0.043938566 -0.1303357 -0.15540977 0.08533067 -0.11720335 -0.004997989 0.0860303
0.029053507 0.002083508 0.04623853 -0.055868283 -0.012708856 0.21892315 0.084396 0.050207824
0.046678863 0.13580118 0.021651693 0.039968375 -0.0773282 -0.031647865 0.059257865 0.1049408
0.028446592 0.09702125 -0.04007118 0.050680228 0.0043308344 0.019903136 0.0632239 -0.057016928
0.036567803 -0.001041859 -0.0052020457 0.02482581 -0.0031656497 -0.034521785 0.027255148 -0.015312518
-0.148858 -0.05984398 0.056463767 -0.08561025 -0.05550018 -0.055274025 -0.015131815 -0.10128738
-0.04531774 0.08910758 -0.09791992 -0.094889924 -0.07235858 0.04835189 0.09179848 0.008899702
-0.024783017 0.0033249361 0.0279339 0.028015662 0.038571864 0.01872755 -0.10185472 0.03515505
0.048824657 -0.027147766 0.05752986 -0.06427322 0.012336916 -0.0490269 -0.03689215 -0.09758402
-0.017462656 -0.04276945 -0.059059747 0.068481274 0.14653136 0.09203647 0.17208895 0.02747923
-0.072675176 0.015006255 0.06249808 0.06099605 0.036462154 -0.12409433 -0.008791846 0.031520758
0.066100635 0.0014704345 0.083383046 -0.04031797 -0.045051746 -0.08139875 -0.0052088476 0.055043906
0.038578678 -0.054743044 -0.0675079 0.04248972 -0.021597853 0.12734532 -0.08512018 -0.1362008
0.05653798 -0.011048583 0.090925545 -0.046180278 0.053091973 -0.071405925 -0.118793204 0.032366693
-0.069245 -0.0062416834 0.01792477 -0.113893844 0.064938 -0.214821 0.021417174 0.04218085
0.036297083 -0.010504661 0.00036385754 -0.055827778 -0.0030079712 -0.044459037 0.018331889 0.0026089451
0.00837178 -0.070404746 0.04146488 0.05392995 -0.011232767 -0.05122743 -0.037532263 -0.08817682
0.032118753 -0.0013131115 -0.049158815 -0.08697704 -0.061947428 0.048284896 -0.031817712 -0.01942342
-0.02732373 -0.013780219 -0.097533405 -0.1014198 -0.02063883 -0.041345302 -0.0074634394 0.055702735
-0.0024057282 -0.093139715 -0.027731808 -0.106703505 -0.084805325 0.03243692 -0.054923497 -0.03023842
-0.17028931 -0.015816767 0.032588422 0.0032433092 -0.057281006 -0.10206322 0.05865185 -0.026972095
00000000: a2fb cebc e8c1 58bd 3628 3c3d 1917 b7bd
00000010: 7388 53bd 6906 bd3d da2d 113e 97db e43d
00000020: 66af 04be 14c6 593d cafd 183c db07 f93c
00000030: 7517 8e3d 7e4e b5bd 8415 9aba f7c3 b3bd
00000040: 4b85 d7bd efba 81bc c5e3 983c 5d7c 3abc
00000050: fa40 c7bd e22f 863a 40d2 443d 63c5 a9bc
00000060: de9b 6d3d 70c4 de3d 3357 70bd d196 783d
00000070: 2889 26bd 28ba 92bb 3baa 603e fba0 a83c
00000080: 9ce7 f7bd 56a3 3dbd e45e 9ebc 464b e3bb
00000090: 17c6 d6bd b5cd 96bc bfae eebc 69b3 343e
000000a0: ecab 573c 7673 713d 0e0f 973d a8e9 a43c
000000b0: 3528 b03d 1550 773d 5abb 3cbd aaca 673d
000000c0: ead2 293c d1cc a03c 82a5 3b3d bf44 3ebd
000000d0: f814 27bd bfd7 e9bd ccd2 3e3c 3264 9a3d
000000e0: c263 003e ce06 703c e777 43bd d37b 6abd
000000f0: 6f40 02be c52d b1bb 3837 013c 3cd5 07bd
00000100: 14ac ed3c 73df bbbc 9703 ae3a 0b1c 5e3d
00000110: c459 7abc 26fc 873d 5957 78bd c31a a0bd
00000120: 0d38 4abd cbb2 533d 75b0 f1bd 7baa 9b3d
00000130: 557f 31bd 3a9f c03d ecb4 5fbc c82d 8f3d
00000140: 4289 88bd 9f14 a2bd 1c33 2bbd 5681 08bd
00000150: 0e2b c5bd c9f8 b0bd de6e 09bc 4c07 d53d
00000160: dcc4 92bc edf8 333d b976 05be bd23 1fbe
00000170: d9c1 ae3d 4f08 f0bd 2cc6 a3bb a730 b03d
00000180: 9f01 ee3c 778b 083b 9d64 3d3d 24d6 64bd
00000190: ce38 50bc 642d 603e cfd7 ac3d b8a6 4d3d
000001a0: 5632 3f3d 770f 0b3e e45e b13c e1b5 233d
000001b0: 3f5e 9ebd 31a1 01bd 60b8 723d 34eb d63d
000001c0: d408 e93c 14b3 c63d ad21 24bd 1296 4f3d
000001d0: ace9 8d3b e70b a33c 887b 813d 958a 69bd
000001e0: 1fc8 153d fd8e 88ba ec75 aabb 7f5f cb3c
000001f0: ca76 4fbb b766 0dbd 3046 df3c 5be1 7abc
00000200: 3b6e 18be f61e 75bd 8d46 673d 6d54 afbd
00000210: 2854 63bd 0467 62bd 6feb 77bc c26f cfbd
00000220: 189f 39bd 097e b63d 3d8a c8bd a655 c2bd
00000230: bc30 94bd a20c 463d d700 bc3d 0ed0 113c
00000240: c105 cbbc 2ce7 593b a2d5 e43c 1a81 e53c
00000250: 88fd 1d3d 856a 993c 3599 d0bd befe 0f3d
00000260: 5dfc 473d fe64 debc 6ea4 6b3d aea1 83bd
00000270: c720 4a3c 6ed0 48bd 391c 17bd 21da c7bd
00000280: d80d 8fbc 052f 2fbd a2e8 71bd e93f 8c3d
00000290: 510c 163e 9e7d bc3d 1638 303e 1f1c e13c
000002a0: b9d6 94bd ccdc 753c fdfd 7f3d fed6 793d
000002b0: 5759 153d 2b25 febd ad0b 10bc e91b 013d
000002c0: c55f 873d 98bb c03a bbc4 aa3d 7524 25bd
000002d0: 2e88 38bd 63b4 a6bd fbae aabb b875 613d
000002e0: ad04 1e3d 3e3a 60bd 9541 8abd b309 2e3d
000002f0: fbed b0bc d066 023e 7d53 aebd 3978 0bbe
00000300: 5e94 673d 1e05 35bc 2c37 ba3d 8827 3dbd
00000310: f876 593d 453d 92bd da49 f3bd f092 043d
00000320: 53d0 8dbd 0987 ccbb f8d6 923c 2d41 e9bd
00000330: 37fe 843d 09fa 5bbe 1273 af3c d4c5 2c3d
00000340: 40ac 143d be1b 2cbc 22c4 be39 abab 64bd
00000350: 6221 45bb ae1a 36bd c22c 963c d6fa 2a3b
00000360: ca29 093c 5d30 90bd 14d7 293d a7e5 5c3d
00000370: a409 38bc dbd3 51bd 6ebb 19bd 0c96 b4bd
00000380: f48e 033d b61c acba c15a 49bd 0521 b2bd
00000390: 96bc 7dbd 62c6 453d 4a53 02bd dd1d 9fbc
000003a0: 04d6 dfbc 6dc6 61bc 98bf c7bd 2fb5 cfbd
000003b0: c312 a9bc b159 29bd de8f f4bb 8d28 643d
000003c0: 6ca9 1dbb 09c0 bebd d12d e3bc 5e87 dabd
000003d0: 6aae adbd 93dc 043d 76f7 60bd 90b6 f7bc
000003e0: 5260 2ebe 2a92 81bc 707b 053d b38d 543b
000003f0: 7d9f 6abd 8606 d1bd ec3c 703d 95f4 dcbc
