Lab2/best results/DeepConvNet_ELU.pt (torch, 616981 bytes, 28 tensors)

convnet1.0.weight f4 [25, 1, 1, 5]
0	0x3e737e7f	0.23778723
1	0x3de182af	0.11011254
2	0x3e28392f	0.16428064
3	0xbf0c53eb	-0.5481555
4	0xbd1288e3	-0.035775077
5	0xbd5db0db	-0.05412374
6	0xbdfb93e5	-0.12284068
7	0x3ef26cb2	0.47348553
8	0xbec38fe6	-0.38195723
9	0xbe9d6356	-0.3073985
10	0xbee2a92d	-0.44269696
11	0x3e81d726	0.25359458
12	0x3d52487d	0.05133866
13	0xbd8270d8	-0.063691795
14	0xbea2be78	-0.3178594
15	0xbe75d904	-0.24008566
16	0xbe9a1a85	-0.30098358
17	0x3f019a9a	0.5062653
18	0x3e1f689e	0.15567252
19	0xbe8c67cc	-0.2742294
20	0xbcde272c	-0.027118288
21	0xbc744943	-0.014910045
22	0xbea07629	-0.3134015
23	0x3d986a55	0.07442156
24	0x3eb2823d	0.3486499
25	0xbe1ecdfc	-0.15508264
26	0x3ce34a2f	0.027745334
27	0xbe15bb95	-0.14622338
28	0x3eb03829	0.34417847
29	0x3d15931c	0.036517248
30	0x3ddb7ae5	0.107168
31	0xbec2fe43	-0.3808461
32	0xbea48ad7	-0.32137176
33	0xbe0799f8	-0.13242328
34	0x3eb7617b	0.3581656
35	0x3e82a049	0.25512913
36	0xbeca7269	-0.39540413
37	0x3dd360af	0.10321175
38	0xbe057667	-0.13033448
39	0xbe1460e0	-0.1449008
40	0xbe488c9c	-0.19584888
41	0x3da8cac9	0.08241803
42	0x3eaabc2a	0.33346683
43	0xbe4624a3	-0.19349913
44	0xbe3f5bb6	-0.18687329
45	0xbe920f5d	-0.28527346
46	0x3e00e9b3	0.12589149
47	0x3e79ab0a	0.24381652
48	0xbcf57948	-0.029965058
49	0x3e691b07	0.22764216
50	0xbed90fe7	-0.42394945
51	0x3eac3c5f	0.3363981
52	0xbe3c17e8	-0.18368495
53	0x3ea1d1e6	0.31605452
54	0xbdd5a067	-0.10430985
55	0xbedf85eb	-0.4365686
56	0xbde14baf	-0.110007636
57	0x3e925947	0.28583738
58	0x3ee12fb8	0.4398172
59	0xbf0327e3	-0.5123274
60	0xbbaa2d85	-0.0051934146
61	0xbed43be3	-0.4145194
62	0x3de13751	0.10996879
63	0x3ea8488d	0.32867852
64	0x3e2afc1c	0.16697735
65	0x3e84dfad	0.259519
66	0x3e891c67	0.26779482
67	0xbc17c25d	-0.009262648
68	0x3eb3141d	0.34976283
69	0xbed73c72	-0.42038304
70	0xbd758a43	-0.05994631
71	0xbe667e8a	-0.22509208
72	0xbd9fb5f3	-0.07798376
73	0xbd38180c	-0.044944808
74	0xbe9d1601	-0.3068085
75	0x3e00ccdc	0.12578148
76	0xbe620f69	-0.22076191
77	0xbe5f4566	-0.21803817
78	0xbe077f62	-0.13232186
79	0xbe863ffa	-0.26220685
80	0x3ea04bc5	0.31307808
81	0xbeb0e76e	-0.34551567
82	0xbdb8b745	-0.09019331
83	0x3e629e8f	0.22130798
84	0xbdc5b729	-0.09654076
85	0xbdd5888a	-0.104264334
86	0x3e415853	0.1888135
87	0x3ec4cae3	0.3843604
88	0xbda29fb2	-0.07940616
89	0xbe5f8a74	-0.2183016
90	0x3eb742bf	0.3579311
91	0x3e7d7df6	0.24755082
92	0x3e211349	0.15730013
93	0xbe19fd71	-0.15038086
94	0x3ea76431	0.32693627
95	0x3e63000f	0.22167991
96	0x3dbed5bf	0.093181126
97	0xbe00e5dd	-0.12587686
98	0xbeace3ec	-0.3376764
99	0x3ddb97f4	0.10722342
100	0xbecf0bb6	-0.40438622
101	0x3eb01af0	0.34395552
102	0x3e646416	0.22303805
103	0x3d62d278	0.0553765
104	0xbea4bd72	-0.32175785
105	0x3e94c28e	0.29054683
106	0x3e53548d	0.20637722
107	0xbecd2a06	-0.40071124
108	0xbed6cd09	-0.41953304
109	0xbd80a574	-0.06281558
110	0xbeb7d158	-0.35901904
111	0xbe8ee76a	-0.2791093
112	0x3f1ca6be	0.6119193
113	0xbe55a5e5	-0.20864065
114	0xbecb5791	-0.39715245
115	0xbe2b6dad	-0.16741057
116	0x3eacfd97	0.33787224
117	0xbe2c403c	-0.16821378
118	0xbcaf4e8f	-0.021399764
119	0xbc9900e3	-0.01867718
120	0x3da509e7	0.08058529
121	0xbeb866aa	-0.36015826
122	0x3eda483b	0.42633232
123	0xbeb8c4cf	-0.36087653
124	0x3ddac4e8	0.10682088

convnet1.0.bias f4 [25]
0	0x3ebd8e0b	0.37022433
1	0xbe697527	-0.22798596
2	0xbda8129d	-0.08206675
3	0x3dd0a198	0.101870716
4	0x3e7771a4	0.24164444
5	0x3d961c78	0.07329649
6	0x3e31ebd0	0.17375112
7	0x3ee6c2c4	0.4507047
8	0xbedd65cd	-0.4324173
9	0x3e4a291f	0.19742249
10	0xbdc2e967	-0.09517174
11	0x3d93d950	0.072191834
12	0x3d5cc186	0.053895496
13	0xbe1e3b83	-0.1545239
14	0xbe8afe94	-0.27147353
15	0xbeaf4990	-0.3423581
16	0xbdde2356	-0.108465835
17	0xbed1ed0e	-0.4100117
18	0x3c0bb577	0.008527151
19	0x3cfc7813	0.030818975
20	0xbe6268c3	-0.22110276
21	0x3ecb4579	0.3970144
22	0x3d2e4974	0.04255052
23	0x3e5dc74a	0.21658054
24	0xbecd770a	-0.40129882

convnet1.1.weight f4 [25, 25, 2, 1]
0	0xbd8c182a	-0.068405464
1	0xbd9513fe	-0.07279204
2	0x3d710699	0.058844183
3	0x3dbc96a0	0.09208417
4	0x3d6b36cf	0.057425316
5	0xbe0da64b	-0.13832967
6	0x3e304fa1	0.17217876
7	0x3dc0ec56	0.094200775
8	0x3de29570	0.11063659
9	0xbd22cfe1	-0.03974903
10	0xbdadd477	-0.0848779
11	0x3d8b9268	0.06815034
12	0x3db18a98	0.08669013
13	0xbdc18b15	-0.09450356
14	0x3c7ba0b3	0.015358138
15	0x3dcbfb9c	0.099601
16	0x3e0f7d9c	0.1401276
17	0xbe0336ec	-0.1281392
18	0xbcb8ebcb	-0.022573372
19	0xbcde8af7	-0.027165873
20	0xbc5f296a	-0.013620714
21	0xbdfee050	-0.12445128
22	0x3e053114	0.13007003
23	0xbd9d0314	-0.07666603
24	0x3d8801ba	0.06640954
25	0xbd79f445	-0.06102397
26	0xbe09996a	-0.13437429
27	0x3e23c971	0.15994813
28	0x3d87c29d	0.066289164
29	0xbd875426	-0.06607847
30	0x3d18dffc	0.037322983
31	0xbd3f5bc8	-0.04671839
32	0x3e0ebeaa	0.1393992
33	0xbac79d23	-0.0015229326
34	0xbdc2f5d0	-0.09519541
35	0x3e1acf48	0.15118134
36	0xbd86f80e	-0.065902814
37	0x3e3468ab	0.17618053
38	0xbded0d73	-0.11574831
39	0x3d5166a9	0.051123295
40	0xbca55771	-0.020183297
41	0xbd83d64f	-0.064373605
42	0xbdc147c3	-0.094375156
43	0x3ce06fd4	0.027397074
44	0x3d30383a	0.04302237
45	0xbe0cb454	-0.13740665
46	0xbbecb898	-0.0072241537
47	0xbc51d1ec	-0.012806397
48	0x3e19c8f0	0.15018058
49	0xbd705bbd	-0.05868124
50	0x3d4f6890	0.050636828
51	0x3d835700	0.06413078
52	0x3c7ed3d6	0.015553435
53	0x3d29eb8d	0.041484404
54	0x3d6b412e	0.057435207
55	0xbde87720	-0.11350846
56	0x3cbbc3e5	0.022920558
57	0xbee190f9	-0.44055918
58	0xbc9eba92	-0.019376073
59	0xbd14947a	-0.03627441
60	0x3dd364d7	0.10321968
61	0x3c56db02	0.013113739
62	0xbd50adfb	-0.05094717
63	0x3cb47187	0.02202679
64	0x3cbc36a0	0.022975266
65	0x3cd51ffd	0.02601623
66	0xbd62b2b5	-0.05534621
67	0x3d7a8221	0.061159257
68	0xbc427bae	-0.011870308
69	0xbe16b015	-0.14715607
70	0x3d6e7978	0.05822131
71	0xbd82f8ec	-0.06395134
72	0x3d1888db	0.03723989
73	0xbdff6ffc	-0.12472531
74	0x3e116618	0.14199102
75	0xbc127417	-0.008938811
76	0x3d5f20c3	0.054474603
77	0xbd558919	-0.0521327
78	0xbcb3931d	-0.021920735
79	0x3cd1d5c9	0.025614636
80	0xbe03168b	-0.12801568
81	0x3dbb637b	0.09149834
82	0x3d3cbd78	0.04607913
83	0x3e17e308	0.148327
84	0xbd3e04e3	-0.04639138
85	0xbe4e0c60	-0.20121908
86	0xbe1d5aad	-0.15366621
87	0x3e2b076d	0.16702051
88	0xbe354f25	-0.17705972
89	0x3eaa72c7	0.33290693
90	0x3ddb6fe2	0.10714699
91	0xbea4f79f	-0.3222017
92	0xbce9c2aa	-0.028535206
93	0x3e2d4d4f	0.16924022
94	0xbb2c914f	-0.0026331728
95	0xbda82524	-0.08210209
96	0xbdea1b39	-0.114309736
97	0x3d59674b	0.053077023
98	0xbc6142a6	-0.0137488
99	0xbde9e3a7	-0.11420374
100	0x3ce4f368	0.027948096
101	0xbd5d5785	-0.054038543
102	0x3e37a0ef	0.17932485
103	0xbe045130	-0.12921596
104	0x3e4114a7	0.18855534
105	0xbdf0e1c7	-0.117618136
106	0xbd0fd456	-0.03511461
107	0xbcfde51f	-0.030993043
108	0xbe1beddf	-0.1522746
109	0x3dc39e34	0.09551659
110	0x3d97af48	0.07406479
111	0x3ce7717f	0.028252361
112	0xbd8034ab	-0.062600456
113	0xbe1f7f60	-0.15575933
114	0x3d36d6d1	0.04463846
115	0xbdc5378b	-0.096297346
116	0x3d4cfe9e	0.05004751
117	0x3d861655	0.06547228
118	0x3c90ab8a	0.017659921
119	0x3c2c9826	0.010534322
120	0xbce38b63	-0.027776426
121	0x3c6717cb	0.014104794
122	0x3da85fe5	0.082214154
123	0x3c08fe85	0.008361463
124	0xbd13ffc7	-0.0361326
125	0x3db8c06a	0.09021075
126	0xbdbd028a	-0.09229
127	0xbd0ff0d1	-0.03514177
128	0x3def1edd	0.116758086
129	0xbd7fb575	-0.06242891
130	0x3da37291	0.07980836
131	0xbd9713d8	-0.07376832
132	0x3d2c8271	0.042116586
133	0xbe747fe9	-0.23876919
134	0x3d0e58c1	0.03475261
135	0x3d396e7d	0.045271385
136	0xbdd2684b	-0.102737986
137	0x3e29cc1f	0.16581772
138	0x3e10caf2	0.14139917
139	0x3d9038d4	0.07042089
140	0x3cdab32f	0.02669677
141	0xbbd8e0a5	-0.0066185766
142	0x3e4174c4	0.18892199
143	0xbdf99f1c	-0.12188551
144	0x3c5dabb8	0.0135297105
145	0x3d909ed6	0.070615456
146	0x3dd2d53b	0.10294577
147	0x3e2d6777	0.16934
148	0xbcbc1692	-0.022959981
149	0xbe442cbc	-0.1915769
150	0x3bc41467	0.0059838775
151	0xbcbadf8b	-0.022811672
152	0x3e0eb06e	0.1393449
153	0xbe742399	-0.23841704
154	0x3d0695bb	0.032857638
155	0xbd0abc39	-0.03387091
156	0x3d6fbf5c	0.058532104
157	0xbc014575	-0.007890095
158	0xbdae373b	-0.08506628
159	0x3e07fa0c	0.13278979
160	0xbdaf42e8	-0.08557683
161	0x3e228dfb	0.15874474
162	0x3e11a782	0.14224055
163	0xbe3eecf2	-0.18645075
164	0x3cf07b6e	0.02935573
165	0xbe4e566e	-0.20150158
166	0xbe0c445d	-0.13697954
167	0x3caa24b4	0.020769455
168	0xbb94aebe	-0.0045374325
169	0xbcfb9dfa	-0.030714978
170	0x3d4fc568	0.05072537
171	0x3e9ae6ee	0.3025431
172	0xbd5d998b	-0.054101508
173	0xbde472cf	-0.111547105
174	0xbd86dd22	-0.065851465
175	0xbd46e877	-0.04856154
176	0x3c5633d0	0.0130738765
177	0xbd9706ed	-0.07374368
178	0x3e1cc6a8	0.15310156
179	0x3d5cf116	0.053940855
180	0x3d95bac3	0.073110126
181	0xbdbce9c1	-0.092242725
182	0x3de8414d	0.1134058
183	0xbe5e9076	-0.21734795
184	0x3d7e0784	0.062018886
185	0xbd059e65	-0.03262176
186	0xbcde98af	-0.027172415
187	0x3d676364	0.05649127
188	0x3e18ae04	0.14910132
189	0xbe1ce77f	-0.15322684
190	0xbd363245	-0.044481535
191	0x3e4efe8a	0.20214286
192	0xbd396732	-0.04526443
193	0x3e0be379	0.13660993
194	0x3e10028f	0.14063476
195	0xbe1cbdcb	-0.15306775
196	0x3d26c48e	0.040714793
197	0x3e75e607	0.2401353
198	0xbdc02edf	-0.0938394
199	0xbe6f5efe	-0.2337608
200	0x3e4372bc	0.19086736
201	0x3dcd81d6	0.1003453
202	0x3d2998d0	0.0414055
203	0x3d0d0c5d	0.03443562
204	0x3e145a1b	0.14487498
205	0xbdddcb5e	-0.10829805
206	0xbdad20c5	-0.08453516
207	0xbd5781df	-0.05261409
208	0x3e41beb5	0.18920405
209	0xbd8800d1	-0.06640781
210	0x3bf58814	0.0074930284
211	0x3d30f32b	0.043200653
212	0xbceeb468	-0.029138759
213	0xbdd38c48	-0.10329491
214	0x3d0e2fa4	0.034713402
215	0xbdeca852	-0.11555542
216	0x3cc04fab	0.023475489
217	0xbd735662	-0.059408553
218	0x3d932a9a	0.0718586
219	0xbc28c986	-0.010301953
220	0x3db85419	0.09000415
221	0x3cf46ba1	0.029836478
222	0xbe7b8338	-0.24561775
223	0xbd95be74	-0.07311717
224	0xbe42f661	-0.19039299
225	0xbd23a065	-0.039947886
226	0xbd281471	-0.04103512
227	0xbb90a7cd	-0.0044145347
228	0x3c4da9eb	0.012552719
229	0xbd816635	-0.063183226
230	0x3d0b0ac7	0.033945825
231	0xbcca89a2	-0.024723832
232	0xbe40b6ff	-0.18819807
233	0x3cec6375	0.028856019
234	0xbde2dad1	-0.11076892
235	0x3e06291c	0.1310162
236	0xbe17a610	-0.14809442
237	0x3df99f87	0.121886306
238	0x3e4c2c8b	0.19938867
239	0xbd8d6057	-0.06903141
240	0xbdeeef8a	-0.11666782
241	0x3d0c976f	0.034324106
242	0x3e6a2c35	0.22868426
243	0xbd24e5ad	-0.0402581
244	0xbd56ab7f	-0.052409645
245	0xbe01f661	-0.12691642
246	0x3d3f1e3a	0.046659686
247	0x3d5e05d4	0.054204777
248	0x3d89f59c	0.067362994
249	0xbd25f097	-0.040512647
250	0xbd18e8aa	-0.03733126
251	0x3dc3db37	0.09563296
252	0x3d423488	0.04741338
253	0xbc09319b	-0.008373643
254	0x3de4ce3d	0.11172149
255	0xbc30242f	-0.010750814

convnet1.1.bias f4 [25]
0	0xbdcdf8ad	-0.10057197
1	0xbda935ff	-0.08262252
2	0x3cdb93b5	0.02680383
3	0xbd17aa6c	-0.03702776
4	0x3dfae66c	0.12250981
5	0x3e06402e	0.1311042
6	0xbdd5628d	-0.10419188
7	0x3d2855a3	0.041097295
8	0xbcc98b85	-0.02460266
9	0xbd777491	-0.0604139
10	0x3daca7e7	0.08430462
11	0x39c27463	0.00037089278
12	0xbdf15593	-0.117839
13	0xbbfd838b	-0.0077366284
14	0xbc089707	-0.008336789
15	0xbc240a20	-0.01001218
16	0x3e01a805	0.1266175
17	0xbccb25bf	-0.024798272
18	0x3c799537	0.0152333295
19	0xbe02f8c8	-0.12790215
20	0xbd9f501e	-0.07778953
21	0xbcf0e03d	-0.0294038
22	0xbdaec7a7	-0.085341744
23	0x3bdf2a15	0.0068104365
24	0x3c5e47f4	0.01356696

convnet1.2.weight f4 [25]
0	0x3f8dee78	1.10884
1	0x3f6ec937	0.9327578
2	0x3f822386	1.0167091
3	0x3f93c9f9	1.1546012
4	0x3f7610b2	0.96119225
5	0x3f700e72	0.9377204
6	0x3f7ded89	0.99190575
7	0x3f8853fd	1.0650631
8	0x3f87317a	1.0561974
9	0x3f6a6c27	0.9157128
10	0x3f7acd98	0.9796996
11	0x3f849b43	1.0359882
12	0x3f73cda7	0.95235676
13	0x3f856a9a	1.0423157
14	0x3f803778	1.0016928
15	0x3f6a91b7	0.91628593
16	0x3f81fe7f	1.0155791
17	0x3f80b786	1.0056007
18	0x3f729c1b	0.9476945
19	0x3f8142f4	1.0098557
20	0x3f755c86	0.95844305
21	0x3f8529e4	1.0403409
22	0x3f8c5ee2	1.0966456
23	0x3f698ad8	0.91227484
24	0x3f86fc96	1.0545833

convnet1.2.bias f4 [25]
0	0xbe758bfc	-0.23979181
1	0xbeb5ae72	-0.35484654
2	0xbe89ed7b	-0.26938996
3	0xbeb39eab	-0.35081992
4	0xbe8e26aa	-0.27763873
5	0xbeb79fcb	-0.358641
6	0xbea968b6	-0.330877
7	0xbeccc6dd	-0.3999547
8	0xbec8ed59	-0.39243582
9	0xbec88d5d	-0.39170352
10	0xbed70313	-0.41994533
11	0xbebd6475	-0.36990705
12	0xbe9dfd9e	-0.30857557
13	0xbe703ce1	-0.23460723
14	0xbec79ae7	-0.3898537
15	0xbe92809c	-0.28613746
16	0xbebdf45c	-0.37100494
17	0xbec42431	-0.38308862
18	0xbe71511a	-0.23566094
19	0xbec5f1fa	-0.38661176
20	0xbe74f127	-0.23920117
21	0xbe89a954	-0.26887
22	0xbec024e9	-0.3752816
23	0xbec88aeb	-0.39168486
24	0xbe743de1	-0.2385173

convnet1.2.running_mean f4 [25]
0	0xbe4cf9b0	-0.20017123
1	0x3df12bcf	0.11775934
2	0x3d5ae3af	0.053439792
3	0x3d3d4020	0.046203732
4	0x3e8712f1	0.2638164
5	0x3ed2ef0e	0.4119801
6	0xbe0b3edb	-0.13598196
7	0x3ecf6ec6	0.405142
8	0xbdb17664	-0.08665159
9	0x3dd6da0f	0.1049081
10	0xbe57218e	-0.21008894
11	0x3e41f375	0.18940528
12	0xbc76a20e	-0.015053285
13	0xbd07d7b9	-0.033164714
14	0xbd07a801	-0.033119205
15	0xbd534c67	-0.051586535
16	0x3e78c11a	0.24292412
17	0x3b6ff1be	0.0036612595
18	0xbe21a386	-0.15785035
19	0xbe4b91a3	-0.19879775
20	0x3c0134e7	0.007886148
21	0xbe7d46b7	-0.24734007
22	0xbcfb04cb	-0.030641934
23	0x3ea34d28	0.31894803
24	0xbe1d3b33	-0.15354614

convnet1.2.running_var f4 [25]
0	0x40c9ee8a	6.3103685
1	0x4103302d	8.199262
2	0x40fb927d	7.861632
3	0x4092d8ae	4.58895
4	0x41081b94	8.506733
5	0x4105ae53	8.35506
6	0x416e5dc8	14.897896
7	0x4100c3f9	8.047845
8	0x4097ff6d	4.74993
9	0x40c18483	6.0474257
10	0x410f45f4	8.954578
11	0x41701406	15.004889
12	0x41713e78	15.077751
13	0x4135f332	11.371874
14	0x4116f263	9.434176
15	0x414cbc62	12.795992
16	0x40c57c13	6.171396
17	0x40ffa24e	7.9885626
18	0x418aa2d2	17.329502
19	0x412bc285	10.73499
20	0x4213c629	36.943516
21	0x4214e9bb	37.228252
22	0x40e6eb95	7.2162576
23	0x412ef2c5	10.93427
24	0x41019aa9	8.100259

convnet2.0.weight f4 [50, 25, 1, 5]
0	0xbd91eb15	-0.071249165
1	0x3da884fa	0.08228488
2	0x3de7a317	0.11310404
3	0x3d0cd5ec	0.0343837
4	0xbe0711de	-0.1319041
5	0xbe2b7aa5	-0.16746004
6	0x3da989b1	0.08278216
7	0x3d9e6c0e	0.077354535
8	0xbe39424b	-0.18091695
9	0xbd8878d2	-0.0666367
10	0x3dd17fbd	0.10229442
11	0x3e0560e2	0.13025239
12	0xbd86902b	-0.065704666
13	0xbb922910	-0.0044604614
14	0xbd9a408b	-0.07531842
15	0x3e2e31df	0.17011212
16	0x3dece023	0.11566188
17	0xbcde5c6b	-0.027143678
18	0xbdbecf64	-0.093169
19	0xbdb3360a	-0.087505415
20	0x3e172f6b	0.14764182
21	0x3de4ab17	0.11165445
22	0x3d075a83	0.033045303
23	0xbdcda41a	-0.100410655
24	0xbcd5f538	-0.026117906
25	0xbe006c79	-0.12541379
26	0x3b27c834	0.0025601508
27	0xbcae03b0	-0.021241993
28	0xbdcf65cd	-0.10126839
29	0xbe292f27	-0.16521893
30	0x3d8ed9a5	0.06975106
31	0x3c895ab6	0.016766887
32	0xbd2d53e0	-0.042316318
33	0x3d87d12c	0.06631693
34	0xbdf1f2bf	-0.11813878
35	0x3c551330	0.013005063
36	0x3e096689	0.1341802
37	0x39d50e10	0.00040637003
38	0xbc123593	-0.008923906
39	0x3e20f446	0.15718183
40	0x3da1f0d4	0.079072624
41	0xbb95ca59	-0.004571241
42	0x3d975a14	0.07390228
43	0x3df026d1	0.11726154
44	0xbdbfb2b7	-0.09360259
45	0xbdf40d23	-0.11916568
46	0xbdde51a9	-0.10855419
47	0xbcf98306	-0.030457985
48	0xbc893bab	-0.016752085
49	0xbd8dd231	-0.069248565
50	0x3d16a6f6	0.03678032
51	0x3c047819	0.008085274
52	0xbe3c1c65	-0.18370207
53	0xbc971e5d	-0.018447096
54	0x3d262451	0.040561978
55	0x3d4a855a	0.04944358
56	0x3bec33ea	0.007208337
57	0x3d12e210	0.03586012
58	0xbd0d9320	-0.034564137
59	0xbe8100ea	-0.2519601
60	0xbe4dd371	-0.2010019
61	0x3d13033a	0.03589175
62	0x39ee359d	0.00045434842
63	0xbe1b79d5	-0.15183194
64	0xbcb8a6f1	-0.022540541
65	0x3d96c056	0.07360904
66	0x3d9af2aa	0.07565816
67	0xbda4762e	-0.080303535
68	0xbd6f8aa1	-0.058481816
69	0xbdfdb864	-0.12388685
70	0xbc9982a2	-0.018739048
71	0xbda6ed31	-0.081507094
72	0x3c35b459	0.0110903615
73	0x3c8957d1	0.016765507
74	0xbe83f47a	-0.25772458
75	0x3d1de864	0.038551703
76	0x3c7fe316	0.015618106
77	0xbd2c7b0d	-0.042109538
78	0x3d0ef90f	0.03490549
79	0xbdd34265	-0.10315398
80	0xbd04d662	-0.032431014
81	0x3dc4d708	0.096113265
82	0x3d786d53	0.060651135
83	0xbd88c313	-0.066778325
84	0xbdf3e6d1	-0.11909259
85	0xbd97a3f6	-0.0740432
86	0x3dae78eb	0.08519157
87	0x3da994af	0.08280312
88	0xbded5e42	-0.11590244
89	0xbe1c374e	-0.15255472
90	0x3d227070	0.03965801
91	0xbd995a80	-0.07487965
92	0xbe135773	-0.14388828
93	0x3dd870d3	0.105683945
94	0x3e08ef1d	0.13372464
95	0x3dcd8929	0.10035927
96	0x3d350075	0.04418989
97	0xbdb2e81b	-0.08735677
98	0xbc4dd10e	-0.01256205
99	0x3cb83108	0.022484317
100	0x3cb98406	0.022645961
101	0x3e17c1d3	0.14820032
102	0xbd32aee2	-0.043623812
103	0xbd47e90c	-0.048806235
104	0xbe18a8c9	-0.14908136
105	0x3cf60177	0.030029995
106	0x3dcc0333	0.09961548
107	0x3dad9d6c	0.084772915
108	0xbc895812	-0.016765628
109	0xbdaae477	-0.083443575
110	0x3cc8c02b	0.024505695
111	0x3e10b2ea	0.1413075
112	0x3d765ca3	0.06014694
113	0xbc260032	-0.0101318825
114	0xbdc00c87	-0.093773894
115	0xbe640601	-0.22267915
116	0xbcb7454f	-0.022371916
117	0xbbd7713e	-0.006574779
118	0xbe457a9e	-0.19285056
119	0xbdc2986a	-0.09501727
120	0xbd21d1d3	-0.039506745
121	0x3dbc664d	0.091992
122	0x3dd95f80	0.10613918
123	0x3d96cc03	0.07363131
124	0xbca01440	-0.019540906
125	0xbdcdc7d1	-0.100478776
126	0xbdfe459a	-0.12415619
127	0xbc212aef	-0.009836896
128	0xbcf235ec	-0.029566728
129	0x3dcb7658	0.09934682
130	0x3ce51c17	0.027967496
131	0x3cd1cbcb	0.025609871
132	0x3c78a338	0.015175633
133	0x3dacf34f	0.08444845
134	0xbd135c78	-0.035976857
135	0xbcdf65d3	-0.027270233
136	0x3d6d25f3	0.05789752
137	0x3d069ba1	0.032863263
138	0xbdcc2ee6	-0.09969883
139	0xbdfd3ac4	-0.12364724
140	0xbe0376d9	-0.12838306
141	0x3a969353	0.0011487998
142	0x3bb66da6	0.0055672703
143	0xbd50753e	-0.05089306
144	0xbd1396ea	-0.036032595
145	0xbdbde1ec	-0.09271607
146	0x3d1d7d18	0.038449377
147	0x3d8d7430	0.06906927
148	0x3d818b85	0.06325439
149	0xba3b4be2	-0.00071447913
150	0x3d92e3be	0.071723446
151	0xbd68cc68	-0.056835562
152	0xbb17fa61	-0.002319001
153	0x3d39bb5c	0.045344695
154	0xbc9ac91b	-0.018894723
155	0xbd919195	-0.07107846
156	0x3db0db1f	0.08635544
157	0xbe05982e	-0.13046333
158	0x3b9440b3	0.0045243143
159	0x3cbd4601	0.02310467
160	0xbe51b9d9	-0.20481052
161	0xbe50ac7c	-0.20378298
162	0xbdb96420	-0.090523005
163	0xbb1dd95c	-0.0024085855
164	0x3d5b205b	0.053497653
165	0xbd8244d5	-0.06360785
166	0xbe010195	-0.1259826
167	0xbd5fcd0c	-0.054638907
168	0xbc8cd07c	-0.017189257
169	0xbd5f4df2	-0.054517694
170	0x3dc87464	0.09787825
171	0x3e01b751	0.12667586
172	0xbc5284ff	-0.012849092
173	0xbd6b7e99	-0.05749378
174	0xbd603723	-0.054740082
175	0x3c8cd42a	0.017191011
176	0x3d83b3cd	0.06430779
177	0x3de113c7	0.109901
178	0x3cb81b7b	0.022474041
179	0x3d9de38b	0.07709416
180	0xbdc48fd6	-0.09597747
181	0xbd93be67	-0.07214051
182	0x3e04d085	0.12970169
183	0x3e4ff6f5	0.2030905
184	0x3e146c0e	0.14494345
185	0x3e1f5f37	0.15563665
186	0x3d015823	0.031578194
187	0x3d062aa4	0.03275551
188	0xbd646c58	-0.055767387
189	0xbe3661a2	-0.17810681
190	0xbc8a11e5	-0.016854236
191	0x3d2a4be8	0.041576296
192	0xbe270463	-0.16310267
193	0xbd2e86b7	-0.042608943
194	0x3d7bf4db	0.06151281
195	0xbdd1464b	-0.102184854
196	0xbe4a706a	-0.19769445
197	0x3e02c299	0.12769546
198	0x3e229746	0.15878019
199	0xbcb686e8	-0.022281125
200	0xbca3730d	-0.019952321
201	0xbc2dcf09	-0.010608443
202	0xbda7f68a	-0.082013205
203	0xbc6fcf26	-0.01463679
204	0x3d1cab15	0.038249094
205	0xbdc62671	-0.09675301
206	0xbc6d4f56	-0.014484247
207	0x3e28b7f8	0.16476429
208	0x3e548397	0.20753323
209	0xbcf4dded	-0.029890979
210	0x3d352ead	0.044233967
211	0xbba3b08b	-0.004995411
212	0x3d2fe882	0.042946346
213	0x3d91a9a5	0.07112435
214	0xbaa5b0b0	-0.0012641158
215	0x3d360a05	0.04444315
216	0x3d955343	0.072912715
217	0xbd75570e	-0.059897475
218	0xbe8c0685	-0.27348724
219	0xbc913637	-0.017726047
220	0xbd8f3bce	-0.06993829
221	0x3d428316	0.047488295
222	0x3cd095dd	0.025462085
223	0xbd041b31	-0.032252494
224	0x3d39f334	0.045397952
225	0xbe01f517	-0.1269115
226	0xbbb44d77	-0.0055023986
227	0x3e02cba9	0.12773003
228	0x3d000c8f	0.031261977
229	0x3ca6073b	0.02026712
230	0xbe6b9e01	-0.23009492
231	0xbd53e429	-0.051731262
232	0x3e468d2f	0.19389795
233	0x3e67bfed	0.22631808
234	0x3d37e8f3	0.044899892
235	0xbd9a13af	-0.075232856
236	0xbb598168	-0.0033188704
237	0x3e2f5b9a	0.17124787
238	0x3dbce0f5	0.09222595
239	0xbd09c4bc	-0.033634886
240	0x3d9b0213	0.07568755
241	0x3d93e36d	0.072211124
242	0x3d9214d2	0.071328774
243	0x3db06ee8	0.08614904
244	0xbe307522	-0.17232183
245	0xbd93325c	-0.0718734
246	0xbdef0185	-0.11670212
247	0xbd03c48a	-0.032169856
248	0x3c9b8153	0.018982565
249	0x3cfab302	0.030602936
250	0x3db0954f	0.08622228
251	0x3e36d9a9	0.17856468
252	0x3c94c83b	0.018161884
253	0xbd287498	-0.041126817
254	0x3d2ef825	0.042717118
255	0xbd172d5f	-0.036908504

convnet2.0.bias f4 [50]
0	0x3d207181	0.039170746
1	0xbd0caba4	-0.034343377
2	0x3d554b4c	0.05207376
3	0x3d8ff90c	0.07029924
4	0x3dbf90ec	0.093538135
5	0xbc819699	-0.01581888
6	0x3c6ec346	0.014572924
7	0xba9cd2ab	-0.0011964639
8	0x3c0e43dd	0.008683172
9	0x3be30b34	0.0069288258
10	0xbd3a466a	-0.04547731
11	0x3d0c0b44	0.03419043
12	0xbdb84229	-0.08996994
13	0x3d6d050e	0.05786615
14	0x3db3d7be	0.08781384
15	0xbdafe2f9	-0.085882135
16	0xba8d4580	-0.0010778159
17	0x3c7890e0	0.01517126
18	0xbd907015	-0.07052628
19	0xbda4b2e0	-0.0804193
20	0xbdd852ef	-0.10562693
21	0x3db1bddb	0.0867879
22	0xbc397524	-0.011319432
23	0xbd2fc8de	-0.04291617
24	0xbbdc88fd	-0.0067301975
25	0x3cb6c483	0.022310501
26	0xbd900fa9	-0.07034237
27	0xbd210921	-0.039315347
28	0x3d4f774c	0.05065088
29	0xbdd54ff0	-0.104156375
30	0xbdb52a9e	-0.08846019
31	0x3d3e3368	0.046435744
32	0x3b9c2add	0.004765852
33	0xbbe7d24d	-0.0070746304
34	0xbd4fd3de	-0.05073916
35	0xbc24d1c8	-0.010059781
36	0xbd0c1b4f	-0.03420573
37	0x3c829022	0.015937869
38	0xbcc6e322	-0.024278227
39	0xbd8ab9f1	-0.06773747
40	0xbd8b1d8a	-0.067927435
41	0x3db02931	0.08601607
42	0x3bfcfcc6	0.0077205626
43	0x3ca990a1	0.020698847
44	0x3c72eb5a	0.01482662
45	0x3d22a25f	0.03970563
46	0xbd309fdf	-0.043121215
47	0x3c964dc6	0.018347632
48	0xbcb2b01b	-0.02181249
49	0xbd6ca6d4	-0.057776287

convnet2.1.weight f4 [50]
0	0x3f6ff7cb	0.9373748
1	0x3f71e8d7	0.9449591
2	0x3f674eb1	0.9035445
3	0x3f6f9f6d	0.9360264
4	0x3f872501	1.0558168
5	0x3f6ddb52	0.9291278
6	0x3f866cf0	1.0501995
7	0x3f810ab3	1.008139
8	0x3f74c3b5	0.95611125
9	0x3f67e76b	0.9058749
10	0x3f52985a	0.8226372
11	0x3f6d374b	0.92662495
12	0x3f685471	0.9075385
13	0x3f62a6ce	0.88535774
14	0x3f81f214	1.0152001
15	0x3f7d72e0	0.9900341
16	0x3f7abf01	0.979477
17	0x3f81bc02	1.01355
18	0x3f6dbdb9	0.9286762
19	0x3f717de4	0.9433272
20	0x3f74bf55	0.9560445
21	0x3f849491	1.0357839
22	0x3f8c67ca	1.0969174
23	0x3f813cb3	1.0096649
24	0x3f7d6d6e	0.989951
25	0x3f81b69e	1.0133855
26	0x3f65eb6d	0.89812356
27	0x3f81db56	1.0145061
28	0x3f65de05	0.897919
29	0x3f8dbc31	1.1073056
30	0x3f7ceacf	0.9879579
31	0x3f81998d	1.0124985
32	0x3f65f78f	0.8983087
33	0x3f736e65	0.95090324
34	0x3f82278a	1.0168316
35	0x3f790990	0.97280216
36	0x3f7bf9e9	0.9842821
37	0x3f6a15fd	0.914398
38	0x3f5acded	0.8547047
39	0x3f819e79	1.0126487
40	0x3f7d859f	0.99032015
41	0x3f8a6fab	1.0815328
42	0x3f7071ce	0.9392365
43	0x3f748902	0.9552156
44	0x3f779b98	0.9672179
45	0x3f7e0f45	0.9924205
46	0x3f758ab2	0.9591476
47	0x3f77a840	0.96741104
48	0x3f78f343	0.9724619
49	0x3f86d966	1.0535095

convnet2.1.bias f4 [50]
0	0xbed4b043	-0.41540727
1	0xbe5a3012	-0.213074
2	0xbebf9f2b	-0.37426123
3	0xbed30624	-0.41215622
4	0xbe9ee513	-0.31034145
5	0xbe98ceae	-0.29845184
6	0xbeabf9e5	-0.33589092
7	0xbec51ad4	-0.3849703
8	0xbec3790a	-0.38178283
9	0xbed5592f	-0.41669604
10	0xbe779c67	-0.24180757
11	0xbe912891	-0.28351262
12	0xbecee04c	-0.404055
13	0xbe849397	-0.25893852
14	0xbea9cea2	-0.3316546
15	0xbed8ffbd	-0.42382613
16	0xbe6dd946	-0.23227414
17	0xbe984138	-0.29737258
18	0xbea222fb	-0.31667313
19	0xbed85190	-0.42249727
20	0xbeafdc94	-0.34347975
21	0xbed90a19	-0.42390516
22	0xbe7ba35f	-0.2457404
23	0xbec63fc4	-0.38720524
24	0xbf01dd9f	-0.5072879
25	0xbe949ae9	-0.29024437
26	0xbe95b1d1	-0.29237226
27	0xbef20eef	-0.47277018
28	0xbebda09f	-0.37036607
29	0xbe8fd8d4	-0.28095114
30	0xbeebda89	-0.46065167
31	0xbed06343	-0.4070073
32	0xbe5b5cad	-0.21422072
33	0xbe955abb	-0.29170784
34	0xbe9c0b06	-0.3047716
35	0xbecb7340	-0.39736366
36	0xbed2c48c	-0.41165578
37	0xbea399e9	-0.31953362
38	0xbe78c00f	-0.24292015
39	0xbedc5d41	-0.43039897
40	0xbe8e39d8	-0.27778506
41	0xbe59f2bb	-0.21284
42	0xbe9b7f98	-0.30370784
43	0xbecdbd25	-0.40183368
44	0xbe3a44a5	-0.18190248
45	0xbe9424bd	-0.2893428
46	0xbed1af8c	-0.40954244
47	0xbe5026a2	-0.20327237
48	0xbebef332	-0.37294918
49	0xbee46829	-0.44610718

convnet2.1.running_mean f4 [50]
0	0xbcd2df5c	-0.025741272
1	0xbe203f33	-0.15649109
2	0x3e20f545	0.15718563
3	0x3defc937	0.117083006
4	0xbe99d80c	-0.30047643
5	0x3d5a4510	0.05328852
6	0xbf189652	-0.5960437
7	0x3d1a0e74	0.03761144
8	0x3db17f56	0.086668655
9	0xbce88f60	-0.028388679
10	0xbe43d52d	-0.19124289
11	0x3d6db094	0.058029726
12	0xbdc9b78d	-0.09849463
13	0x3dde9b21	0.10869432
14	0x3eae1550	0.34000635
15	0xbd95f619	-0.0732233
16	0xbe396ad2	-0.18107155
17	0xbcef9c45	-0.02924932
18	0xbe21b404	-0.15791327
19	0xbe4468b7	-0.1918057
20	0xbe534cf6	-0.20634827
21	0x3d619883	0.055077087
22	0xbf122e6d	-0.5710209
23	0xbe56a4e0	-0.20961332
24	0xbdd06dc7	-0.10177188
25	0x3da455cb	0.08024176
26	0xbcfb3d0d	-0.03066876
27	0xbd2c8b11	-0.04212481
28	0x3cc72d2d	0.024313534
29	0xbf4b1898	-0.793344
30	0xbe125c2d	-0.14292975
31	0xbcf97898	-0.030453011
32	0x3e1a904e	0.1509411
33	0x3e16a2a0	0.14710474
34	0x3ca4f0b8	0.020134315
35	0xbc570a9a	-0.013125086
36	0x3c816f50	0.015800148
37	0x3d38f4ff	0.04515552
38	0xbe4ab8f1	-0.19797112
39	0x3c8b69f2	0.017018292
40	0xbe7b94d5	-0.24568494
41	0x3e3da09b	0.18518297
42	0xbe1f066c	-0.15529794
43	0xbc5f3927	-0.013624466
44	0x3e22e81e	0.15908858
45	0x3d26000e	0.040527396
46	0xbe012e5a	-0.12615338
47	0xbd08d832	-0.033409305
48	0xbd23c02b	-0.039978188
49	0xbe7a981b	-0.24472086

convnet2.1.running_var f4 [50]
0	0x406726ae	3.6117358
1	0x405aef8d	3.420871
2	0x406f672a	3.7406716
3	0x4078a033	3.8847778
4	0x4125023a	10.313044
5	0x408b1608	4.3464394
6	0x418099f6	16.075176
7	0x40a564a4	5.168535
8	0x405eca06	3.4810805
9	0x40666b8a	3.6003137
10	0x402e87eb	2.7270458
11	0x407e8abc	3.9772177
12	0x40732622	3.7992024
13	0x409cfdee	4.9059973
14	0x40eef781	7.467713
15	0x405e6b91	3.4753153
16	0x4083f58d	4.1237245
17	0x4087b0fd	4.240355
18	0x404a2c14	3.1589403
19	0x403d6cdf	2.95977
20	0x40770197	3.859472
21	0x4099acfd	4.8023667
22	0x416e45fe	14.892088
23	0x407fbc33	3.9958618
24	0x407ba469	3.9319098
25	0x40d3261b	6.5984015
26	0x4080516d	4.0099397
27	0x4060cea5	3.5126126
28	0x40832e21	4.099381
29	0x419027f8	18.019516
30	0x40934d1b	4.6031623
31	0x406676fe	3.6010127
32	0x409dc938	4.930813
33	0x40f1e17c	7.558775
34	0x4101b436	8.106497
35	0x4050a37e	3.2599788
36	0x40953079	4.662167
37	0x40697845	3.6479657
38	0x4070cdd8	3.7625637
39	0x404c554f	3.1927068
40	0x408fd174	4.494318
41	0x4103c79e	8.236235
42	0x404952c8	3.1456776
43	0x406ee9fa	3.7330308
44	0x41141d6f	9.257186
45	0x4090a2e2	4.519883
46	0x40867cf5	4.2027535
47	0x4094141c	4.6274548
48	0x4071da7d	3.7789605
49	0x408fb65a	4.4910097

convnet3.0.weight f4 [100, 50, 1, 5]
0	0x3e44122f	0.19147561
1	0xbcf4070e	-0.02978852
2	0x3e01bad7	0.1266893
3	0x3e028b3c	0.12748426
4	0xbd8b2226	-0.06793623
5	0x3ce63e12	0.02810577
6	0x3c5793cd	0.013157797
7	0xbe0dcada	-0.13846913
8	0xbde6723b	-0.112522565
9	0xbcedc2fd	-0.029023642
10	0x3dcf1a7e	0.10112475
11	0x3d35c1e5	0.044374365
12	0xbdc9aba4	-0.09847191
13	0xbd547965	-0.051873583
14	0xbe5a2f67	-0.21307145
15	0x3dba2efe	0.09090994
16	0xbdd3f880	-0.10350132
17	0xbd0f6e94	-0.035017565
18	0xbc902985	-0.017597923
19	0xbd088d6b	-0.03333799
20	0xbdb92c1c	-0.09041616
21	0xbd8d3bf3	-0.068962
22	0xbe40c6b1	-0.18825795
23	0xbda8337d	-0.082129456
24	0x3d5c2904	0.053750053
25	0xbe257441	-0.16157629
26	0xbe16cf05	-0.14727409
27	0x3d3cd3ba	0.046100356
28	0xbe0fe710	-0.14052987
29	0xbcfdaeb3	-0.030967092
30	0xbe8fed2f	-0.28110644
31	0xbd165285	-0.03669979
32	0xbd8c8f92	-0.06863321
33	0xbce35069	-0.027748303
34	0x3ce37c52	0.027769241
35	0xbaf70799	-0.0018846869
36	0xbc434203	-0.011917594
37	0xbd2fe36c	-0.042941496
38	0xbd9471dd	-0.0724828
39	0x3d67c086	0.05658009
40	0xbd883df6	-0.06652443
41	0xbe05fc2c	-0.13084477
42	0xbe0378fb	-0.12839119
43	0xbd257206	-0.040391944
44	0x3c8dae98	0.017295167
45	0x3c5d62b7	0.013512305
46	0xbe2f257b	-0.17104141
47	0xbe379585	-0.17928131
48	0xbcc156f1	-0.023601027
49	0x3d72cae3	0.05927552
50	0x3d908d16	0.0705816
51	0x3d19f4d6	0.03758701
52	0x3cbc9081	0.023018124
53	0x3c5ab976	0.013349881
54	0xbd517d7c	-0.05114506
55	0xbdb2f2eb	-0.08737739
56	0x3b9822a8	0.004642803
57	0xbca52c29	-0.020162659
58	0xbd6a2a41	-0.057169203
59	0x3c68edf7	0.0142168915
60	0xbd437ff8	-0.047729462
61	0x3d95aee4	0.07308748
62	0xbde64eff	-0.11245536
63	0xbcb68800	-0.022281647
64	0xbae56986	-0.0017502762
65	0x3d7196b2	0.058981605
66	0x3dc172a8	0.09445697
67	0xbc9435ea	-0.018092114
68	0x3ba08206	0.0048983125
69	0xbd4fb63f	-0.050710913
70	0x3ddb8a52	0.10719742
71	0x3e12878f	0.14309524
72	0x3d936dc3	0.0719867
73	0x3d805b67	0.062674336
74	0xbde2f50a	-0.11081894
75	0xbdc859e5	-0.09782771
76	0x3dde4a6b	0.10854038
77	0xbcbdc01a	-0.02316289
78	0xbc9475b1	-0.018122526
79	0x3e1c1f61	0.15246345
80	0xbcb14fa3	-0.021644419
81	0x3e1e8435	0.1548012
82	0x3c217a5e	0.009855835
83	0xbd08abab	-0.03336684
84	0xbde32596	-0.11091153
85	0xbe08962d	-0.13338538
86	0x3c920766	0.017825793
87	0xbe07e808	-0.13272107
88	0xbd90bd92	-0.07067408
89	0xbdb88690	-0.09010041
90	0x3d6a6c06	0.057231925
91	0xbdec5d24	-0.11541203
92	0x3d3fff94	0.046874598
93	0x3ca97299	0.020684527
94	0x3bc4a252	0.0060007954
95	0xbdb8d8f9	-0.09025759
96	0xbd38697b	-0.04502247
97	0x3cd40475	0.025881032
98	0x3c5aa81f	0.013345747
99	0xbd172fb1	-0.036910716
100	0x3dda988d	0.10673628
101	0xbce3ae2d	-0.027793014
102	0x3dffbe2b	0.124874435
103	0x3db95126	0.09048681
104	0xbe331879	-0.17489804
105	0xbdf5b5ed	-0.1199759
106	0xbd9a0fc3	-0.075225376
107	0x3e00f8ba	0.12594882
108	0xbe5132d4	-0.20429546
109	0xbe34ee3a	-0.17669001
110	0xbd9c738e	-0.07639228
111	0xbdf561af	-0.11981522
112	0xbe27499e	-0.16336676
113	0xbcd6ad57	-0.026205702
114	0x3d68ef09	0.056868587
115	0xbdffd1ac	-0.124911636
116	0xbe180274	-0.14844686
117	0xbe05e379	-0.13075055
118	0xbe4b6fd0	-0.19866872
119	0xbda90c77	-0.082543306
120	0xbdedbe38	-0.11608547
121	0xbe0eed0a	-0.1395761
122	0xbd947536	-0.07248919
123	0xbd995dd3	-0.07488599
124	0xbe080720	-0.13283968
125	0x3d010406	0.031497978
126	0x3d7cc166	0.061707877
127	0x3deee516	0.116647884
128	0xbd97e35b	-0.074164115
129	0x3c8c1ab9	0.017102586
130	0xbc99292a	-0.018696386
131	0x3bdb98dd	0.0067015723
132	0xbd6bf42d	-0.05760591
133	0xbdfc5ea3	-0.12322738
134	0xbdf1061a	-0.11768742
135	0xbd9859e0	-0.07439017
136	0x3dd18d5b	0.102320395
137	0xbbb943ce	-0.005653835
138	0xbd20b946	-0.03923919
139	0xbe3f31b8	-0.1867131
140	0xbc058b3a	-0.00815087
141	0x3cb9d9de	0.022686895
142	0xbcb89f8e	-0.02253702
143	0xbe5ac60c	-0.21364611
144	0xbc501655	-0.012700637
145	0xbe610012	-0.21972683
146	0xbde78d3f	-0.113062374
147	0xbcde47ca	-0.027133841
148	0xbde61a88	-0.11235529
149	0xbdc4b047	-0.09603935
150	0xbd8b31df	-0.067966215
151	0x3b04349b	0.0020172957
152	0xbd2ce074	-0.042206243
153	0xbc3a428e	-0.011368407
154	0xbe04bb84	-0.12962157
155	0x3d73168f	0.059347685
156	0xbe3c52f1	-0.18391015
157	0xbde59bc9	-0.11211354
158	0x3d3219af	0.043481525
159	0xbc7e44e1	-0.015519352
160	0xbcefc4d6	-0.029268663
161	0x3e008cee	0.1255376
162	0x3d7ba07e	0.061432354
163	0xbd05026a	-0.032473005
164	0x3c40066d	0.011720282
165	0x3d032358	0.03201613
166	0xbddf4084	-0.10900977
167	0x3cdce71d	0.026965672
168	0x3daf4cd7	0.08559578
169	0xba693121	-0.00088955654
170	0x3d39a8b7	0.045326915
171	0x3dcfa30c	0.101385206
172	0x3d24c467	0.040226366
173	0x3cea0206	0.028565418
174	0xbda7a44f	-0.08185636
175	0xbd8c286b	-0.068436466
176	0x3dc74c86	0.097313926
177	0xbdeeb34e	-0.116552934
178	0xbd730d6e	-0.05933898
179	0x3d23c1f4	0.03997989
180	0xbd71a816	-0.05899819
181	0xbe7437e4	-0.23849446
182	0xbc913329	-0.01772459
183	0xbde45648	-0.11149269
184	0x3c8294e5	0.01594014
185	0x3d4066ff	0.046973225
186	0xbc20d78a	-0.0098170135
187	0x3dea0a62	0.114277616
188	0xbd5c9380	-0.053851604
189	0xbd91c5ff	-0.07117843
190	0x3da72992	0.08162226
191	0xbbb74982	-0.0055934796
192	0x3ddb5ca4	0.10711029
193	0xbe2479a5	-0.16062029
194	0x3d2fe518	0.04294309
195	0x3c9d4f8e	0.019202974
196	0xbcab51bd	-0.020913
197	0xbe119d8d	-0.14220257
198	0xbd8bef52	-0.06832756
199	0xbcb5eb3b	-0.022206893
200	0xbc8189e5	-0.015812824
201	0x3d380896	0.044930063
202	0xbdb51851	-0.088425286
203	0x3d3c5054	0.045975044
204	0x3d8f9b81	0.07012082
205	0x3d944d6d	0.0724133
206	0x3d9555b3	0.072917365
207	0xbc04277e	-0.008066056
208	0x3dad267a	0.084546044
209	0xbd749e0f	-0.05972105
210	0x3d6d8d18	0.057995886
211	0xbe0eae56	-0.13933691
212	0x3c7812d8	0.015141211
213	0x3c6052c2	0.013691606
214	0x3b68b345	0.0035507244
215	0xbe05445d	-0.1301436
216	0x3dd387c2	0.10328628
217	0xbe6a0651	-0.22853972
218	0xbcd47584	-0.025934942
219	0xbd8d992a	-0.06913979
220	0x3cd87692	0.026423726
221	0x3d421ad3	0.047388863
222	0x3d9f9b54	0.07793298
223	0xbd45b689	-0.048269782
224	0x3d1394c8	0.03603056
225	0x3c1d43d4	0.009598691
226	0x3cb85e0e	0.022505786
227	0x3d6fdcdd	0.05856024
228	0x3e0432b7	0.12909971
229	0x3dd43643	0.10361912
230	0x3c66afe4	0.0140800215
231	0xbd4b6144	-0.049653307
232	0xbd8c0b76	-0.068381235
233	0xbd9c2e73	-0.07626047
234	0xbd3a9246	-0.045549653
235	0x3d25ccc5	0.040478487
236	0xbdb8fb82	-0.09032346
237	0x3dbd68b6	0.09248488
238	0x3d8a5678	0.06754774
239	0xbbc36786	-0.0059632687
240	0xbd277592	-0.04088361
241	0xbe07e4fd	-0.13270946
242	0xbdeba87e	-0.11506747
243	0xbdd2b81a	-0.10289021
244	0xbc6655fe	-0.014058588
245	0xbda1fefd	-0.07909963
246	0xbe145e3f	-0.14489077
247	0x3c8aaba5	0.01692755
248	0x3d31204b	0.043243688
249	0xbb6e4067	-0.0036354305
250	0xbcc4c182	-0.024018053
251	0xbe817770	-0.25286436
252	0xbd9d4bd0	-0.07680476
253	0x3ad3fe51	0.0016173815
254	0xbd8341c0	-0.06409025
255	0x3bc81a10	0.0061066225

convnet3.0.bias f4 [100]
0	0xbbe30709	-0.006928329
1	0xbd08ec19	-0.033428285
2	0x3d013690	0.031546175
3	0x3c812748	0.015765801
4	0x3c56b069	0.013103583
5	0x3d57d847	0.052696493
6	0xbc26d1eb	-0.010181884
7	0xbc84bc21	-0.016202988
8	0x3d57bb55	0.052668888
9	0xbd4664ed	-0.048436094
10	0xbd8c203a	-0.06842084
11	0xbd57a828	-0.0526506
12	0xbcddc32d	-0.027070606
13	0x3d6d6775	0.057959992
14	0x3b3fcf74	0.0029267939
15	0x3cf1f6d1	0.029536637
16	0x3d071fa0	0.032989144
17	0x3d254846	0.04035213
18	0xbd57e773	-0.05271096
19	0x3ccc6720	0.024951518
20	0x3d598ab6	0.0531108
21	0x3d511c20	0.051052213
22	0x3c99fd24	0.018797465
23	0xbd48ec16	-0.049053274
24	0xbd4c0e5e	-0.04981839
25	0x3cedabfc	0.029012673
26	0x3d6159e2	0.05501736
27	0xbc4b543b	-0.012410219
28	0xbd04a319	-0.032382105
29	0x3d77211d	0.060334314
30	0x3c959346	0.018258702
31	0x3d8cf03b	0.06881758
32	0x3ce89cac	0.02839502
33	0xbbb83332	-0.0056213373
34	0x3b8feb61	0.004392073
35	0xbca24e72	-0.019812796
36	0xbd2b6af7	-0.041850056
37	0xbd5688dd	-0.052376617
38	0xbced5c1b	-0.028974583
39	0xbcdae6a0	-0.026721299
40	0xbb53b69e	-0.0032304893
41	0x3b404a53	0.0029341176
42	0x3d83b412	0.0643083
43	0xbc50d75c	-0.012746658
44	0xbca392c9	-0.019967454
45	0xbc58e05e	-0.013237087
46	0xbd805013	-0.06265273
47	0x3d831923	0.06401279
48	0x3d469001	0.048477177
49	0x3bee7ad8	0.0072778277
50	0x3c8a5851	0.016887816
51	0xbc7242ed	-0.014786464
52	0x3cf4af65	0.02986879
53	0xba432f3a	-0.0007445697
54	0x3cc8a1ea	0.02449127
55	0xbcb6ec9d	-0.022329623
56	0x3c91c24e	0.017792847
57	0x3c590e56	0.013248047
58	0xbd74acdf	-0.059735175
59	0xbd5bdaa3	-0.053675305
60	0x3cbe4805	0.023227701
61	0x3d94215a	0.07232924
62	0xbd1e257a	-0.03860996
63	0x3bb6142f	0.0055566053
64	0xbd8c2c39	-0.06844372
65	0xbb777ce6	-0.0037763654
66	0x3bd01cc1	0.006351084
67	0xbd3a5528	-0.045491368
68	0x3c8e3009	0.01735689
69	0xbcd9b1b9	-0.026574003
70	0xbd82ff84	-0.06396392
71	0xbd43a704	-0.0477667
72	0x3d38d0bb	0.045120936
73	0x3c32ee4a	0.01092107
74	0xbd5829b3	-0.052774142
75	0xbc60c5c0	-0.013719022
76	0x3d59785c	0.0530933
77	0xbd16e63e	-0.03684067
78	0x3d752209	0.05984691
79	0xbc8b1927	-0.016979767
80	0x3d268725	0.040656228
81	0xbd931716	-0.07182138
82	0xbce6307c	-0.028099291
83	0x3cdb9459	0.026804136
84	0x3d424d63	0.047437083
85	0x3bff78ce	0.0077963835
86	0xbcb546df	-0.02212852
87	0x3bd61d24	0.0065342356
88	0x3c143edb	0.009048189
89	0x3d494091	0.04913384
90	0xbd2fd031	-0.042923156
91	0x3c8548bd	0.016270036
92	0xbd3edfc3	-0.046600115
93	0xbccb8742	-0.02484477
94	0x3cd7b798	0.026332662
95	0xbd0af26c	-0.033922598
96	0x3cc750ef	0.024330584
97	0xbc3fbb5c	-0.011702385
98	0xbd5ea680	-0.054358006
99	0x3d401d07	0.046902683

convnet3.1.weight f4 [100]
0	0x3f72eb65	0.94890434
1	0x3f898bd4	1.0745797
2	0x3f85449e	1.0411565
3	0x3f806baa	1.0032856
4	0x3f7129e2	0.94204533
5	0x3f7c696b	0.98598355
6	0x3f810d27	1.0082139
7	0x3f72b371	0.94805056
8	0x3f677c5d	0.9042414
9	0x3f73f369	0.9529329
10	0x3f75bb02	0.95988476
11	0x3f76a973	0.9635231
12	0x3f803e5c	1.001903
13	0x3f857882	1.0427401
14	0x3f73104d	0.9494675
15	0x3f84f77a	1.0388024
16	0x3f806908	1.0032053
17	0x3f6d7000	0.92749023
18	0x3f74c6d2	0.95615876
19	0x3f8b98e7	1.0906037
20	0x3f6df1a0	0.92946815
21	0x3f59eed0	0.85130024
22	0x3f765b8b	0.96233433
23	0x3f83027d	1.0235134
24	0x3f905a01	1.1277467
25	0x3f64966d	0.8929203
26	0x3f739b8d	0.95159227
27	0x3f89f374	1.0777421
28	0x3f9774b5	1.1832491
29	0x3f80e3aa	1.0069478
30	0x3f6c6278	0.9233775
31	0x3f8288b6	1.0197971
32	0x3f8488c9	1.0354244
33	0x3f7daf8e	0.99096
34	0x3f8591c0	1.0435104
35	0x3f82f6ec	1.0231605
36	0x3f819c96	1.0125911
37	0x3f7cbdd1	0.98727137
38	0x3f7de1db	0.99172753
39	0x3f7c93bd	0.9866293
40	0x3f6ad225	0.91726905
41	0x3f7db5d2	0.9910556
42	0x3f837f97	1.0273312
43	0x3f7a428b	0.97757787
44	0x3f6fc090	0.936532
45	0x3f7b4706	0.9815525
46	0x3f8028d6	1.0012462
47	0x3f80c8cb	1.0061277
48	0x3f846e0a	1.0346081
49	0x3f73a7d7	0.9517798
50	0x3f7bd173	0.9836647
51	0x3f6b8259	0.9199577
52	0x3f61b900	0.8817291
53	0x3f7fbc23	0.9989645
54	0x3f647d3a	0.8925358
55	0x3f7dd047	0.9914593
56	0x3f891a9c	1.0711246
57	0x3f721591	0.9456416
58	0x3f834204	1.0254521
59	0x3f82b2b3	1.0210785
60	0x3f7dba72	0.9911262
61	0x3f8498ad	1.0359093
62	0x3f62d028	0.8859887
63	0x3f7f2030	0.9965849
64	0x3f7f66df	0.99766344
65	0x3f770742	0.9649545
66	0x3f820567	1.0157899
67	0x3f6e4910	0.93080235
68	0x3f8cc5f0	1.0997906
69	0x3f7f5a26	0.9974693
70	0x3f50bedd	0.81541234
71	0x3f798882	0.9747392
72	0x3f889788	1.0671244
73	0x3f6f0cea	0.9337908
74	0x3f6753ad	0.90362054
75	0x3f842da9	1.0326434
76	0x3f88bbff	1.0682372
77	0x3f72fa6a	0.9491335
78	0x3f81644a	1.0108731
79	0x3f79aec7	0.97532314
80	0x3f83ac90	1.0287037
81	0x3f5bd49a	0.8587128
82	0x3f88634d	1.0655304
83	0x3f86984f	1.0515231
84	0x3f6d1357	0.92607635
85	0x3f79c032	0.9755889
86	0x3f816755	1.010966
87	0x3f644dd5	0.8918126
88	0x3f6d3425	0.9265769
89	0x3f6e5403	0.9309694
90	0x3f7dde73	0.99167556
91	0x3f82eb48	1.0228052
92	0x3f8231ac	1.0171409
93	0x3f6c084c	0.9220016
94	0x3f7934d4	0.97346234
95	0x3f596e49	0.84933907
96	0x3f853d22	1.0409281
97	0x3f8030f9	1.0014945
98	0x3f799faf	0.9750928
99	0x3f829753	1.020243

convnet3.1.bias f4 [100]
0	0xbe861625	-0.2618877
1	0xbeaaf033	-0.33386382
2	0xbeb1b76d	-0.34710255
3	0xbe9765bf	-0.29569814
4	0xbe8b6aa5	-0.272298
5	0xbe9b4282	-0.3032418
6	0xbe7b7678	-0.24556911
7	0xbea8a67f	-0.32939526
8	0xbe7b0477	-0.24513422
9	0xbe970ce5	-0.29502025
10	0xbe67cae0	-0.22635984
11	0xbe5ed093	-0.21759252
12	0xbe9ba38f	-0.30398223
13	0xbeaa511f	-0.33265015
14	0xbeb7af55	-0.35875955
15	0xbe8cb46a	-0.27481395
16	0xbe85485c	-0.26031768
17	0xbe7e9393	-0.24860983
18	0xbe624c25	-0.2209936
19	0xbeb93dd1	-0.36179975
20	0xbea86747	-0.32891294
21	0xbe600417	-0.2187656
22	0xbe3fe74f	-0.18740581
23	0xbee68121	-0.45020393
24	0xbeef34d9	-0.46720007
25	0xbe71372d	-0.23556204
26	0xbea5848f	-0.32327697
27	0xbeb66dc6	-0.35630625
28	0xbec4fdcb	-0.3847488
29	0xbeb2d16f	-0.3492541
30	0xbecd884a	-0.40143043
31	0xbe7c74ac	-0.24653882
32	0xbe9d00a8	-0.30664563
33	0xbe7fbbdf	-0.24974011
34	0xbec29d80	-0.38010788
35	0xbea6e60e	-0.32597393
36	0xbe7b7033	-0.2455452
37	0xbe4ea1da	-0.20178929
38	0xbed882e5	-0.42287365
39	0xbe4d6a60	-0.2006011
40	0xbea5ec8f	-0.32407042
41	0xbe90b1d5	-0.28260675
42	0xbebeafc7	-0.37243482
43	0xbe977a2a	-0.2958539
44	0xbe6eeef0	-0.23333335
45	0xbe511a5f	-0.20420216
46	0xbe72b55a	-0.23701993
47	0xbebcdbb7	-0.3688638
48	0xbe689ae8	-0.22715342
49	0xbe5d026b	-0.21582954
50	0xbe2ba659	-0.16762675
51	0xbdfe2b2f	-0.1241058
52	0xbe8f1a3c	-0.27949703
53	0xbeaf2913	-0.34211025
54	0xbe31eab9	-0.17374696
55	0xbe3ba0df	-0.18323086
56	0xbe9ad6fd	-0.30242148
57	0xbe529b25	-0.20566995
58	0xbe6ca175	-0.23108466
59	0xbe9db94f	-0.30805442
60	0xbe847b05	-0.25875106
61	0xbe8ef0b7	-0.27918026
62	0xbe24dd94	-0.1610015
63	0xbeae7cc2	-0.34079558
64	0xbec03de6	-0.37547225
65	0xbea019b7	-0.3126962
66	0xbe5b7ff7	-0.21435533
67	0xbe8bf3a6	-0.27334327
68	0xbea9d876	-0.3317296
69	0xbe5a8ba2	-0.21342328
70	0xbe5330ea	-0.20624128
71	0xbe89d029	-0.26916626
72	0xbe94b4bf	-0.29044148
73	0xbe84a7a7	-0.2590916
74	0xbe82554c	-0.254557
75	0xbebf6bf8	-0.3738706
76	0xbea42fe7	-0.32067797
77	0xbe87db69	-0.26534584
78	0xbe547f4b	-0.20751683
79	0xbea7abf3	-0.32748374
80	0xbe50e0f0	-0.20398307
81	0xbe9186ab	-0.28423056
82	0xbeae745c	-0.3407315
83	0xbec2ee6a	-0.3807252
84	0xbecc3fe8	-0.39892507
85	0xbe4b9183	-0.19879727
86	0xbe9f3003	-0.31091318
87	0xbe82c184	-0.25538266
88	0xbe6b9814	-0.23007232
89	0xbe533997	-0.20627438
90	0xbe5fca80	-0.21854591
91	0xbe3a75bd	-0.18208976
92	0xbe838636	-0.25688332
93	0xbe91cbcd	-0.284758
94	0xbec27102	-0.37976843
95	0xbe5e7d6d	-0.21727534
96	0xbe9549ac	-0.2915777
97	0xbe690077	-0.22754084
98	0xbe962317	-0.29323646
99	0xbe283cac	-0.16429394

convnet3.1.running_mean f4 [100]
0	0xbf93ad8e	-1.153734
1	0xbd8b0a56	-0.06789081
2	0xbf0909ea	-0.5353075
3	0x3ccb921f	0.02484995
4	0xbea79aa5	-0.32735172
5	0xbe639a4c	-0.22226828
6	0x3e699c38	0.22813499
7	0xbd8a4f16	-0.06753366
8	0x3ee49946	0.44648188
9	0xbe6139fd	-0.21994777
10	0x3e71ea18	0.23624456
11	0x3f5f43ed	0.8721302
12	0x3cd5fac4	0.02612055
13	0xbec1a1a6	-0.3781864
14	0xbecf8154	-0.40528357
15	0xbdc8e800	-0.098098755
16	0x3e25b955	0.1618398
17	0x3efcb669	0.49357918
18	0xbe83ac23	-0.25717267
19	0x3e9787ee	0.29595894
20	0x3e389eb5	0.18029292
21	0xbf30467b	-0.68857545
22	0x3e981a6b	0.29707655
23	0xbf348fa4	-0.7053168
24	0xbea94e1e	-0.3306741
25	0xbf7370ca	-0.9509398
26	0xbd4afd56	-0.049558006
27	0xbe1b4f83	-0.1516705
28	0xbcb4be96	-0.022063535
29	0xbe5d2dbd	-0.21599479
30	0xbeeaf2e9	-0.4588845
31	0xbe961f2e	-0.29320663
32	0x3e5d6ed9	0.21624316
33	0xbecebd20	-0.40378666
34	0x3d544208	0.051820785
35	0x3e229b3d	0.15879531
36	0x3e943a59	0.28950766
37	0x3e7a77df	0.2445979
38	0xbf3fd963	-0.7494108
39	0x3f00c481	0.5029984
40	0xbf351121	-0.7072926
41	0xbf1803f7	-0.5938105
42	0xbe1aaeff	-0.15105818
43	0xbd9220a2	-0.071351305
44	0x3f4769b4	0.77895665
45	0xbeb471d1	-0.35243085
46	0xbe10ed3d	-0.14152999
47	0x3e810eb5	0.25206533
48	0xbe9144db	-0.28372845
49	0xbec05c7d	-0.37570563
50	0x3e9b54d2	0.3033815
51	0xbf0b2f73	-0.54369277
52	0x3f3a66e0	0.72813225
53	0xbd0e3c5c	-0.034725532
54	0x3e68fd79	0.22752942
55	0x3eff5f08	0.4987719
56	0xbd5af745	-0.05345847
57	0xbed59637	-0.41716167
58	0xbefa47b4	-0.4888283
59	0x3d0d5ef9	0.0345144
60	0x3f01d9e4	0.507231
61	0xbdc07dee	-0.09399019
62	0x3ee681c4	0.45020878
63	0x3e78131d	0.24226041
64	0xbe8dcdf1	-0.27696183
65	0xbdb1a691	-0.08674348
66	0xbe30072e	-0.17190239
67	0x3f3ae146	0.7299999
68	0x3e346df3	0.17620067
69	0xbcda01b4	-0.02661214
70	0xbf05f71e	-0.52330196
71	0xbf20a564	-0.62752366
72	0xbe3cac39	-0.18425073
73	0x3f180f48	0.5939832
74	0x3d8cc43f	0.068733685
75	0xbe08cb69	-0.13358845
76	0xbdf67d39	-0.12035603
77	0xbe8f4531	-0.27982476
78	0xbea52376	-0.32253617
79	0xbf5f3997	-0.8719725
80	0xbea200db	-0.31641278
81	0xbf3e2748	-0.7427869
82	0x3e997d9b	0.29978642
83	0xbe44e807	-0.19229136
84	0xbf83425e	-1.0254629
85	0xbe55c495	-0.20875771
86	0xbeb5847a	-0.35452634
87	0xbc27db6d	-0.010245186
88	0x3cedf885	0.029049167
89	0x3d4d00ac	0.05004947
90	0xbc79687f	-0.015222668
91	0x3ca1a372	0.019731257
92	0xbeff24ed	-0.4983286
93	0xbec60254	-0.3867365
94	0x3d70f674	0.058828786
95	0x3e06d626	0.13167629
96	0x3e41959f	0.18904732
97	0xbdb31a54	-0.08745256
98	0x3de727ad	0.112868644
99	0x3e509b2a	0.2037169

convnet3.1.running_var f4 [100]
0	0x4111d535	9.1145525
1	0x40d42cfb	6.630491
2	0x410d465e	8.8296795
3	0x40dc559b	6.88545
4	0x40e01467	7.0024905
5	0x4100bff2	8.046862
6	0x410a13a3	8.629794
7	0x40d2a7ad	6.582968
8	0x408f64f1	4.481072
9	0x40d50c69	6.657765
10	0x40dc7b0f	6.890022
11	0x40926ffc	4.57617
12	0x40b1f3d5	5.5610147
13	0x40b843ef	5.7582927
14	0x40da3223	6.81862
15	0x40e3837f	7.109802
16	0x40ec51c4	7.384981
17	0x40ab5625	5.3542657
18	0x40f269ac	7.5753994
19	0x41095192	8.582415
20	0x40e4e9bd	7.1535325
21	0x40b643b6	5.6957655
22	0x40b5ade4	5.677477
23	0x40e5897e	7.1730337
24	0x40d178fd	6.546019
25	0x4129715e	10.590178
26	0x40b93a36	5.788356
27	0x40dc8f9e	6.8925314
28	0x40cedcf4	6.464472
29	0x40b6988b	5.706121
30	0x4109c452	8.61043
31	0x40e8d87f	7.2764277
32	0x40b7e740	5.7469788
33	0x40c66e0a	6.2009325
34	0x40ef736d	7.48284
35	0x40d65e28	6.6989937
36	0x40cde185	6.4337792
37	0x409d8b66	4.9232664
38	0x40ce83b9	6.4535794
39	0x40c7201c	6.2226696
40	0x40ddba67	6.929004
41	0x40d64989	6.6964765
42	0x41176f8b	9.464732
43	0x40da2978	6.817562
44	0x40d5046d	6.6567903
45	0x411769b8	9.46331
46	0x40c0f982	6.0304575
47	0x40e606b5	7.1883187
48	0x40cc80c4	6.3907185
49	0x40ce52be	6.4476004
50	0x40b10fc0	5.5331726
51	0x40bc5939	5.8858914
52	0x40a51aa8	5.159504
53	0x40e0c6f1	7.024285
54	0x4132e8a2	11.181795
55	0x40cf39f1	6.475823
56	0x40ce8b2a	6.454488
57	0x41407876	12.029409
58	0x40f8205d	7.7539506
59	0x40a37761	5.1083226
60	0x40da3f93	6.8202605
61	0x410412ae	8.25456
62	0x40cde0a4	6.433672
63	0x40a99cbc	5.3003826
64	0x40d18386	6.547305
65	0x40a60664	5.18828
66	0x40fa2bae	7.817832
67	0x4103d960	8.24057
68	0x40a19677	5.0496173
69	0x40cede29	6.464619
70	0x40caaa8e	6.3333197
71	0x41086183	8.523807
72	0x40ca62dc	6.324568
73	0x40822621	4.0671544
74	0x40be6689	5.9500165
75	0x4122360c	10.138195
76	0x40d6ddac	6.7145596
77	0x40de8dbe	6.9548025
78	0x40ff5274	7.978815
79	0x4108163d	8.505429
80	0x40f1c76d	7.555594
81	0x40f74499	7.7271237
82	0x40a42ddd	5.1305985
83	0x40cbb9bc	6.3664227
84	0x41009337	8.035941
85	0x410c7748	8.779121
86	0x40e0dc4b	7.026891
87	0x40c56a83	6.169252
88	0x40c59334	6.174219
89	0x40e1afc5	7.0527062
90	0x40fd009a	7.9063234
91	0x40f9077f	7.782165
92	0x4103df7d	8.242063
93	0x40f22f1c	7.5682507
94	0x40a5a706	5.1766386
95	0x407cb87a	3.9487596
96	0x40d2110b	6.5645804
97	0x40bd7568	5.920582
98	0x40ce6dfb	6.4509254
99	0x40f456e3	7.6356063
