Lab2/best results/DeepConvNet_LeakyReLU.pt (torch, 617249 bytes, 28 tensors)

convnet1.0.weight f4 [25, 1, 1, 5]
00000000: a38a e43e b57e 933d c0cc 893e fbbf 38be
00000010: d460 c1be 167f a3be d7b9 563e 04da 613d
00000020: fbf1 803e 0126 96bd f0d1 8bbd a5a8 603e
00000030: e150 043e 772f 03bf 5771 b43e 829a 99be
00000040: c0f1 273c 16c3 053f 44d1 ba3e 60c1 85be
00000050: 76fd d03e c07d 79be 12f8 acbe 24c6 98be
00000060: c00b cc3d 5ad2 ad3e 6538 d0be 2cdb 063e
00000070: 7e58 b8bd 4768 083e e552 d6bd b2cc 81be
00000080: d814 b13b 564f 8cbd 92d2 acbe dc39 bcbe
00000090: 9841 963d 2175 dd3e 7b32 c2be d492 d8be
000000a0: b007 533e d7a2 f7bd 47ad 34bc 6436 91be
000000b0: 5970 0d3e 1d42 c7bd 367c a6be 7e67 87be
000000c0: 3011 c53e 38eb 10be 3374 3abe 2f0b 81be
000000d0: e7d1 853d 5bb9 aabd 06f8 553e 483a 903e
000000e0: c0f9 1abe c1ae 08bd b514 c7bc a456 29bc
000000f0: 5b4d 963e 6926 5cbe de55 6c3e 4366 7c3d
00000100: f9b1 2bbe a36f e33e 89ad 473e 7be2 d7be
00000110: 9f9c b33c d1e3 133e 4e8e 4b3e 8185 b6be
00000120: 8319 6d3e 049b 26be 78e4 14be aff2 ad3e
00000130: 4df1 46be a826 c2be fc45 0e3e 711a 7e3e
00000140: 486f b5be 998e bb3e 24d2 babe b5dc 55bd
00000150: 7fca 07be 14e5 65bd 80e9 ffbe 1458 0c3e
00000160: cb52 5f3e 7d99 a73e 6596 a93d 0e95 d4be
00000170: aab4 d9ba 6533 a43e b2b5 c8bd a6c2 aa3e
00000180: 28ff 823e 51cb fb3e 117d 883e 9efd 833c
00000190: 509c 3ebe c63a 68be 9473 293e 4b2c 033f
000001a0: b73e debe 16f9 57be 8ffe 5cbe 4cfd fe3e
000001b0: abab 173d 5e46 96be bb99 c6be 69a2 0bbe
000001c0: 8f7d bf3e 0d13 0dbd 5ee9 20be abe1 603e
000001d0: d101 6dbe 2f1e b4be f422 2e3e efb9 f63e
000001e0: 0421 aebe 6716 4e3b eaa1 da3c 4f91 8e3d
000001f0: f7d2 0ebe
0.4463702 0.07201902 0.26914024 -0.18041985 -0.37769186 -0.31932896 0.2096933 0.055139557
0.25184616 -0.073314674 -0.06827152 0.21939333 0.12921478 -0.512443 0.3524272 -0.30000693
0.010250509 0.522508 0.36487782 -0.26124096 0.40818375 -0.24364376 -0.33783013 -0.2983867
0.09963179 0.33949548 -0.40668026 0.13169545 -0.090012535 0.13321029 -0.104650296 -0.25351483
0.005404096 -0.0685107 -0.33754402 -0.36762893 0.0733673 0.43253425 -0.3792914 -0.4229952
0.20608401 -0.12091606 -0.011027641 -0.2836181 0.13812388 -0.09729407 -0.3251664 -0.26446146
0.38489676 -0.14152229 -0.18208389 -0.25203845 0.06534176 -0.08336135 0.20895395 0.28169465
-0.15134335 -0.033369783 -0.024301866 -0.010335598 0.29355893 -0.21499027 0.2307963 0.061620962
-0.1676711 0.4442111 0.19499792 -0.42164978 0.021925269 0.14442374 0.19878504 -0.3564873
0.23154263 -0.16270071 -0.14540279 0.33974215 -0.19427986 -0.37920117 0.13893884 0.24814774
-0.35436463 0.3663223 -0.3648845 -0.052212436 -0.1326084 -0.05612667 -0.49982834 0.13705474
0.21808927 0.3273429 0.082806386 -0.4151997 -0.0016609628 0.3207046 -0.09800281 0.3335163
0.25585294 0.49178556 0.26657918 0.016112145 -0.18614316 -0.2267867 0.16547996 0.5123946
-0.43407223 -0.21091112 -0.21581481 0.49802625 0.03702895 -0.2935056 -0.38789162 -0.13636173
0.3740048 -0.034441996 -0.15714023 0.21961085 -0.23145224 -0.35179278 0.17005521 0.4818873
-0.34009564 0.0031446458 0.026688535 0.06961309 -0.13947664

convnet1.0.bias f4 [25]
00000000: fd3b b03e 485c 19be 315c 2bbe 4d27 c7be
00000010: 5e84 c63e 6064 2cbe 7bc1 72bc c227 8e3e
00000020: 9f21 983d 4828 95be 727f df3e f03c e83e
00000030: a04a 2ebe 34df 4fbe 9b0e bfbe 7dc5 a03e
00000040: 8b60 7ebe 01b5 dd3e b5c3 e83e 2fef a43e
00000050: 04f0 083e 9bbf 003d 2170 2bbe 8c75 823e
00000060: 3e9e 7a3e
0.34420767 -0.14976609 -0.16734387 -0.38897172 0.38772863 -0.16835165 -0.014816637 0.27764708
0.07428288 -0.29132295 0.4365192 0.45358992 -0.17020655 -0.20299989 -0.3731583 0.31400672
-0.24841516 0.43302158 0.45461813 0.32213733 0.13372809 0.03143273 -0.16741993 0.25480306
0.24474427

convnet1.1.weight f4 [25, 25, 2, 1]
00000000: e1b8 d0bd 0a17 94bd ca3a 3abd 17db 2b3e
00000010: e1dc 163d 4e7d 193c e6be 18be 3cc8 3d3d
00000020: 70bc eebc 6241 57bc ca3b 73bd 1be4 163e
00000030: dc16 183e b977 863d fec6 90bd 87de 06be
00000040: c67e 123d 942c 28be d0e5 233e 64c0 c4bd
00000050: af48 70bc 88f1 febd b834 01bb 7897 133e
00000060: 1b1f 13be 18f3 333c 0d3c 1dbe 381c 163e
00000070: cfd4 083e 5e64 05be 1b38 2bbe 5365 69bd
00000080: 312e 33bd fc68 053d a879 913c aa31 cb3d
00000090: dcdf 2f3d 0366 9b3a 7ace dabd 7c88 0b3e
000000a0: 22b2 6a3d 5468 aebd d447 eb3d 1bb8 9bbd
000000b0: 33e2 d53d 51cd a7bd f06b 90bd 38f6 263d
000000c0: 5722 043e 7e51 e4bd 394b 9fba 82d1 d43d
000000d0: 95dd 233e 6839 d63c 9075 703d 5f82 b93e
000000e0: 29e2 4d3d 25ba 80bd 806c 03bc c46e d4bd
000000f0: c5f2 733d f758 01be b869 0dbe 2138 bc3d
00000100: 0efe 0dbe 4365 aabc e551 4b3d 61c5 503e
00000110: af11 c13d a657 f0bc 1429 ee3d b4d6 d8bc
00000120: ee1c 23bd 54a9 2e3b f6b1 943d 4e9f ac3b
00000130: fb47 56bd 5454 5bbd 2c5d 393d 79d6 96bd
00000140: 43f5 6dbc 2030 b5be d1c3 f2bd ceb2 043e
00000150: e026 b8bc ffaf 23be ff75 673b 4f68 a0be
00000160: 3abe 083e a345 cfbd 55bb ccbd 3c05 4cbd
00000170: f68d 84bd 27bd 7b3e 9c4e 91bc 7227 143e
00000180: 3e3a 313e 8f42 aabd 103c 983d aea0 fd3d
00000190: 9a7e 0c3e 285e 31bd 52e0 22be 23e7 c13b
000001a0: 2169 27be e28b 46be 0545 26be 134f c2b9
000001b0: bbcf 523e 34b9 debc 4df1 07be f9a5 8d3d
000001c0: b006 03bc 72e6 04be 0fc0 413e 74b0 de3c
000001d0: ac6a e53d 0cb5 15be cde6 e53d 5c9b 133d
000001e0: 1b47 e03c eeaf 85bd 186a 7dbd 6157 3f3c
000001f0: 6225 72bd 656e 7cbd 06d6 20be c5f9 04be
00000200: 925b d53d 4316 113c 4653 553d ac1b c83b
00000210: 1be2 2bbc 43d5 bfbd a1e3 aebd 2b45 ea3d
00000220: 0fdd 4a3a 5ac2 873e 88d4 9cbd 46a8 c43d
00000230: 3066 ce3d bf79 523e 915b 0ebd 3e9e 433e
00000240: c9f6 25bd 98b4 b03d e934 82bd a6b6 05bd
00000250: ab77 183e 3829 1fbd 935d 433e 9d92 2ebe
00000260: 0be7 2cbd ae9d eebd 29a4 aebc 7731 babd
00000270: d3f3 cebc 8df1 433e 7460 fe3d 772e 03be
00000280: 09c7 223e aca2 79be aa5b f3bc a676 123e
00000290: 12c1 fbbd 4182 7c3d a3de 453d afad 02be
000002a0: d488 a23d b626 e83d 61e7 2bbe 655f d3bc
000002b0: 725f 85bd b090 17bc 85b5 edbc c3d5 45bd
000002c0: 13d1 92bd 2c0b 09bd aa76 093d 2c17 edbc
000002d0: 1366 e2bd 62dd 67be bb3b ab3d 7fd9 27bd
000002e0: 8354 803c 87f0 a5bd 673e 13bd f26c 743e
000002f0: 0844 ca3d 8742 de3d 1322 6fbd fbaa c03e
00000300: 0977 07be 9233 893e afd0 a4bd da89 9b3d
00000310: d055 c63d ed89 86be 3f88 513c e5fb 413e
00000320: 4363 1ebe 400c 583d ba07 2bbd 407c 003e
00000330: 90af 37bc 771a 883d 7a1a 8cbd c49c 13bd
00000340: 8718 cf3d 462d cf3b 5cdb 30bc aed6 9ebd
00000350: b9e7 263e 5ccf 783c a3e7 35bd 5303 34be
00000360: 50ae a9bc 778e a1bd ab1d 8dbd f3da c5bd
00000370: 7392 193d 1b2f 3dbe 585c fabd 108e 9e3d
00000380: 5427 bebb 807b 1d3e b05f dd3c 9983 d53c
00000390: 2ae7 0a3e b6e0 64bb 6b27 e9bd fb3a 0d3e
000003a0: b84e b33d 9da1 c4bd 4307 213e e7fd 453c
000003b0: fd43 1ebd 34f2 d7bc b570 08be 364a ce3d
000003c0: 068c 7a3d 2c40 283d 0dc7 673e 1e03 50bd
000003d0: 89bc 1d3e 5d8a 18be e45f 573c 0d5b 72bd
000003e0: c16b 0f3e 8093 6f3d b45d 09be 2ead c03d
000003f0: e023 16be 6481 c83d 1830 f63d d003 b1bd
-0.10191513 -0.07230957 -0.045466222 0.16782795 0.03683174 0.009368254 -0.14916572 0.046333537
-0.029142588 -0.013138147 -0.05938319 0.14735453 0.1485247 0.06565804 -0.07069205 -0.13170825
0.03576543 -0.16423255 0.16005635 -0.09607008 -0.014665767 -0.12448412 -0.001971526 0.1441325
-0.14367335 0.010983251 -0.15354939 0.14659202 0.1336243 -0.13026568 -0.16720621 -0.056981396
-0.043745223 0.032570824 0.017758206 0.09921582 0.0429381 0.0011855963 -0.106839135 0.13626283
0.057298787 -0.08515993 0.114883095 -0.07603475 0.10443535 -0.08193458 -0.070518374 0.040762156
0.12903725 -0.11148356 -0.0012153155 0.10391523 0.16002496 0.02615042 0.058705866 0.36232278
0.05026451 -0.06285504 -0.008021474 -0.10372689 0.059557695 -0.12631594 -0.1380986 0.09190393
-0.13866445 -0.020800238 0.049638648 0.20387794 0.09427201 -0.029338669 0.11628929 -0.026469566
-0.03982251 0.002665122 0.07260506 0.005268014 -0.05231474 -0.05354722 0.04525487 -0.07365126
-0.014523807 -0.3538828 -0.11853755 0.12958834 -0.022479475 -0.15985106 0.0035318134 -0.3132958
0.13353816 -0.10120704 -0.09996668 -0.04980968 -0.064723894 0.24583875 -0.01773768 0.14468172
0.17307374 -0.08313476 0.07433331 0.12384163 0.1372017 -0.043302685 -0.15905884 0.005917446
-0.16348697 -0.19389299 -0.16237266 -0.00037061478 0.20587055 -0.027187921 -0.13275643 0.069164224
-0.0079972 -0.12978533 0.18920921 0.027183749 0.11201987 -0.14619845 0.112256624 0.036036834
0.027377656 -0.065276965 -0.061868757 0.011678548 -0.059117682 -0.061628718 -0.15706643 -0.12985905
0.10417856 0.008855405 0.05208137 0.0061068144 -0.010490919 -0.09366848 -0.085395105 0.11438974
0.0007738629 0.26515466 -0.076577246 0.09602408 0.100780845 0.20554255 -0.034755293 0.19103333
-0.040518556 0.086281955 -0.06357748 -0.03264489 0.148894 -0.03885767 0.19078664 -0.17048116
-0.042212527 -0.11651169 -0.021318512 -0.09091466 -0.025262749 0.19135113 0.12420741 -0.12810694
0.15896238 -0.2437846 -0.029706795 0.14303073 -0.122926846 0.061647657 0.048308026 -0.12761568
0.07936254 0.113355085 -0.16787483 -0.025802324 -0.065123454 -0.009250805 -0.02901722 -0.048299562
-0.07168784 -0.03345792 0.033560432 -0.028941713 -0.11054625 -0.22643045 0.08361002 -0.040978905
0.015665298 -0.081025176 -0.035948183 0.23869684 0.09876257 0.10852533 -0.058382105 0.37630448
-0.13229002 0.26797158 -0.08047616 0.075946525 0.09684336 -0.26277104 0.012788831 0.18943746
-0.15467553 0.052746058 -0.041755415 0.12547398 -0.011211291 0.06645673 -0.068409875 -0.036038175
0.101121 0.0063225357 -0.010794487 -0.07755791 0.16299333 0.015186157 -0.04441036 -0.17579393
-0.020713001 -0.07888501 -0.06890424 -0.09660902 0.03749318 -0.18475 -0.122246444 0.0774194
-0.005803028 0.15379143 0.027023166 0.026063727 0.13564745 -0.0034923977 -0.113844715 0.1379203
0.08755249 -0.09601138 0.15725426 0.012084461 -0.038639057 -0.026360609 -0.13324244 0.10072748
0.061168693 0.041076824 0.22634526 -0.050784223 0.15403952 -0.14896531 0.013145421 -0.059168864
0.14005949 0.058490276 -0.13414651 0.094080314 -0.14662123 0.09790304 0.12020892 -0.08643305

convnet1.1.bias f4 [25]
00000000: 9626 a5bc 6162 d33d c554 9abd a3ea 9b3d
00000010: fbc3 803d 3691 f539 cf99 ce3d cc84 03be
00000020: 0838 183d 993f 8b3c fe18 553d 56c2 363d
00000030: 3154 e53d 7b00 823c aa48 f13d 2265 e43d
00000040: 99f2 073d 757d 923d 4fdd 03be 533c 553d
00000050: bbdb b03d 8855 e73d ffe9 3fbc 83c6 043e
00000060: 85a8 f43d
-0.02016 0.10321499 -0.075357 0.07613113 0.0628738 0.00046838232 0.100879304 -0.12843627
0.03716281 0.0169981 0.052025788 0.044618927 0.11197699 0.01586937 0.11781438 0.11152102
0.033190344 0.07152835 -0.12877391 0.052059483 0.0863566 0.11295611 -0.011713504 0.12966351
0.11946205

convnet1.2.weight f4 [25]
00000000: be72 7a3f 609b 743f 61c9 753f dadf 6e3f
00000010: 66af 7a3f b986 683f 8026 743f 85e3 7a3f
00000020: dc95 6f3f e5e7 853f a0a2 723f 4d18 773f
00000030: 5ab3 733f d9d3 603f ba35 683f a36d 633f
00000040: d935 6a3f 129f 863f 0e67 7a3f 216f 833f
00000050: f955 813f bef6 753f 0258 6e3f 0036 6b3f
00000060: 07de 6b3f
0.9783133 0.95549583 0.96010405 0.9331032 0.97923887 0.9083057 0.95371246 0.9800342
0.9358804 1.0461394 0.94779396 0.96521455 0.95195544 0.87823254 0.9070698 0.8883917
0.91488415 1.0517294 0.978135 1.0268289 1.0104362 0.96079624 0.9310304 0.9187927
0.9213566

convnet1.2.bias f4 [25]
00000000: 0c9c b4bd 7dcd 30be c6b4 9abe cf1f 93be
00000010: 13d5 52be 357a 75be af33 eabe 3c1a 4dbe
00000020: c06b 38be c5e7 c5be 90cd 12bf 0d1b cbbe
00000030: c373 9ebe 6bd7 e9be 8342 6cbe 40db 23bf
00000040: 99bc bfbe 9501 3abe 5812 e7bd 53c2 babe
00000050: d379 b4be 158c 9fbe baf9 d7be a436 11bf
00000060: 6113 85be
-0.08818826 -0.17265888 -0.30216044 -0.28735206 -0.20589094 -0.239724 -0.45742556 -0.20029539
-0.18009853 -0.3865339 -0.57344913 -0.39669076 -0.30947694 -0.45672163 -0.23072247 -0.64006424
-0.37448576 -0.18164666 -0.11282796 -0.36476383 -0.35249195 -0.31161562 -0.42182714 -0.56724
-0.25991347

convnet1.2.running_mean f4 [25]
00000000: 9b75 2dbe f773 8dbe 027b dc3e 8b65 4fbc
00000010: a46a 353b 7d09 aa3e 9a08 92be f820 84be
00000020: 58c7 0b3e c8bf 913d af62 dd3e 2fd6 2abd
00000030: abb6 8e3e bff3 5abe 1698 52be 78a0 ca3e
00000040: 939a 903d c038 ff3d d07f 513e bfe9 623e
00000050: 8faa dd3c eaa2 233e 7311 14bc d2c3 fa3e
00000060: 7e50 823e
-0.16939394 -0.27627537 0.43062598 -0.012658487 0.002768197 0.33210364 -0.28522187 -0.25806403
0.13650262 0.071166575 0.43239352 -0.041708168 0.2787374 -0.21382044 -0.20565829 0.39575553
0.07060733 0.12461996 0.20458913 0.2215948 0.027058868 0.15980116 -0.009037363 0.48977524
0.25452036

convnet1.2.running_var f4 [25]
00000000: 10c7 1041 0732 dc40 05b7 4741 3a0a 0d41
00000010: 8117 fb40 231b 1841 577c 0841 2a84 3542
00000020: 0797 ef40 490e d241 6814 1041 1c32 6042
00000030: 39d2 3441 e4b6 8341 454d 8540 c58d fd40
00000040: 39eb 2c41 1988 1f41 8abe 0f41 cdeb cc41
00000050: a78f b841 2faa 3141 4f24 d040 dc29 0741
00000060: 56b7 fa40
9.048599 6.881107 12.4821825 8.814997 7.846619 9.506625 8.530356 45.379066
7.487186 26.256975 9.004982 56.048935 11.301324 16.464302 4.1656823 7.923556
10.807427 9.970727 8.984018 25.615137 23.070143 11.104049 6.504432 8.44772
7.83488

convnet2.0.weight f4 [50, 25, 1, 5]
00000000: 265e de3d da35 a0bd bdc5 343e 3558 2e3d
00000010: d36a 273d 5cf4 7abe 9bd0 12be b826 21be
00000020: 2741 ecbd 9fd1 0abd 36b0 ac3d d98e 1d3e
00000030: fdec ad3d fdc5 6d3d e927 933d a5f7 b7bd
00000040: 0f19 10bd 13ae c3bd 0244 80bd 2e94 22bd
00000050: fe21 8bbb 802f 983d 7288 2cbd f305 563d
00000060: 8bc4 403e 38d1 2f3d 9357 e53a 2cb2 773d
00000070: 03de 4b3c 2ae8 123d 02a2 bd3c d6f0 0e3d
00000080: ac4d 2dbc 0fda 7dbd 5164 ad3b 6c6c 91bd
00000090: c9a5 603d bc75 efbc a49f fabd 392a a73c
000000a0: 0e42 16bc 026e 373d bbdd ee3d e1f5 b5bd
000000b0: 0c21 9c3d e36b 0c3e acb3 90bd 88c4 e3bd
000000c0: 6554 4e3d b533 da3d 3c0d 85bd a40b 40be
000000d0: eabe d8bd 4ca3 06bc 3f6e cfbd dcc2 923d
000000e0: 4a19 063d 9353 00be deed fabc 1182 71bc
000000f0: 886b b23d 446d 0f3e f2de c83d d19b ab3d
00000100: a36e 9dbc 3fb3 7bbe d992 8dbe 6d61 9dbd
00000110: 202c 93bd 3c5b f4bd 0dce 163d 577e 263c
00000120: 0167 65bd edbe ba3b ab85 babd cfe6 41bd
00000130: 153f cebd b30b 59be bd25 b0bd d1b8 0ebd
00000140: 2001 803d 6e9e 6d3d fa1f ae3d dba4 56bd
00000150: de3d cc3c 19f0 d8bd e2a4 61be 900f 0dbe
00000160: 2150 e6bd e8cf ebbd a7cb bbbc 29d8 97bd
00000170: bb79 1dbd bcb4 813a 10b4 013d cc64 96bd
00000180: 3dcb 5ebd 25b8 72bd 46a4 ffbd 0319 9bbd
00000190: 9dd8 1e3e c33c 08bc 7007 523c fbf7 443e
000001a0: 89d0 803d 4c7d 20be 7735 71be d32b 30be
000001b0: cbb4 b4bd a545 02be 52cd 63bc c363 febd
000001c0: aaaf dabd d56d fabc 671a fd3c bc73 a4bd
000001d0: 090a 1fbe 373a 35be d478 f1bc d128 08be
000001e0: 5a43 b0bd 6c13 eebb d54a 383c c928 ce3d
000001f0: 923a 5cbd 4025 33bc df26 4b3d 7694 0bbe
00000200: f90e 853d 33ca 5a3d b455 05bd 6ad9 e43d
00000210: 616e 043c e3c5 32bd 516a 55bd b92c b83d
00000220: 9846 0b3d 0451 343d af28 bebd 876f 04bc
00000230: 3976 243e 07c2 47bd 836e 65bc 888f 81bd
00000240: fa23 7abc 2d7b 95bd 60be 5fbd 6f80 3ebd
00000250: d079 e23c 10b0 d13c f305 8bbd cacd b4bc
00000260: 1a16 803d 1829 053e 1a6d 0bbe 6401 843d
00000270: f129 8cbc 8dd1 7cbd 87b3 bbbd a0db 65bd
00000280: a68e 50bd f6dc 5a3e 5d6d 183e 1936 073e
00000290: 683e e83d 7cd5 bcbd 3434 9bbd 7b99 32bd
000002a0: 6c04 4a3d 150b 103d 418b c53d 51d0 ccbd
000002b0: eea2 d6bd 831e f63d c5a1 133e 7be1 7fbe
000002c0: 19f7 ddbd bacd 02bd 49c2 0a3d 9be4 0d3e
000002d0: 83b8 ff3d ad5e c13c daa5 f23d eda9 1e3e
000002e0: 8577 593d f782 d4bb 2e6e 913c 9329 e03d
000002f0: d4ee 453d 73e7 8ebd 9f0b 48be 9f58 6c3d
00000300: c4e9 6d3d 9f94 82bd 83dc bfbd 2637 d1bd
00000310: 86c2 a83c e7ac 8a3d 2c29 953c 174c e5bd
00000320: 5115 64be e009 e2bd f746 9bbd 3bdf 663d
00000330: 1818 a63d 574f b33d 2dac 88bd a919 75bd
00000340: 08bf 0cbe a3b9 e4bc 411f bc3d 0e29 e23a
00000350: 7194 043d 5bd8 6a3d e0a2 cd3d 057c 983b
00000360: 59bc 663c 47a2 8ebd 7cb2 5a3d 98cf 893d
00000370: 02c3 ec3d b55c 893d afec 7e3e 6bc7 643e
00000380: 9e43 b13d 9ade d7bd 4a98 323c 039d dd3d
00000390: fced 2b3d 5ab3 113e bd8b 8ebd b77e 20bd
000003a0: 78fc 0abb b486 833d 4a29 4d3c 664f 2abe
000003b0: f1ef 76bd a21b 07bc db81 033e 50c5 1c3e
000003c0: 2eeb 6fbe 6de5 1ebe 52b7 45bb 048d 6b3c
000003d0: 0b35 823d d30e 37bb 3f29 6d3d 8848 1b3d
000003e0: 4404 5ebb 1bc2 01be 457a 863c 49d6 323d
000003f0: c00f 143d 9d70 7b3d ab5a 153c 4903 143d
0.10857801 -0.07822771 0.17653556 0.04256459 0.04087336 -0.24507278 -0.14337389 -0.15737426
-0.11535864 -0.033891317 0.08432047 0.15386523 0.084924676 0.058050144 0.07185347 -0.08982781
-0.035180148 -0.095546864 -0.062629715 -0.039692096 -0.0042459955 0.07430935 -0.042122312 0.052251767
0.18824975 0.042924136 0.0017497413 0.060472652 0.012443068 0.03586594 0.02314854 0.034897648
-0.0105776 -0.061975535 0.0052914997 -0.07100758 0.054845605 -0.029230945 -0.1223748 0.020405876
-0.009171022 0.044782646 0.116633855 -0.08884788 0.07623491 0.1371303 -0.0706552 -0.1112147
0.050373454 0.106543936 -0.06496665 -0.1875444 -0.10583289 -0.008217644 -0.1012845 0.07166073
0.03273896 -0.12531881 -0.030631002 -0.014740483 0.08711916 0.14006525 0.098081484 0.08379329
-0.019217795 -0.24580096 -0.27651098 -0.07684598 -0.071861506 -0.11931464 0.0368176 0.010161958
-0.056006435 0.0056990297 -0.091075264 -0.047339257 -0.10070626 -0.21195869 -0.08600948 -0.034844223
0.062502146 0.05801242 0.08502193 -0.052403312 0.024931844 -0.1059267 -0.22035554 -0.13775468
-0.11245752 -0.11514264 -0.022924257 -0.07414276 -0.03844617 0.0009895782 0.03166586 -0.07343444
-0.054393042 -0.059257645 -0.124825045 -0.0757313 0.15512319 -0.008315268 0.012819156 0.19235222
0.06289775 -0.15672797 -0.23555551 -0.17204218 -0.08823546 -0.1272188 -0.013903933 -0.12421372
-0.106780365 -0.03056995 0.030896379 -0.08029887 -0.15531172 -0.17697988 -0.02947656 -0.1329682
-0.08606596 -0.007265499 0.01124831 0.10066373 -0.053766795 -0.010934174 0.049597617 -0.13630852
0.064969964 0.05341549 -0.032552436 0.11174281 0.008082957 -0.04364575 -0.052103344 0.08992905
0.03400287 0.044022575 -0.092851035 -0.008083231 0.16060723 -0.048769023 -0.014003399 -0.063262045
-0.015267367 -0.072988845 -0.054624915 -0.046509203 0.027645975 0.025596648 -0.06788244 -0.022070784
0.062542155 0.13003957 -0.13615838 0.06445578 -0.017109843 -0.06172328 -0.091651015 -0.056117654
-0.05091729 0.21373352 0.14885469 0.1320423 0.11340028 -0.092204064 -0.07578316 -0.0436034
0.049320623 0.03516682 0.09645701 -0.10000671 -0.10480295 0.120175384 0.14417179 -0.24988358
-0.10838146 -0.031934477 0.03387669 0.13856737 0.12486365 0.023604715 0.1184804 0.15494509
0.0530925 -0.006485339 0.017752733 0.1094543 0.048323467 -0.06977739 -0.19535683 0.057701703
0.058084264 -0.063760035 -0.09368231 -0.10215597 0.020600569 0.0677126 0.018208109 -0.111961536
-0.22273757 -0.1103704 -0.07581895 0.056365233 0.08110064 0.08755367 -0.06673465 -0.059838925
-0.13744748 -0.02792055 0.09185649 0.0017254667 0.032368127 0.05733524 0.100408316 0.004653456
0.0140829915 -0.06964546 0.053392872 0.067290485 0.11560632 0.067071356 0.24894975 0.22341697
0.08655475 -0.10540505 0.010900566 0.10820963 0.041975006 0.14228573 -0.06960247 -0.039183345
-0.0021207612 0.06422177 0.012522051 -0.1663185 -0.06028742 -0.008246334 0.12842505 0.15309644
-0.23429558 -0.15517206 -0.0030169082 0.014376882 0.063577734 -0.002793242 0.057900663 0.037910968
-0.0033877054 -0.12671702 0.016415725 0.04366139 0.036147833 0.061386693 0.009115855 0.036135945

convnet2.0.bias f4 [50]
00000000: f37c 693d 65ef db3c 6db9 6ebc 653a 10bd
00000010: faab c3bd 3628 abbc 2664 dfbb 0113 7c3d
00000020: 0fc0 9b3b 5226 3f3d f9a6 24bc 0dcb 38bd
00000030: 9d9e 8d3d 934d 41bd 0664 af3b bff0 503d
00000040: 5561 dfbc bb02 773d 5bd0 89bc 940d 40bb
00000050: 7341 dabd 9b0a 723b f0df c13d 048e 8dbd
00000060: bb3d 8abd 6dd2 a43c 84f2 a6bd 0a38 32bc
00000070: cd50 90bd 3f1d d2bd 523a b93d eb7f 92bd
00000080: 6759 59bd cad3 91ba f2d5 6d3d 275b 8bbd
00000090: c01c 333b ea3c 37ba c376 9a3d 8945 8dbd
000000a0: 470c 9f3d 43a0 4dbd 7308 5cbd 4871 693d
000000b0: 619d c0bc a0ea 19bd cb2b 5fbd 1abb 8e3d
000000c0: b839 27bd 9625 813d
0.057003926 0.02684755 -0.014570576 -0.03521194 -0.09554286 -0.020893198 -0.0068173585 0.06154156
0.00475312 0.046667404 -0.010049575 -0.04511552 0.06915019 -0.04719312 0.0053525 0.051010843
-0.027268091 0.06030534 -0.016822984 -0.0029304968 -0.10657015 0.003693259 0.09466541 -0.06911853
-0.067500554 0.02011987 -0.08151725 -0.010877619 -0.070466615 -0.102594845 0.09044327 -0.07153305
-0.053063776 -0.001112574 0.058065362 -0.06804495 0.0027330369 -0.0006989973 0.07542183 -0.068980284
0.077660136 -0.050201666 -0.053718995 0.0569928 -0.023512544 -0.03757727 -0.054485124 0.069692805
-0.04082653 0.06305997

convnet2.1.weight f4 [50]
00000000: 3593 953f 4b13 7e3f 4b90 723f 281a 623f
00000010: 7320 8b3f e922 8a3f 9556 843f b0b3 5b3f
00000020: 9858 6c3f 1f9d 863f e94f 853f 6835 6e3f
00000030: 6282 8b3f 5bbd 7c3f 14ef 673f 36be 7e3f
00000040: 6092 723f 347e 893f 4661 713f 44cd 793f
00000050: 8f9e 8c3f 7288 783f 5c64 853f 5439 863f
00000060: 1bfa 813f 132d 6d3f 2702 803f 7717 653f
00000070: 5d54 803f eacd 753f 19c9 753f 9f48 903f
00000080: a7cd 743f 9755 873f c266 923f 4213 5e3f
00000090: 3fbd 833f d88e 5b3f 4e11 873f 2fc6 5d3f
000000a0: e79d 5e3f 1693 5e3f bfd8 753f 868d 843f
000000b0: 2c48 843f ca57 803f 6691 763f 95a9 7a3f
000000c0: e8be 843f 3d81 643f
1.1685549 0.9924819 0.94751424 0.8832116 1.0869278 1.0791904 1.0338923 0.85821056
0.92322683 1.05167 1.0415012 0.9305024 1.0899165 0.98726434 0.9059918 0.9950899
0.947546 1.0741639 0.9428905 0.97578835 1.0985888 0.970832 1.0421252 1.0486245
1.0154451 0.926469 1.0000657 0.8948893 1.0025746 0.96017325 0.96009976 1.1272162
0.956263 1.0572995 1.1437609 0.86748135 1.0292128 0.8576484 1.0552156 0.8663053
0.8695969 0.86943185 0.96033853 1.035569 1.0334525 1.0026791 0.9631561 0.9791501
1.037076 0.892597

convnet2.1.bias f4 [50]
00000000: df3b 4ebd e6de 02be a5e5 0ebe d86d a8be
00000010: 0986 02be f2ef e3bd 78cd 52be 0804 74be
00000020: 38b1 acbd 62ec e8bd 9a62 21be bfe3 3abe
00000030: a0b6 19be d0f0 84be fa60 1cbf 9b15 83be
00000040: 9230 a5be 1aed 54be 1245 04be 32b1 01be
00000050: 5f67 e9bc b0f3 3cbe 0ed4 24bb 0798 22be
00000060: ad39 1fbe f966 f7be d580 2cbe c3de acbe
00000070: fd06 e8bd 1304 3bbe 1c48 c2bd 2652 36bd
00000080: 81b9 82be af05 5cbe 1e81 37be 79f1 7abe
00000090: 9558 c2be 9449 fcbe ed45 5bbe 3476 cfbd
000000a0: 6029 62be 8835 90be 0259 8dbe 74c3 82be
000000b0: ddb0 64ba aa0d 18be eb53 d8bd 0bd0 b2be
000000c0: 1440 17be 67f3 a2be
-0.050350066 -0.12780342 -0.1395479 -0.32896304 -0.12746443 -0.1112975 -0.20586193 -0.23829663
-0.08432239 -0.113732114 -0.1576027 -0.1825094 -0.15011072 -0.25964975 -0.61085474 -0.2560242
-0.3226362 -0.20793572 -0.12916973 -0.12665251 -0.028491674 -0.18452334 -0.0025150809 -0.15878306
-0.15549345 -0.4832075 -0.1684602 -0.33763704 -0.11329458 -0.18263273 -0.0948641 -0.044511937
-0.25532153 -0.21486543 -0.17920348 -0.24506177 -0.37958208 -0.49274886 -0.21413393 -0.10129967
-0.22086096 -0.2816584 -0.2760697 -0.25539744 -0.00087238644 -0.14848962 -0.10562881 -0.3492435
-0.14770538 -0.31826326

convnet2.1.running_mean f4 [50]
00000000: c618 56bf b610 903e bd65 9abd 1056 a0be
00000010: b860 5ebf 27c3 abbe fb54 d4be c7c5 893f
00000020: 83b8 353f 9c30 28bf aaaa 56bf 362a 15bf
00000030: 23e3 debe 0560 5cbe 9837 0340 e69f 20bf
00000040: f588 d23f a67c 90bf f00f a43e 6b32 403f
00000050: 8787 7fbe b392 cfbe d83c e4bd dbc5 8cbf
00000060: 676e 6fbf 3dc0 e43f 371a 28be 536d 903f
00000070: 68f3 3bbe 064e 15bf bf03 973d 80ae 9ebf
00000080: e18b 20bf aa99 49bf 9482 94bf aa02 b63f
00000090: 0d28 90bf a3be 1340 9918 a93e aaed 4c3f
000000a0: 15a8 d23f c34a 80be 40b5 5fbf 8ab3 cebe
000000b0: 8228 a63e 00cf 71be 5e8b 8e3e def4 a93f
000000c0: 62e7 42bf bd93 c43f
-0.8363155 0.2813775 -0.07538936 -0.3131566 -0.8686633 -0.33547327 -0.41471085 1.0763482
0.7098467 -0.6569917 -0.8385416 -0.58267534 -0.43532667 -0.21521004 2.0502682 -0.62743986
1.6448046 -1.128804 0.3204341 0.7507693 -0.24954043 -0.4054161 -0.111444175 -1.0997881
-0.93527836 1.7871166 -0.1641625 1.1283363 -0.18354571 -0.5832218 0.073737614 -1.2397003
-0.6271344 -0.787501 -1.1602349 1.4219563 -1.1262223 2.3085105 0.3302658 0.80050147
1.6457545 -0.2505704 -0.8738594 -0.40371352 0.3245278 -0.2361412 0.27840704 1.3277853
-0.7613431 1.5357586

convnet2.1.running_var f4 [50]
00000000: dd7a 7a40 3259 0d40 4267 fd3f 5007 0440
00000010: 1ef5 3b40 84bc 3240 0d9d f93f 0ffa fa3f
00000020: 5453 1140 3c82 7c40 9ae9 7940 e210 3a40
00000030: ba7e 5640 dce0 c83f 2e2b 6d40 4c94 ca3f
00000040: 0a21 3b40 51ed 7540 db0e 1640 3e67 2140
00000050: 383b 0440 bdb0 3640 4e57 4c40 2474 8440
00000060: a173 3b40 b159 7440 d217 ce3f 5951 0640
00000070: 61a3 2b40 20e4 d53f 2266 c63f f84b 9a40
00000080: a0da ca3f f297 1240 9615 8640 c4b8 5a40
00000090: b5e2 3340 53f6 9c40 40cf ac3f af23 3640
000000a0: e86b 1440 a2c6 0040 6a50 1540 9bcc f53f
000000b0: e621 4f40 7080 d23f 5ac6 3b40 199f 4c40
000000c0: dc0c 6a40 0022 5f40
3.913749 2.208569 1.9797137 2.0629463 2.9368358 2.792756 1.9501053 1.9607562
2.270711 3.9454489 3.904883 2.9072804 3.3514848 1.5693622 3.7057605 1.5826507
2.9238915 3.8426096 2.3446567 2.5219264 2.0661144 2.8545372 3.1928287 4.1391773
2.9289324 3.8179743 1.6101019 2.098715 2.6818469 1.6710243 1.5499918 4.8217735
1.5847969 2.290524 4.190135 3.4175272 2.810712 4.905069 1.3500748 2.845928
2.319086 2.0121236 2.333033 1.9203066 3.236444 1.6445446 2.9339814 3.1972106
3.6570349 3.4864502

convnet3.0.weight f4 [100, 50, 1, 5]
00000000: 1b00 db3d 9821 d0bc 15e1 84bd 13e3 233d
00000010: 637e 7c3d c10d 15be 7096 52bc 392b c8bd
00000020: 730b c1bd 9b15 113d 91c5 063d fc1b 373c
00000030: 3535 1dbc 9339 cdbd 879e 05be 2220 bb3d
00000040: c752 f1bb 1cf7 593d ee48 543d 5f1f e1bd
00000050: e42c 98be 37ab 56be d2d3 8cbd 87ff 85bd
00000060: b161 fcbb c543 45be a6ac 08be 2207 82bd
00000070: ddae 0cbd 32d7 183d a46d 503e 6ce0 0d3d
00000080: 2061 7d3d 2391 be3c 2875 34bd 1358 00bd
00000090: 456c 18bd 2ad9 063e 7d61 9c3d 9d9e a0bc
000000a0: 13c2 1bbd 9abf 173d eda3 da3b 3b25 083d
000000b0: f7d0 6fbd f884 143e e7df 363d cbc1 68bd
000000c0: 4edb a6bc c76f d03c 0b57 1a3e a3eb a93d
000000d0: 304a 883c 3c03 b93d 15cf 08be 3d2b 923c
000000e0: ed5d 2d3d 390e c73c d720 1f39 e01b 163d
000000f0: 3859 593b 8fd8 21bd 30a0 35bc 66f4 e13d
00000100: f3c1 86bd 7903 da3a aa0c 023e e476 e9bc
00000110: 3909 98bd 644c eebd ef66 393d 9339 d5bc
00000120: 932f 413d 2caf 6f3d 8655 bdbd 269b 23be
00000130: e511 1abe 68cf 3bbd 3135 4bbe 6933 e6bd
00000140: 85f4 413c 214a bbbc 5d1a b13d 0b47 61bd
00000150: 6f17 cabd 9c2f ecbb e113 26bd aed7 cd3b
00000160: 7514 65bb d116 8dbd f3ea 08be 5fe0 ffbd
00000170: c2ed 0fbe 1166 e8bd 4dac e8bd cd52 47be
00000180: ce7b 6fbe d240 e1bd d9a2 93bd c2e4 e4bc
00000190: 6cc5 d0bb 4367 a73d 5ad9 603d f6ab 5bbb
000001a0: 416d 8e3c a51e 073e 88ec 3f3d a8a4 113c
000001b0: 155e e63c ef92 a7bd dbe1 bc3d 3773 e2bc
000001c0: 7374 27bd f24d ebbc 0ba6 a53d 283d 753e
000001d0: 20c4 e13d 6ad1 293d 9024 043e 24e1 a2bd
000001e0: 6009 d5bd 6302 82be aa0a 83bd 8eea 3bbe
000001f0: 5c86 f8bd 815a ba3d 9682 453c d94b d93d
00000200: 0779 a23b c5e0 abbd 838a 89bd c0db ca3d
00000210: d7d8 853d 9171 aabd 3622 68be 60ff bfbd
00000220: 3926 423b 151a 2dbc fa9c 1ebc 14dc bfbc
00000230: 526f 94bd c6d5 953c c7da d23c 6c8c d5bd
00000240: be95 31be b7a5 c9bd afdd ce3c dd29 dcbc
00000250: 418d 20be 193c 70be 8ba3 38be f811 b3bd
00000260: b35e 02be 93b7 2dbd d789 ebbd cda9 0c3d
00000270: dea6 a6bc 6d74 44bd 30fa e13d 34ae 5d3e
00000280: 48fb 20bc d148 cdbd 15b5 0e3d d0c0 dbbd
00000290: 6258 42be b4ff 7fbd 9ab1 50bd b3db a4bc
000002a0: 9a47 0cbd 54a7 19be 47aa 00bc 047b 113e
000002b0: 09fc c03d bb2b e23b fcaa e53d d6e2 8fbc
000002c0: 5ba4 a8bc 2a83 d13c d830 a1bc 57db e8bc
000002d0: a176 c6bd 1911 9ebd d383 07be f7d5 ee3c
000002e0: cfd0 f83d 1cc3 d93c 6c77 993d a336 113d
000002f0: 1665 5c3d defc a0bd e435 a93d 9819 a6bd
00000300: b951 47bd 723a 2fbc 5d8c 0fbe 95c6 4a3d
00000310: 117d 483d 592d a83d 4221 2e3c 4074 c63d
00000320: 6c5c df3d 29ee da3b 19cc 87bb 2b6b 9c3d
00000330: a3f7 1e3d fb6e 453d 7227 96bd 8a0d 24bc
00000340: 4735 4d3d 5dd2 40bd 4547 15be 70fc c5bd
00000350: 67bc a93d fb67 153b 8730 30be 993d d7bd
00000360: c852 573d 56aa debc 0145 44be 00dc e2bd
00000370: eded 00be a5e7 47be 90d6 bebd e7dc 4cbd
00000380: 9f44 a33d ae7b 92bc 3e13 7e3c 7e6e ac3c
00000390: e68d 9e3d 742b 72be a306 903c 9cfc cc3c
000003a0: 029b 7e3d 28c8 d13d a892 c3bd d3d8 ac3d
000003b0: e45d bf3c 2788 a03d a25f c7bd 480e 1bbd
000003c0: 84bf 37be b377 6cbe 93c8 95bd 4ba8 92bc
000003d0: 9f99 babd 622a 523d 529c 6dbd 9916 4b3d
000003e0: 637e 80bd 2a18 a53c 03b2 853d 7c0e 74bc
000003f0: 28c1 fd3c 1e80 0c3e 532d 253e 2304 083d
0.106933795 -0.025406644 -0.064882435 0.040011477 0.06164397 -0.14556028 -0.01285325 -0.09773869
-0.09426012 0.035420995 0.032903258 0.011176106 -0.009595205 -0.10020747 -0.13048755 0.09136988
-0.007364604 0.053214177 0.051827364 -0.10992312 -0.2972175 -0.20963751 -0.06876339 -0.065428786
-0.0077020754 -0.19264133 -0.1334711 -0.06349017 -0.03434645 0.0373146 0.20354325 0.034637854
0.061860204 0.023262566 -0.04405704 -0.031333994 -0.03721263 0.13168779 0.07635782 -0.019606883
-0.03802688 0.03704796 0.0066723735 0.03323863 -0.058548894 0.14503849 0.044647124 -0.05682544
-0.020368244 0.025443925 0.15072267 0.08296897 0.016636938 0.0903382 -0.13360246 0.017842883
0.042325903 0.024298774 0.00015175655 0.036647677 0.003316475 -0.039513167 -0.011085555 0.110329434
-0.06579962 0.0016633115 0.12700143 -0.028499074 -0.07423634 -0.11635664 0.04526418 -0.02602843
0.04716451 0.058516666 -0.09244828 -0.15977153 -0.15045889 -0.045852095 -0.1984451 -0.112402745
0.011838083 -0.022862496 0.086476065 -0.054999392 -0.09867751 -0.007207824 -0.0405463 0.0062818145
-0.003495482 -0.068891175 -0.13370876 -0.12493967 -0.14055541 -0.113475926 -0.11360989 -0.1946518
-0.23387071 -0.109986916 -0.07208795 -0.027941111 -0.006371191 0.081739925 0.054894783 -0.0033519245
0.01738608 0.13195284 0.046856433 0.008889355 0.028121034 -0.08182322 0.09222766 -0.02764283
-0.04088254 -0.02872369 0.08088311 0.2394911 0.11023736 0.04145948 0.12904572 -0.079530984
-0.10402179 -0.25392446 -0.063985184 -0.18351194 -0.12135002 0.090992935 0.01205506 0.1061017
0.0049582752 -0.08392481 -0.06715872 0.09905195 0.065354995 -0.08322442 -0.226693 -0.09374881
0.0029624833 -0.0105653005 -0.009680981 -0.023420371 -0.07247795 0.018290412 0.025739087 -0.10427174
-0.17342278 -0.09846061 0.025252191 -0.02687543 -0.15678884 -0.23460425 -0.18031137 -0.08743662
-0.12731437 -0.0424114 -0.115009 0.034341622 -0.02034324 -0.047962595 0.110340476 0.21648484
-0.009825535 -0.10023654 0.034840662 -0.107301354 -0.18979028 -0.062499717 -0.050950624 -0.020124292
-0.034247972 -0.15005237 -0.007853097 0.14207083 0.09423072 0.0069021857 0.11214253 -0.017564218
-0.020586183 0.02557524 -0.01967661 -0.028424902 -0.096905954 -0.07718105 -0.1323388 0.02915476
0.12149202 0.026582293 0.07493481 0.035452496 0.05380734 -0.078607306 0.08262232 -0.0811035
-0.04866192 -0.010695087 -0.14018388 0.04950579 0.048947398 0.082117744 0.0106280465 0.09690142
0.109063 0.006681223 -0.0041442034 0.07637628 0.038810384 0.048201542 -0.07331742 -0.010012994
0.050099637 -0.047075618 -0.14577968 -0.09667289 0.08287888 0.0022797573 -0.17206012 -0.10509796
0.05256918 -0.027180832 -0.19166948 -0.11077118 -0.12590761 -0.19521959 -0.09318268 -0.050015356
0.07972073 -0.01788124 0.015507517 0.02104878 0.07741909 -0.23649389 0.01758129 0.025022797
0.062159546 0.10243255 -0.09549457 0.084397934 0.0233602 0.07838469 -0.097350374 -0.037855417
-0.17944151 -0.23092537 -0.07313647 -0.017902514 -0.09111332 0.05130995 -0.058010407 0.049582098
-0.06274106 0.020153124 0.06528094 -0.0148960315 0.030975893 0.13720748 0.16130571 0.03320707

convnet3.0.bias f4 [100]
00000000: eb22 babc 1588 593d 2b31 2dbd a0a6 5f3d
00000010: e66c 41bd 4bed 123d a2eb 6d3d 96fc 9f3c
00000020: 3114 213d ab59 733d b693 31bd 7526 78bc
00000030: 352b 453d 79b5 253d 4aeb 56bb d502 1e3d
00000040: 11b1 8d3b 4633 87bc b474 193d 43d7 7abd
00000050: f2e5 633d d0ed 023d e2c2 36bd b37e 71bd
00000060: 2312 77bd ed42 aa3c 61d2 a73b 473c f5bc
00000070: 2fa8 dd3c bce9 3f3d 1fcf 57bc cf09 a93c
00000080: 37a6 543d 6d54 63bc 0191 6b3d 4146 5cbd
00000090: 6ba0 0cbc bdd8 52bd 309b e03c c255 953c
000000a0: 2209 7ebd be14 6dbd 8271 743d 3126 42bd
000000b0: 697a 663d f6de 0cbd 0e17 ca3c ca7c 0b3c
000000c0: fbb7 78bd 14ed 22bd 1c27 c7bc 97ef 183d
000000d0: 4ae9 263d 3c8c ef3c b500 20bb 0509 bcbc
000000e0: aa48 523d e68d 6c3d 76ef 13ba 184d 3dbd
000000f0: 29a9 57bd 3858 cbbc 58cc 883d e9a9 86bc
00000100: 0403 5d3d 73d3 513d 826b 4cbc eba7 08bd
00000110: e6dc ddbb 6d18 953c afd7 b63c ea82 58bd
00000120: fde4 093d 2b34 0e3d f36e 3cbd d400 f43c
00000130: d5da 3e3d d4c0 2cbd 260c 46bc 0e77 10bd
00000140: 7770 1c3d 7935 cebc 4519 1a3d f738 793d
00000150: e7e5 3bbd 45be f33c 05e5 44bd 8b97 5dbc
00000160: 3dc4 483d 5bd6 a93c 48a6 79bd e0d2 ecbc
00000170: b4e3 1f3d 1cf7 55bd 320d 1abd fce4 28bc
00000180: 02ff fbbc 1793 4b3d 6b22 853d 69b4 5e3c
-0.022721728 0.053108294 -0.04228322 0.054602265 -0.047222994 0.03587083 0.058086045 0.019529622
0.039325897 0.059411686 -0.04335376 -0.015145888 0.04813691 0.04045627 -0.0032794052 0.03857692
0.0043240865 -0.016503941 0.037464812 -0.061240446 0.055639215 0.031965077 -0.04461945 -0.05895872
-0.06032003 0.020783866 0.0051215147 -0.029935969 0.027057735 0.046853766 -0.01317194 0.02063456
0.051916327 -0.013875109 0.057511333 -0.053777937 -0.0085831685 -0.05147623 0.02741775 0.01822937
-0.06202043 -0.05788111 0.059678562 -0.047399703 0.056269083 -0.03439232 0.024669196 0.008513639
-0.060722332 -0.039776877 -0.024310641 0.037337866 0.040749826 0.029241674 -0.0024414484 -0.02295352
0.05133883 0.057752512 -0.00056432874 -0.0462161 -0.052651558 -0.02482234 0.066796005 -0.016438441
0.053957954 0.051227044 -0.012476804 -0.033363264 -0.006770718 0.018200124 0.022319643 -0.052859224
0.033665646 0.03471772 -0.046004247 0.029785551 0.046595413 -0.042176083 -0.012087857 -0.03526979
0.038193192 -0.025171982 0.037621755 0.06084534 -0.04587355 0.029753814 -0.048069973 -0.0135249
0.049015272 0.020732095 -0.060949594 -0.028909147 0.039035514 -0.052237615 -0.03761024 -0.0103085
-0.030761246 0.049700823 0.06500705 0.013592818

convnet3.1.weight f4 [100]
00000000: 46ce 783f aa78 893f e1e9 673f 3c51 873f
00000010: aa83 683f 0293 6b3f 3476 843f f14c 8d3f
00000020: 4ac5 853f ff1b 723f 0084 7f3f 5a38 863f
00000030: 275b 8e3f 7fac 853f 1ff9 663f 54c3 7b3f
00000040: 991b 853f 82a1 8d3f 4acd 803f 28ff 853f
00000050: 623c 7f3f 38f7 833f dc53 833f 291d 873f
00000060: e8cf 703f e4d6 853f e71e 803f ffc2 873f
00000070: e1b8 6f3f a903 823f b4dd 6b3f 8de9 883f
00000080: 031b 773f c85d 553f a267 763f c523 813f
00000090: 7851 813f f6bb 5a3f 5f87 7b3f f22e 873f
000000a0: 063b 833f 3436 893f 787c 843f 6bbf 633f
000000b0: ac1f 803f ab84 633f a71c 853f 5cd2 823f
000000c0: 121d 873f 286d 823f 29ca 7f3f 11b7 6c3f
000000d0: 096a 753f 761e 843f 7a2d 823f 76d3 7d3f
000000e0: 0b0c 833f b6ab 9c3f c20f 913f 917d 773f
000000f0: 5c27 843f 444f 8b3f 33b3 5c3f c8d4 603f
00000100: d1a2 7b3f 2064 7b3f 2d8c 8b3f 89a3 863f
00000110: 26d6 753f ff77 7e3f 35d8 713f 3550 7d3f
00000120: 0053 873f e954 613f 535e 873f 17c1 6b3f
00000130: 0771 8b3f 82f7 833f d4b7 853f e8ff 843f
00000140: 20d4 713f 7672 523f 313c 8b3f 2a0c 753f
00000150: 6224 863f 3bee 933f d57e 7d3f b474 653f
00000160: a5bc 5c3f b9e4 663f bff9 6f3f 4893 803f
00000170: 9399 843f 0ac8 853f 0e15 6e3f 3e83 613f
00000180: ca6b 773f 84f9 6b3f f703 8c3f d01d 7d3f
0.9718975 1.0739949 0.90591246 1.0571666 0.90825903 0.9202119 1.0348573 1.1039106
1.0450833 0.9457397 0.9981079 1.0485947 1.1121567 1.0443267 0.9022388 0.9834492
1.0399047 1.1064913 1.0062649 1.0468493 0.9970151 1.030982 1.0259967 1.0555774
0.9406724 1.0456204 1.0009431 1.0606383 0.9364148 1.0157367 0.9213517 1.0696274
0.9652559 0.83346224 0.9625188 1.0089041 1.0102987 0.85443056 0.98253435 1.0561202
1.0252388 1.0719666 1.0350485 0.88963956 1.0009665 0.8887431 1.0399369 1.0220447
1.0555747 1.0189562 0.99917847 0.9246684 0.9586492 1.0321796 1.0170128 0.9915079
1.023805 1.2239902 1.1332934 0.96675974 1.0324512 1.0883565 0.86210936 0.8782468
0.98295313 0.98199654 1.0902153 1.0518657 0.9602989 0.9940185 0.9447053 0.9895051
1.0572205 0.8802019 1.057566 0.92091507 1.0893868 1.0309908 1.0446725 1.0390596
0.944643 0.82205904 1.0877744 0.95721686 1.0479853 1.1557077 0.99021655 0.896312
0.8622535 0.90192753 0.9374046 1.0044947 1.0359367 1.0451672 0.93000877 0.88090885
0.9664885 0.92177606 1.093871 0.98873615

convnet3.1.bias f4 [100]
00000000: 1805 eabd 6afb e8bd 09bc 8dbd 4bc9 35be
00000010: 20b0 efbd 428a 7cbe 4341 0fbe da26 cbbe
00000020: 67dd 37be f9f0 70bd 0a70 bbbe 240e 22be
00000030: 1ddc b9be fc45 36be 017e 23be ff0d d9bd
00000040: 2920 94be 84f5 71be f370 27be 162c a8be
00000050: b9e4 4ebe 744b 00be 9bf9 73be 383c 12be
00000060: f8e8 a9bd 885e 38be 088f 26be dd2e 81be
00000070: c606 1cbe 026a 71bd 3170 6abe 70e5 6cbd
00000080: 08e4 f6bd a5fe 7ebe 19db 2fbd de7e 8cbe
00000090: 8a60 64be c367 ddbd bf05 25be 9816 61be
000000a0: 78a0 b8bd 173c 59be 69e3 7bbe bde5 20be
000000b0: 45f7 a1bd 0a89 5dbe e81f 74be 18bb 84be
000000c0: 13ff 65bd 091c 8fbe db32 e9bd a483 49be
000000d0: 584f babd 9fb3 89be aec5 aebd a67c 2dbd
000000e0: 78c2 2dbe e34e 48be efff 92be 7c7d 46be
000000f0: 462f 00be 52cd 3cbe 4d72 abbe 6743 fdbd
00000100: 7cce 03be 6528 03be 5d01 10be 9557 9abe
00000110: 1b02 30be 486b 4dbe 9a97 1abe 81a8 5ebe
00000120: 31ca 1fbe a268 6abe 39cb 49be 9add 52be
00000130: 6011 7ebe 33d3 fabb 108b 8ebe 3e68 8cbe
00000140: 514b 3cbe 3b27 5dbe 2f76 88be 2ecc 66bd
00000150: 0d8f cbbd 3d5f 87be c45a 65be ec32 12be
00000160: a4c5 88bd b933 6dbe d9cd 5fbe c0fc d4bd
00000170: a452 8bbd 437a 78be 7219 d6be cf37 6abe
00000180: d35d a8be a46a 0fbe d51a 80be 4468 74be
-0.11426753 -0.113760784 -0.069206305 -0.17752568 -0.11703515 -0.24662116 -0.13989739 -0.3967808
-0.17955552 -0.05882356 -0.36608917 -0.15825707 -0.36300746 -0.17800134 -0.15966035 -0.10598373
-0.28930786 -0.23628813 -0.1635168 -0.32846135 -0.20204438 -0.12528783 -0.23825686 -0.14280784
-0.082963884 -0.18004811 -0.162655 -0.25231066 -0.15236959 -0.058938988 -0.2289436 -0.057835996
-0.12055212 -0.24901827 -0.042933557 -0.27440542 -0.22302452 -0.108108066 -0.16115473 -0.21981275
-0.09014982 -0.21214329 -0.24598469 -0.15712638 -0.07908491 -0.21634308 -0.23840296 -0.2592399
-0.05615146 -0.27951077 -0.11386653 -0.19679123 -0.09097165 -0.26894853 -0.08533798 -0.042355202
-0.16968715 -0.19561343 -0.28710887 -0.19383806 -0.12518033 -0.18437698 -0.33485642 -0.123663716
-0.12871736 -0.12808378 -0.1406302 -0.30144945 -0.17188303 -0.20060456 -0.15096894 -0.21743967
-0.15604474 -0.22891477 -0.1970643 -0.20592347 -0.24811316 -0.0076545714 -0.2784047 -0.2742328
-0.18388106 -0.21596996 -0.26652667 -0.056347065 -0.09939394 -0.2643985 -0.22397906 -0.14277238
-0.06678322 -0.23164262 -0.21855868 -0.10399771 -0.06802872 -0.24265389 -0.41816288 -0.22872852
-0.32884082 -0.14005524 -0.2502047 -0.23867899

convnet3.1.running_mean f4 [100]
00000000: 9c03 0ac0 7ade 973e 5664 9dbf 768a 933f
00000010: 1248 acbd 6b4e ca3f 1bae a0bf f7a4 2640
00000020: 403a 23c0 346c 86be 7abc 2140 ac9d 083d
00000030: 5563 ec3f 5879 00bf 61f0 10c0 3a66 0cbf
00000040: 73bb 2f40 0988 2c3f 70a7 9b3f a2ba 1340
00000050: 8fa3 f8bf 70b7 24bf 33e1 a8bf 41ce 99bf
00000060: cffb 653e 7c6a 0c40 f1b9 7bbf f1e2 1040
00000070: 11ef 8abf fa74 e53d 5976 82be 3898 643f
00000080: aa9b 68be edbc 8f3f 4a93 3ebf 51bd f0bf
00000090: 65d9 ed3f b0c9 f5bd f414 0dbf a9a2 04c0
000000a0: 4e26 debf 315f 41c0 de5c de3d e88d 7e3d
000000b0: 38e9 c53e 9cc3 1a40 51ad 2140 b24d 3dbf
000000c0: af22 99bf 80ae 3a40 5877 c6bf b3d6 ff3f
000000d0: b840 573f 1f9a aa3f 60b1 e83e 4932 b23d
000000e0: 7ed6 1ebf 32a5 0140 5e1a 4040 46d0 50c0
000000f0: 1f4c 3bbf 2801 c9bf a0e6 2c40 9f02 3a40
00000100: ae15 8fbf a1b6 b43f 4e60 f03f 3b59 8d3f
00000110: 047c 2ec0 2a4a 45c0 e11a 023f 137f 43be
00000120: e31d 19c0 0ded f83f c1a9 aabf f6f9 ce3c
00000130: 2bbc f73f f3b9 0abf d4a2 1140 d0b5 16c0
00000140: 902e 04c0 4a1e 213f 5652 0940 ccde 1940
00000150: b0e6 c53f c2dd 5c40 b7e7 3ec0 2ec0 1d3f
00000160: e860 863e a8e4 75bf 09e4 cc3f 3a8d c83f
00000170: 8358 e9bf b392 46c0 25ff cb3f 4594 053f
00000180: 1b5a 503e b2f7 92be a36c 4940 1e2a 18c0
-2.1564703 0.29661924 -1.2296245 1.152663 -0.08412184 1.5805181 -1.2553133 2.6038187
-2.5504303 -0.26254427 2.5271287 0.033353493 1.8467814 -0.50185156 -2.2646716 -0.54843485
2.745816 0.67395073 1.2160473 2.3082662 -1.9424914 -0.64342403 -1.3193725 -1.2016069
0.22459339 2.1939993 -0.983306 2.2638514 -1.0854207 0.11203952 -0.25480917 0.8929477
-0.22715631 1.122953 -0.74443495 -1.8807775 1.8581969 -0.120013595 -0.55110097 -2.072428
-1.735544 -3.021435 0.10857557 0.06214705 0.38654494 2.418189 2.5262034 -0.7394668
-1.196371 2.9169006 -1.5505171 1.9987396 0.8408313 1.3328284 0.45447826 0.087009974
-0.6204604 2.0257077 3.0016093 -3.262712 -0.73163027 -1.5703478 2.7015762 2.90641
-1.1178491 1.4118234 1.877939 1.1042856 -2.7263193 -3.0826516 0.50822264 -0.19091444
-2.3924491 1.9447342 -1.3333055 0.025265675 1.9354299 -0.54189986 2.2755632 -2.354847
-2.065342 0.6293684 2.1456504 2.4042234 1.5461025 3.451035 -2.9828928 0.6162137
0.2624581 -0.96052027 1.6007091 1.5668099 -1.8230137 -3.1027038 1.5937239 0.52179366
0.20346873 -0.28704602 3.1472557 -2.3775706

convnet3.1.running_var f4 [100]
00000000: e819 3841 59d4 0e41 491a 3e41 fb05 1241
00000010: 7fc6 3c40 cab2 b040 f767 1d41 1baa 8641
00000020: 0f27 2a41 dca1 8040 76da 7441 66d8 ff40
00000030: 7bce e840 87fe 8340 f85d 0c41 4c29 4a41
00000040: e166 7441 6671 fa40 0f6a 2f41 d1a5 6841
00000050: 5217 3141 a35a 8340 8f7c b040 20e6 f740
00000060: b014 6440 b96f 9041 a266 f040 1bb1 a241
00000070: c9e4 ff40 ac3f ca40 1bc5 9e40 1a9b 1b41
00000080: 59d8 be40 276e 0541 e463 b540 6d7f ca40
00000090: a1e1 1f41 c865 9640 ccb9 c340 ea06 8d40
000000a0: 27cf cd40 ccbd e840 2ad9 7940 f442 b440
000000b0: b725 f940 1e6a 8540 07b8 9e41 da19 7940
000000c0: aee9 2a41 9e36 8141 6d61 ea40 c7ec 5d41
000000d0: 8c8d 5541 5aa6 2c41 557f 1c41 29ba f840
000000e0: 277e 1341 67dd 6941 abc4 8b41 f1fa 0741
000000f0: 6d92 d140 04de 0441 ef40 8641 0874 c841
00000100: cf0a 2641 bda9 0b41 bf4f 7641 7496 0f41
00000110: 2c1e 3741 d9f9 4341 49df ec40 2cc8 7840
00000120: f39e 8841 b7b1 0b41 4243 6540 07ca ac40
00000130: bf2a 3b41 7f29 3641 abe1 7241 edad d840
00000140: 88c5 d340 41b9 0041 50e8 6041 321e 9d41
00000150: ebfd 8841 a418 9841 fe72 3341 f3f6 8640
00000160: 871f a640 6d9e af40 bb58 bc40 4261 2c41
00000170: 2992 3a41 2321 0741 4562 1141 c5a1 f940
00000180: 4413 cc40 4bfb 8040 a80c ae41 d4f7 3341
11.506325 8.926843 11.881417 9.12646 2.9496152 5.521825 9.837882 16.83306
10.634536 4.019758 15.303335 7.995166 7.275205 4.12482 8.772942 12.635082
15.275117 7.8263426 10.963393 14.5404825 11.068193 4.104814 5.515205 7.7468414
3.5637627 18.054552 7.5125284 20.336477 7.996678 6.3202724 4.9615607 9.725367
5.9639096 8.339393 5.6684437 6.328055 9.992585 4.6999245 6.1164303 4.407094
6.431537 7.2731686 3.9038796 5.633173 7.785854 4.1692038 19.839857 3.8922029
10.682051 16.151669 7.324393 13.870307 13.347057 10.790613 9.781087 7.7727246
9.218299 14.616553 17.47103 8.498765 6.5491242 8.304203 16.781706 25.056656
10.377639 8.72894 15.394469 8.974232 11.444866 12.248498 7.4022565 3.8872175
17.077612 8.730887 3.58223 5.3996615 11.697936 11.385131 15.180095 6.771231
6.6178627 8.045228 14.056717 19.639744 17.123983 19.012032 11.215574 4.217645
5.1913486 5.488089 5.8858314 10.773745 11.660684 8.44559 9.086492 7.8009973
6.3773518 4.0306754 21.75618 11.248005

convnet4.0.weight f4 [200, 100, 1, 5]
00000000: 1f20 5ebc 0aed 97bd c3d0 e83d 7e90 debc
00000010: ea62 1abe fdd8 d23a cc06 a33d 7235 11bc
00000020: 27fc d8bd 8f50 0abd 3339 34bc 8874 443c
00000030: 4800 033d 8d39 623d 17ff aabd 5036 753d
00000040: 385b 4a3d 3f26 f43c 07e6 18bc 87b2 8c3c
00000050: 33c7 f8bd 4d3c 9fbc d649 f03a 0627 c93c
00000060: 82a4 1ebd 57cf 23be 519c dfbc 21e1 5d3c
00000070: 20cd 5d3d 109c 28bc 3c25 203e 3acd a93d
00000080: 4423 1b3d 3882 0cbe ae42 aebd a291 f53d
00000090: 4658 953c 6386 223d 37cc 133d d48c c7bd
000000a0: 3881 003d 4cee a63d 1ddf eebd 4a8e bcbd
000000b0: 8457 79bd 1875 e2bd c7a0 823d dd5d 24bc
000000c0: 7ec2 53bd f643 6cbc 67c4 f43c fd39 47bd
000000d0: 5751 d03c c0d3 f8bc 9759 f83b 7d28 80bc
000000e0: 801e 203d 2aeb e63d 1b4b b83d b98f c6bb
000000f0: f606 263d dab7 a4bc a90b a13d ce85 b83d
00000100: c490 e23c 5a74 18be 3a3b ba3d f402 533d
00000110: 9eb0 673e 4455 bd3d fe51 dfbd 23e4 42bd
00000120: 1743 63bd 3843 1abd b85c 0bbd 199f a93d
00000130: f122 e33c a852 933c c082 033d 42ff 03be
00000140: 9348 253d 4102 5fbd 7f79 033d bf20 d43c
00000150: d22e 8abd a950 9e3d a584 e83d 0828 c9bd
00000160: fd02 20bc ca14 c8bc a67e 803d a515 883d
00000170: 9c2d a1bd 1ade 27bd 5b87 b1bb 7032 283d
00000180: d1bd febc 4197 3a3d 7cf7 dfbc b807 9ebd
00000190: 8450 bd3d c23c 9f3d e5d3 1e3d 7d66 e73d
000001a0: 9738 e93c 427d 503d c674 b73c f0d2 b3bc
000001b0: 8c08 6b3c 99e8 14be 5c7c 0ebe 02ad e0bd
000001c0: fb7c 683d dca0 3e3e e300 1f3e 90bb 2fbe
000001d0: 196c 85bd 052c 193e f9e9 b93d 75d2 60be
000001e0: 6b3f 4a3d a1c7 ebbd 08ab 573d 12e5 febd
000001f0: 5dc4 253d a84a d0bd 0a31 fe3d 384e 5e3e
00000200: 12f6 43bd 00e7 c4bd e0fa 2dbd 99f3 d8bc
00000210: dc86 63bc 0b75 10be 58c8 8ebd 8b57 313d
00000220: 7b14 70bd 9fe8 c43d ce98 a1bd 5415 c6bc
00000230: 0985 343d 24ba 433d 8b74 123e 6ff5 92bd
00000240: 4670 b43c 35fc bfbd 0de4 0e3c 964d bf3d
00000250: 2353 383e 427a 123d de0d 683d 1997 cfbd
00000260: 908f b9bc 8750 a63d 234a 173e 978e db3c
00000270: e133 073e 765e afbd 3f0f 9bbd 85cd 98bd
00000280: 220b 943d 552c 253d e52f 413b 6214 6bbd
00000290: 7e58 a5bd e731 a33c 2a9a aabc c7c4 2ebc
000002a0: cbf5 f53d bbee 5b3e fb15 b73d 244f 2d3d
000002b0: de1e 05be fce3 a4bd e63c 9bbd 5f7e 0cbd
000002c0: 7539 a33d a2d7 e3bd cfa8 e7bd 3be9 22bd
000002d0: f58a fdba 7381 9d3d e0fe 85bd e087 2fbc
000002e0: 39fb 1abd 428c ccbc aca2 d93d 1776 1c3d
000002f0: 6997 acbd 7317 1fbe 2ae2 88bd 3421 843c
00000300: 2f40 afbd 3627 fa3d 1899 9b3d 79eb d53c
00000310: 7974 573b f487 3d3e 8328 9f3d 3d40 0c3e
00000320: 483b b1bd 0111 bebc ccb7 963b cf6a acbd
00000330: 024f 55be d78e 95bd accb b23d c0ab 283e
00000340: 094c cb3d 4fc4 abbd 482f 90bd 5069 1f3c
00000350: fa89 f23d 9414 d43d 3d3e 213e 325a 19bc
00000360: 26d4 b9bd e353 2abc 0ea0 24bd cc96 b8bd
00000370: d740 f13c 205e 24bd 7e32 ccbc 15b4 00bd
00000380: 7551 ebbd 572c 96bd 39ca 1a3c 3a5c e43d
00000390: 2173 c83d 13cd 253e fa0b b23d 6c3c 423d
000003a0: 4e7f 5e3d f51a bcbd 01ce 413d fa20 d6bd
000003b0: 9df9 cfbd fa44 f53d 2db7 1a3e eae7 0a3e
000003c0: edfa 01be 6ea4 91bd 1932 ee3d cc8a bd3c
000003d0: 690f da3d a699 8dbd 0b9f f4bb 712e e9bd
000003e0: a207 fabc 7299 e8bd f45b cc3c 75a2 1a3d
000003f0: 6f54 30bd 271a 6fbd a2f9 a1bd c179 c7bd
-0.013557463 -0.074182585 0.11367943 -0.027168509 -0.15076795 0.0016086396 0.07960281 -0.00886284
-0.10594969 -0.033768233 -0.0109999655 0.011990674 0.03198269 0.055230666 -0.08349436 0.05986625
0.0494034 0.029803393 -0.009332187 0.017174972 -0.12147369 -0.019437933 0.0018332552 0.02455474
-0.038731106 -0.15997063 -0.027296217 0.013542444 0.0541507 -0.010291114 0.15639204 0.08291097
0.03787543 -0.1372155 -0.08508812 0.11990668 0.018230569 0.039678942 0.036083426 -0.09743658
0.031373233 0.0815092 -0.11663649 -0.09206827 -0.060874477 -0.1105749 0.06378322 -0.010032144
-0.051699154 -0.0144205 0.029878808 -0.048639286 0.02542941 -0.030374408 0.0075790393 -0.015644306
0.039091587 0.11275323 0.089987 -0.0060596135 0.040533982 -0.020107199 0.07863552 0.09009896
0.02765692 -0.14888135 0.09093328 0.05151649 0.22625968 0.09244779 -0.10904311 -0.04758085
-0.055483904 -0.03766176 -0.03402397 0.082822986 0.027726622 0.01798375 0.032107115 -0.12890342
0.040352415 -0.05444551 0.03209829 0.02589452 -0.067472115 0.077302285 0.11353425 -0.098220885
-0.009766337 -0.024423975 0.06274156 0.06644753 -0.078700274 -0.040983297 -0.005417747 0.041063726
-0.03109637 0.045554403 -0.02733969 -0.07716316 0.09243873 0.077752605 0.038776297 0.11298845
0.028469367 0.050900705 0.02239455 -0.021951169 0.014345299 -0.14541854 -0.13914627 -0.109704986
0.056759816 0.1861605 0.15527682 -0.17161393 -0.065147586 0.14958198 0.0907783 -0.21955283
0.049376886 -0.115126856 0.052653342 -0.124460354 0.04047047 -0.101704895 0.12411697 0.21709526
-0.047842093 -0.09614372 -0.04247558 -0.026483344 -0.013887133 -0.14107148 -0.06971806 0.043296378
-0.05861328 0.096146815 -0.07890473 -0.024180092 0.044072185 0.04778494 0.1430227 -0.07175719
0.022026192 -0.093742765 0.008721364 0.0934097 0.18000464 0.035761125 0.05665385 -0.101362415
-0.022651464 0.08120828 0.14774375 0.02680139 0.13203384 -0.08562939 -0.07571267 -0.07461075
0.07228686 0.04032548 0.002947801 -0.057392485 -0.08073519 0.019921256 -0.020825464 -0.010667033
0.12009772 0.21477787 0.08939739 0.042311803 -0.13000056 -0.08051297 -0.07579975 -0.034300204
0.079699434 -0.11125113 -0.113114946 -0.039773207 -0.0019343781 0.07690706 -0.06542754 -0.0107135475
-0.03783724 -0.024969224 0.1062673 0.038198557 -0.08427317 -0.15536289 -0.06683762 0.016129114
-0.08557164 0.1221451 0.0759756 0.026113259 0.003287582 0.18508893 0.07771399 0.1369638
-0.08653885 -0.023201467 0.004599547 -0.084188096 -0.2083092 -0.07302635 0.087302536 0.16471767
0.09926612 -0.08387052 -0.07040268 0.009729698 0.11842723 0.103554875 0.15746398 -0.009359883
-0.09073667 -0.010395977 -0.040191703 -0.09013137 0.029449863 -0.040128827 -0.02492642 -0.03142174
-0.11490146 -0.07332676 0.009447628 0.11150403 0.09787584 0.16191511 0.086936906 0.047420904
0.054320626 -0.09184829 0.0473156 -0.104555085 -0.10155032 0.11976047 0.15108939 0.1356503
-0.12693377 -0.071114406 0.11630649 0.023137473 0.106474705 -0.06914072 -0.0074652485 -0.11385811
-0.030521218 -0.11357392 0.02494619 0.037752587 -0.043049272 -0.05837455 -0.07908942 -0.097400196
