Lab2/best results/EEGNet_ELU.pt (torch, 78891 bytes, 17 tensors)

firstConv.0.weight f4 [16, 1, 1, 51]
00000000: 1869 eabb db85 00be 14f9 2fbc 936e c5bc
00000010: 8900 c53d c5f0 2abc 760f 26be 3494 0bbe
00000020: 675d 7b3b 710c 9d3d 7d08 ad3d c231 1a3e
00000030: c92a d43d fcad 173e 7dca bc3d 171b 1f3c
00000040: 17ca 06be 0591 bcbd cccf 7f3d 2d81 ae3d
00000050: 18f9 cd3d 3530 22be d96f 49be e99d 38bd
00000060: 5332 14bb b057 a0bd a356 fbbc 38e5 3cbd
00000070: af41 acbd 177b 353e 5b17 93bc 0df1 4f3d
00000080: c24b c93c c845 f4bd 1921 b13d 690d 17bb
00000090: 643b 123d 57d5 2b3e 5d9b 0ebd e717 013e
000000a0: 96e8 bbbc 88f4 8a3d 5012 133d 2352 6abd
000000b0: 69cd 19be 3f8c 3cbe d852 8539 1ccd 2cbe
000000c0: 8994 873c dabf 3b3d c5e0 283e 57ad 513e
000000d0: 7afe 0b3e d543 b2bd f855 fabd 44a6 30be
000000e0: a2e0 42be 0738 1bbe bf46 9dbd 2da0 e43d
000000f0: 3f1d e23d c048 363e b96d 2b3e 837f c4bc
00000100: 5985 f4bc 85e6 3b3d ebc4 2b3d b174 f8bd
00000110: 7cc1 333d db86 74bd dc4a acbd 6a82 b6bd
00000120: 252d ee3c 0263 563d 61d4 343e d543 8b3d
00000130: 62d1 bdbc 549e 65be dc77 fe3c 27ab 10bd
00000140: 10b8 46bd a048 803d 8802 3d3e 1207 213e
00000150: a860 9dbd 1d47 babd a02b 803c 5065 50bd
00000160: 859c bf3b 7537 dabd 84d9 46bd aac8 abbd
00000170: f530 e8bd 3952 173d cdf0 4d3e 7250 293c
00000180: aafd 4f3e df67 3dbd 342e e5bb 411b d1bc
00000190: f56d 893d 065c f8bd 2006 1fbe ced1 c73b
000001a0: 01e0 2bbe 6442 aebd 7426 9e3d 23ca 293e
000001b0: baee 293e 319f 903d 5a2b 28be 44ad abbd
000001c0: 9f05 3d3d 8f80 fa3d 8d6d ce3d 8a47 8b3d
000001d0: 8c76 173d 32a1 613d 2d95 1ebe cfc0 efbd
000001e0: 5046 03be 2b14 3c3d 0d8d 72bb 9cb1 fd3d
000001f0: 4828 d13d cea6 b6bd a6d5 c93d 56e4 98bc
00000200: 6805 22be 6750 a93d 49a9 b3bd b54c a13a
00000210: d197 17be 77d1 803c 9694 b7bd 888f dc3d
00000220: be75 923c fb59 1b3e 6ebe 08be 107f 27be
00000230: 3f87 95bd 8fc8 07bd f69f d0bd dfa4 cb3d
00000240: 071b 343e d7cd 173e 9a5c c4bd 836b cd3d
00000250: 3cad 93bc c55f efbd 4bd3 b23b e4a9 803d
00000260: 62bd 1c3d edbd 34bd 5485 d23b ec5f 873d
00000270: d943 1bbd b2de 76bd 294c 9dbc 9465 8ebd
00000280: be93 383d 043f 12bd 0c87 073e 3211 f53d
00000290: cae4 cebc 8e1c 843d 7998 7fbd 4871 c33d
000002a0: 5a85 1e3e 6635 9e3d 46a8 85bd 3a69 e9bd
000002b0: 9dff e7bd 44e7 1fbe a59d 17be 4c23 0dbe
000002c0: 6479 d33b e1c4 c23d 5479 373e 4a96 4e3b
000002d0: aadf 5dbd 7778 01be 2ab9 86bd 0089 a53d
000002e0: 16ba afbd 3793 943d 587d 013d 1e85 183e
000002f0: fb64 413e a2f6 093e 1e65 9ebd c7dd 6cbe
00000300: 5a53 7c3c d22e b93b 57c2 87bc 7742 73bd
00000310: 2b19 303d c2fc 823d f1f0 043e 47e4 a2bd
00000320: 7eab 48be f11e 2fbe b86b aa3d b07e 183e
00000330: b3e7 fc3b b990 aebd 2d02 66bd 1d22 1abe
00000340: 7a87 55be 42b8 0a3d ac5c 2fbe 76c3 343e
00000350: f18c 2e3e e831 1b3e 99cc 903d 7dec 863c
00000360: ecb6 6c3d ce3b 063e 1edc 273e 4bd5 d83b
00000370: c186 f03d eeca 1fbe 8475 2cbd 1eff 7c3c
00000380: 1c8b 113b 202a c3bd 6a5a bb3d 50da ad3d
00000390: a7e7 a33d 80dc 1c3d d6cc 61bd b988 e53d
000003a0: ed15 ddbd c1ab f53c d50f 19be 2fd9 20bd
000003b0: a044 04be 4dae e6bd 7385 05be e312 05bd
000003c0: 9683 dcbd 2591 9ebd f766 a53d d430 02be
000003d0: ee6e d63d 4428 87bb 2563 c1bd a928 2b3e
000003e0: 629b ec3c 67e9 42bd 269d c4bd f121 983c
000003f0: 1f5e b43d 9631 2a3e affa 3c3e 5a45 dd3d
-0.0071536414 -0.12551062 -0.010740537 -0.024100577 0.09619243 -0.0104333805 -0.16216835 -0.13630754
0.0038355233 0.07668389 0.08448885 0.15058044 0.10359723 0.14812464 0.09218309 0.009711049
-0.13163029 -0.09207348 0.06245403 0.08520732 0.100572765 -0.15838702 -0.19671573 -0.04507247
-0.0022613003 -0.07829225 -0.03068096 -0.046117038 -0.08410966 0.17722736 -0.017955473 0.050766993
0.024572257 -0.11927372 0.08648891 -0.0023048765 0.03570117 0.16780601 -0.034816135 0.12606774
-0.022938054 0.06784922 0.035906136 -0.057207238 -0.15019764 -0.18412875 0.0002542946 -0.16875118
0.01655032 0.04583726 0.16491993 0.2047628 0.13671294 -0.08704344 -0.122234285 -0.17250925
-0.19031003 -0.15158091 -0.07679509 0.111633636 0.110407345 0.1780119 0.16741075 -0.023986584
-0.029848741 0.045874137 0.041935842 -0.12131632 0.043885693 -0.05969892 -0.08412716 -0.08911593
0.029074261 0.052340515 0.17659141 0.06800047 -0.02317113 -0.22423679 0.031063013 -0.035319474
-0.04851538 0.06263852 0.18457997 0.15725353 -0.07684451 -0.09095595 0.015645802 -0.05087787
0.005847516 -0.10655109 -0.048547283 -0.08387883 -0.11337463 0.036943648 0.2011139 0.010334121
0.20311609 -0.046241637 -0.006994033 -0.025525691 0.06710426 -0.12126927 -0.1552968 0.0060980087
-0.1678467 -0.08508757 0.07722178 0.16581015 0.16594973 0.07061613 -0.16422787 -0.08382657
0.04614794 0.12231552 0.10079489 0.06800754 0.03697829 0.05508537 -0.15486594 -0.11706697
-0.12819791 0.04591767 -0.0037010342 0.12387392 0.10212761 -0.08918534 0.09855203 -0.018663567
-0.15822375 0.08267289 -0.08772523 0.0012306186 -0.14804007 0.01572488 -0.089638874 0.10769564
0.01787841 0.15171044 -0.13353893 -0.16357064 -0.07301187 -0.033150252 -0.1018676 0.09943556
0.17588435 0.14824615 -0.09587975 0.10030272 -0.01802694 -0.116881885 0.005457317 0.06282404
0.038266547 -0.04412644 0.0064245854 0.066100925 -0.0379065 -0.060270973 -0.019201355 -0.06952968
0.045062773 -0.035704628 0.1323511 0.1196617 -0.02525558 0.06450759 -0.06240127 0.09543091
0.15480557 0.07725029 -0.06526236 -0.113970235 -0.11328051 -0.15615565 -0.1480623 -0.13782996
0.00645368 0.09510208 0.17917377 0.0031522685 -0.05416838 -0.1264361 -0.06578286 0.08082771
-0.08580415 0.072546415 0.031613678 0.1489453 0.18886177 0.13472989 -0.0773413 -0.23131476
0.015400732 0.0056513334 -0.01657216 -0.059389558 0.042992752 0.06395866 0.12982537 -0.07953697
-0.19596669 -0.17101647 0.08321327 0.14892077 0.0077180504 -0.085236974 -0.05615442 -0.15052076
-0.20852461 0.03386713 -0.17125195 0.17652687 0.17045952 0.15155756 0.07070274 0.016470188
0.057791635 0.13108751 0.16392562 0.0066172234 0.11744452 -0.15604755 -0.04210426 0.015441684
0.002220816 -0.09529519 0.091481045 0.084889054 0.080031686 0.038296223 -0.055126987 0.112077184
-0.10795198 0.029989125 -0.14947446 -0.039269622 -0.12916803 -0.11263714 -0.13039188 -0.032488715
-0.107672855 -0.07742528 0.080762796 -0.12713939 0.10470377 -0.004124673 -0.094427384 0.1671473
0.028882686 -0.04758587 -0.09600286 0.018570872 0.08807015 0.16620478 0.18455003 0.108042434

firstConv.1.weight f4 [16]
00000000: 28b5 a53f d281 aa3f a368 9c3f db05 bd3f
00000010: f488 ac3f 4f87 c43f f3fe 973f a748 d63f
00000020: 8077 d23f 7472 c43f a55e 8e3f 3e6d 623f
00000030: 6700 893f 5e06 c03f d13e d23f 7341 773f
1.294591 1.3320868 1.2219433 1.4767412 1.3479295 1.5353793 1.1874679 1.6740922
1.6442719 1.5347428 1.1122633 0.8844794 1.0703248 1.5001943 1.642542 0.9658424

firstConv.1.bias f4 [16]
00000000: 85c3 08bc 5207 6eba 9c58 2f3c 3a6c 9bbb
00000010: 9d3d 30bc 1dd1 863c ad9f f93c 2a2a d1bd
00000020: fc6f 5abd 7556 193d 7fdd e3bc 9edf 853c
00000030: ed25 64bd df39 0abd 7815 243d bfca 4a3d
-0.008347397 -0.00090800703 0.010702278 -0.004743126 -0.010756877 0.016457135 0.030471647 -0.1021312
-0.053329453 0.037435967 -0.027815579 0.01634198 -0.05570023 -0.033746596 0.040059537 0.04950976

firstConv.1.running_mean f4 [16]
00000000: 2c92 f63a 3e11 02ba 723c 60b9 710a 013b
00000010: 17de 7bbc 9d9d 0fba 3a06 af3c d424 913b
00000020: 555e c9bb 97fe c83b 33f0 5bbb ae58 833d
00000030: 1a37 0c3e 116d d1ba 7e20 97bb 5f24 1dbe
0.0018811873 -0.0004961676 -0.00021384822 0.0019690061 -0.015372775 -0.00054785033 0.021365274 0.004429439
-0.0061452785 0.006133865 -0.0033559918 0.06413399 0.13692895 -0.0015977939 -0.0046120277 -0.15345906

firstConv.1.running_var f4 [16]
00000000: a5e4 8041 8c2a e941 77f6 3d41 a22f 6041
00000010: 7a1c f541 4fbf f240 b0a0 0942 780d 8540
00000020: 1b95 d340 0ade 6040 56c4 8141 e4c6 be42
00000030: a409 1143 e4dc ff40 4e96 6241 a921 6343
16.111643 29.145775 11.872672 14.011629 30.638905 7.585853 34.40692 4.157894
6.6119514 3.5135522 16.220867 95.38846 145.03766 7.995714 14.1616955 227.13148

depthwiseConv.0.weight f4 [32, 1, 2, 1]
00000000: 47e7 1bbf c736 cabe 6c89 1c3e 530b ab3e
00000010: f911 f33d 74b1 6ebd 4904 d63e 9624 1cbe
00000020: 28a4 fdbe 9126 1dbf 1aba d0bd 4714 10bf
00000030: c6bf a8be 0730 c43e c11a 20be 089a 2d3f
00000040: 6a5e a53e fd99 65be 8d8d 0c3e 1c61 9ebe
00000050: c211 fe3d 0213 923f f3d9 353e d388 f1be
00000060: b158 9a3e 1cb9 c3be 2ab8 903e c9f5 8cbe
00000070: b657 3fbf d3d7 f63e e358 1ebe 7402 313f
00000080: 7cd2 3bbe dac1 193f 3ddd 9fbd c927 493f
00000090: 10e0 93bd 87bb 003f 38ad b1bd 0781 133f
000000a0: 2064 f53e bbbc 33bd feec a83e fff6 28be
000000b0: 63f9 1bbf 8cf6 9d3e e45c 103e 4ea5 8ebe
000000c0: 487e a0be d6a8 2a3f d26c 3f3f 4e4a 2d3e
000000d0: e1c3 463e e501 14be 749a 7b3e f5b0 a23d
000000e0: 70e7 d8be 748c 333e d3a3 3bbe d343 043f
000000f0: 6633 073f 4cf0 3dbf 1f3e 173f 363a 043e
-0.60899776 -0.39494917 0.15286797 0.33407077 0.118686624 -0.0582747 0.41800144 -0.15248331
-0.49539304 -0.6138697 -0.10191746 -0.5628094 -0.32958812 0.38317892 -0.15635206 0.6781316
0.32298595 -0.22422023 0.13725872 -0.30933464 0.12405731 1.1412051 0.17758922 -0.471747
0.3014579 -0.38227165 0.28265506 -0.2753127 -0.7474321 0.48211536 -0.15463595 0.6914437
-0.18342012 0.6006142 -0.0780587 0.7857633 -0.07220471 0.50286144 -0.08675617 0.57618755
0.47927952 -0.04388116 0.3299331 -0.16500472 -0.6092741 0.30852163 0.14097935 -0.27860492
-0.31346345 0.66663873 0.7477542 0.16922876 0.1941066 -0.14453848 0.24570638 0.07943908
-0.42364073 0.17534047 -0.18324213 0.5166599 0.528128 -0.7419479 0.59079164 0.1291283

depthwiseConv.1.weight f4 [32]
00000000: ecc1 9d3f 9ac4 a13f 57ae a93f db32 9c3f
00000010: 718f 9b3f 8316 9b3f f052 bd3f 9565 973f
00000020: 8e67 9a3f aa1f a43f 6c3d b03f f1b7 c63f
00000030: d196 9c3f 19de 993f 9415 c63f 3233 c83f
00000040: 24eb d33f 7f7f bd3f f977 c63f ad20 c43f
00000050: 66ef 843f 0728 943f 3408 753f ca42 6d3f
00000060: 9fb0 913f 934f 553f 4c01 b83f ff6e bd3f
00000070: 4075 ab3f 40a6 a83f 08f2 883f 0e81 803f
1.2324805 1.2638123 1.3256329 1.220302 1.215315 1.2116245 1.4790936 1.1827875
1.2062852 1.2822163 1.3768744 1.5524884 1.2233526 1.2020904 1.5475335 1.5640624
1.6556134 1.4804534 1.5505363 1.5322472 1.0385559 1.1574715 0.9571564 0.9268004
1.1382025 0.83324546 1.4375396 1.4799498 1.3395157 1.3175735 1.0698862 1.0039384

depthwiseConv.1.bias f4 [32]
00000000: 2726 95be ed8f 81be c6e4 85be 17ba 83be
00000010: e3e0 8bbe 2173 8cbe c907 9ebe 1726 58be
00000020: 6635 9cbe 9e49 7dbe 8f00 aebe 5488 cdbe
00000030: 54ed 98be 8965 a8be e209 fcbe cdb0 e3be
00000040: 335f 12bf 9c6f eebe 5190 0bbf 8a32 f8be
00000050: 15af cabe 41c4 e0be 09a5 9abe a3d2 b1be
00000060: 4eed 9cbe e61b d4be cf8b a2be ff2a f9be
00000070: 23e6 c2be 9993 b3be 2320 e93c bce8 acbe
-0.2913067 -0.2530512 -0.26151103 -0.25727913 -0.27320012 -0.27431586 -0.30865315 -0.2110828
-0.3050949 -0.24735114 -0.339848 -0.40143073 -0.29868567 -0.32889965 -0.4922629 -0.44470826
-0.5717651 -0.46569526 -0.54517084 -0.48476058 -0.39586702 -0.4389973 -0.30204037 -0.34731016
-0.306498 -0.41427535 -0.3174729 -0.48665616 -0.38066205 -0.35073546 0.028457707 -0.33771312

depthwiseConv.1.running_mean f4 [32]
00000000: 6742 083c dddb 82bb c164 2db8 80b9 42b9
00000010: 35d4 3dbc 9edc e6bb 62a0 73b8 fdf2 25bb
00000020: 2c02 6aba 835a 033b 20a8 983c 10b2 8fbb
00000030: cf33 01bb bd2e 0e3a 5904 e03c b332 5fbd
00000040: 558e b9bc b0ba 1bbd 8160 8b3c 3a64 9e3c
00000050: fb50 46bc a129 94bb f752 72bb 4b4f 2cbb
00000060: 8df0 93bc 44fd 51bd 4e81 9dba dc3a 30bc
00000070: 537b 26bc 9f90 583c 987e 06bc b87d 163d
0.008316613 -0.003993495 -4.134025e-05 -0.00018570386 -0.011586239 -0.0070453426 -5.8085083e-05 -0.0025321834
-0.0008926715 0.0020042963 0.018634856 -0.0043852404 -0.0019714718 0.00054238347 0.027345823 -0.05449171
-0.022650877 -0.038019836 0.01701379 0.019334901 -0.012104268 -0.004521564 -0.003697572 -0.002629238
-0.01805904 -0.051266924 -0.0012016685 -0.010756221 -0.010161239 0.013218074 -0.008208893 0.03674099

depthwiseConv.1.running_var f4 [32]
00000000: 7427 b63f 8c48 ab3e 1610 443c 9e74 3a3e
00000010: add5 be3f 3d69 183f 32c5 583e d8ff 463f
00000020: c238 cb3d d152 bd3d 5744 5b40 6495 d43e
00000030: 2211 ce3d 0bf1 833d a8eb af3f dcde 963f
00000040: de5f 433f 0164 be3f 3fac 0c3f 70de 373f
00000050: b632 7f3e 4731 a03d 212c 2d3e 9776 0f3d
00000060: 34fb a23e 1fa0 5c3f ecb7 843d 599e 483e
00000070: 6d7f 8c3e 4098 033f 7a09 af3e d7be d73e
1.423079 0.33453786 0.011966726 0.18208548 1.4908959 0.5953558 0.21168974 0.77734137
0.09922935 0.092443116 3.4260461 0.41520226 0.100618616 0.0644246 1.3743792 1.1786761
0.76318157 1.4874269 0.54950327 0.7182379 0.24921688 0.07821899 0.16911365 0.035025205
0.31832278 0.86181825 0.06480393 0.19591655 0.27440968 0.5140419 0.34186918 0.42137787

separableConv.0.weight f4 [32, 32, 1, 15]
00000000: 3934 01bd 8a05 433c bd0e 9e3d cd39 35bd
00000010: 32ae babd 001e de3c 4c80 143e daa7 853d
00000020: 53bf b7bd 9462 c4bd 9838 21bd aa62 ccbd
00000030: 3d18 80bb a2e4 503e 692b f8bc 68f6 08be
00000040: 9560 18bd a712 f43d 8ef0 28bd 0ee2 803d
00000050: 7c42 183e 78f0 a0bd c349 d4bd 7722 403d
00000060: f216 d03c 08de 01be fc11 1b3d 5c2a d73c
00000070: 6661 58be abac 253e 8475 9cbd 5914 163d
00000080: 3a67 85bd 3552 49be 74fa 6a3d fb65 eb3d
00000090: a910 3c3d c7a1 b2bc a2ce f2bc f2a8 033d
000000a0: e8d5 6fbd 2f0f 1b3d c70c a63d 7c27 e3bd
000000b0: d4e2 b83c 4e2b 2abe a043 babc da19 64bd
000000c0: 6896 4dbe d7de fa3d 7632 823d 35ce 95bc
000000d0: a3d2 653d a92b cebd 022e a43b 8815 bcbc
000000e0: 140f 12bd d023 193c e544 c3bd 534a 4c3d
000000f0: 877d 1f3d 70cc c83b 28c1 02bd 7ebb eabc
00000100: 3432 a03d 08d0 cf3d d4bf 323d 6410 773b
00000110: 09e5 44bd 867c e23b 53f2 9bbd 70c2 b83b
00000120: 80b6 5ebd 17fa 0ebd d8ea d73c f9da 81bd
00000130: a7c2 3bbd 993c 063e 9091 833c 5466 c33c
00000140: f20c 14bc 8d92 3d3d f6eb d6bc 621a 0fbd
00000150: 08d5 59bd 858e 2bbd 1b72 b83c 4c8b a0bd
00000160: 7955 d8bb 40a4 0d3c bfb1 673b 29a5 31be
00000170: b69c 093d afa4 3e3d 330e ba3d ba03 3fbc
00000180: 4fe3 91bd a347 fc3d 49fd 83bd 7bfc 493d
00000190: d080 a63b c69d d7bd 2470 bc3d 085d 773d
000001a0: ea5b 16be 679b 2abe d931 243d bef0 d4bc
000001b0: fa14 b83c 3072 0d3e 7b69 10be 67e1 fabd
000001c0: d753 bf3d f8cb 40bc 4266 86bc 5340 bbbd
000001d0: a03c 8b3d 7d50 3a3d 1e31 36be 6433 0cbe
000001e0: bf94 f5bc bcc7 ddbb c298 113e 670f 3dbe
000001f0: 6a0a 12bd 342b 563d a8a2 013e bad6 bb3b
00000200: 5f76 76bc aad0 9fbd 8f5f 9dbd 5deb 84bd
00000210: 0c42 8ebd aefa 10bd f196 a73d a0cf 1fbe
00000220: dc84 343e 90ab 973c 2aef 91bd d31f c1bd
00000230: 265e e0bb c7c9 d83d b6d8 3e3d 2bfe 75bd
00000240: 9340 b33c c7f2 c63d 5817 bfbc e82f 23be
00000250: 62e1 da3d 2e67 0d3e f451 b3bd d01c ae3d
00000260: 1a3c 203e 7aed 8cbd 4b37 0c3e 5c1c 013e
00000270: ff3c eebd 5737 bd3d b988 823c 704d 30be
00000280: e6c7 463d d8e3 903c 7ce9 8a3d 08bf 9f3d
00000290: a85b bcbd d1a6 b9bd eb1b debd b251 633e
000002a0: 8f12 8b3e 690f 64bd a7dd 013d 651e 8e3d
000002b0: 7f8a 99bc c20d 0fbd 58ae dfbc bb7f 773c
000002c0: 7319 8d3c 09a8 a93c be21 c33d 31dc 3bbc
000002d0: e89b a73a cd40 0d3d 3042 293c 9420 9c3c
000002e0: 0f31 00bd 166b 5eba 9e9e 093d c18b 15bd
000002f0: 0742 03bd 108f 8c3d 7238 383d 725c f4bd
00000300: 69db 29bd 82c7 893d 2404 1e3e f56a ad3c
00000310: 732c 993c 5906 133c bfa2 e5bc 06ce 833d
00000320: 4d1e 2abd 85ff e9bb 7c8d c0bd 0da0 9ebc
00000330: 4022 9c3d e410 953b 290b 21be ae60 babd
00000340: 0147 bf3d 0979 d33d b46f 6eb9 9c98 45bd
00000350: cd03 f6bd 3099 a63c c4f4 233d d2ee abbd
00000360: 7c6c 6abc b714 1a3e 6584 9a3c e49a 9d3d
00000370: af5c 5ebd 9cf2 e9bd c9ab f239 697a d5bd
00000380: 52d8 763d df14 0dbe dd96 02be f19d d8bd
00000390: 9cee 2d3d fc31 483d c761 e93b 275e dcbd
000003a0: adb0 0f3e 174a 18be 33bc b0bd 683f 6e3e
000003b0: 90fc ce3d 3253 f1bd c69b 083e 2835 d43d
000003c0: 7f72 84bd 1a2f 173d c266 703e e81d 1e3d
000003d0: 677c 3abe b3e2 2b3e 0994 88bd 7ac4 82be
000003e0: 318f 0a3e 63d2 843d 8f29 cc3c 8c63 81bd
000003f0: 47fe 5f3e f8ff d23d 8167 45bd c2f2 a2bc
-0.031543944 0.011903176 0.07717655 -0.044244576 -0.09115256 0.027113914 0.14502066 0.06526156
-0.08972039 -0.09589115 -0.039360613 -0.09979756 -0.0039091394 0.20399716 -0.030294137 -0.13375247
-0.037201483 0.1191762 -0.041245036 0.062931165 0.14869112 -0.07858366 -0.103656314 0.04690787
0.025401566 -0.12682354 0.037858948 0.026265316 -0.21130905 0.16179149 -0.07639602 0.0366405
-0.065138295 -0.19660266 0.057367757 0.114940606 0.045914326 -0.021805657 -0.029639546 0.03214354
-0.058553606 0.037856277 0.08107906 -0.110915154 0.022569098 -0.16618082 -0.022737324 -0.055688716
-0.20076907 0.122495346 0.06357281 -0.018286804 0.056109082 -0.10066921 0.0050103674 -0.022959486
-0.03565891 0.009346917 -0.09534625 0.04987557 0.03893807 0.0061278865 -0.03192249 -0.028653856
0.078220755 0.10147101 0.043639973 0.0037698979 -0.048069987 0.006911817 -0.07614579 0.005638413
-0.054373264 -0.034906473 0.0263571 -0.06340594 -0.04583993 0.13109054 0.01606062 0.023852505
-0.0090362895 0.04628234 -0.026235562 -0.03493727 -0.053181678 -0.041883964 0.022515347 -0.07839069
-0.006601986 0.008645117 0.0035353748 -0.1734816 0.033596717 0.046543773 0.090847395 -0.011658603
-0.07123434 0.12318351 -0.06444795 0.04931305 0.0050812736 -0.1052814 0.092010766 0.060391456
-0.146835 -0.16660844 0.0400866 -0.025993701 0.02247094 0.1381309 -0.14102738 -0.12250023
0.09342163 -0.01176738 -0.016406182 -0.09143128 0.06798673 0.045486916 -0.17792174 -0.13691479
-0.029978154 -0.006768195 0.14218429 -0.18462907 -0.035654463 0.052287295 0.12659705 0.0057323845
-0.01504287 -0.078034714 -0.07684242 -0.064902045 -0.06946191 -0.035395317 0.08183087 -0.15606546
0.17628807 0.018514425 -0.07125695 -0.09429898 -0.006847161 0.10585361 0.04659339 -0.060056847
0.021881377 0.09714275 -0.02332656 -0.15936244 0.106875196 0.13808891 -0.08755866 0.08501589
0.15647927 -0.068812326 0.13692968 0.12608474 -0.11632728 0.09239071 0.015934335 -0.1721704
0.04853048 0.01768677 0.06782815 0.07800108 -0.091971695 -0.09065021 -0.10845169 0.22199133
0.27162597 -0.05567876 0.031705525 0.06939391 -0.018742798 -0.03492523 -0.027304813 0.015106137
0.01722405 0.020710008 0.0952792 -0.011466072 0.0012787553 0.034485627 0.010330722 0.019058503
-0.031296786 -0.0008484585 0.033598535 -0.036510233 -0.03204539 0.068632245 0.044975705 -0.11931695
-0.04146901 0.06727506 0.15431267 0.021169165 0.018697953 0.008973681 -0.028031705 0.0643578
-0.041532803 -0.007141056 -0.09401986 -0.019363428 0.0762372 0.0045491327 -0.15726914 -0.091004714
0.09339715 0.1032582 -0.00022739061 -0.048241243 -0.12012444 0.020336717 0.04002835 -0.08395161
-0.014308091 0.15046965 0.018861959 0.07695559 -0.05428761 -0.11423227 0.00046285827 -0.104237385
0.060264893 -0.13777493 -0.12752862 -0.10577 0.042463884 0.048875794 0.0071222517 -0.10760146
0.1403224 -0.14872013 -0.08629646 0.23266375 0.10106766 -0.11783446 0.13340673 0.10361701
-0.06467151 0.036910154 0.23476699 0.03860274 -0.18211518 0.16785698 -0.066688605 -0.25540525
0.13531186 0.064854406 0.02492216 -0.06317815 0.21874343 0.103027284 -0.048194412 -0.019891147

separableConv.1.weight f4 [32]
00000000: b58e bd3f 7328 a03f d8ad d03f 0099 b03f
00000010: 5965 c03f df5b dc3f 3f0f d53f a2f7 9e3f
00000020: ac52 db3f 6946 cc3f c37b bf3f cbe5 b43f
00000030: 01c0 bd3f 33c1 df3f 9950 9b3f 0762 d73f
00000040: bfb4 c13f f2ae df3f b22a c73f 4dfa ca3f
00000050: 1201 d33f acaf bd3f 654d b73f 9472 c43f
00000060: 4ec6 b43f 9c71 ca3f c2e6 b13f 6e65 9a3f
00000070: a09c c33f 1121 cb3f 3d2f d53f 355b a63f
1.4809176 1.2512344 1.6303053 1.3796692 1.5030929 1.7215537 1.6645278 1.2419322
1.7134604 1.5958987 1.4959644 1.4132627 1.482422 1.7480835 1.2133971 1.682679
1.5133284 1.7475264 1.5559905 1.5857636 1.6484702 1.4819236 1.4320494 1.5347466
1.4123018 1.5815921 1.3898547 1.2062204 1.5282173 1.5869466 1.6655041 1.2996584

separableConv.1.bias f4 [32]
00000000: 08c6 94be afdd 23be a37a a9be 754e 02be
00000010: f947 9ebe 4b2a febe e815 bdbe 8e4a 09be
00000020: efdf d6be 3f7b a6be 7b9a 85be 969e 1cbe
00000030: 954c 9abe 5a0b d4be d258 19be 03ee dbbe
00000040: 65ef 83be 0d52 f3be 7a5d d5be 0289 cbbe
00000050: f00e c7be fd38 65be 8961 7abe 40c5 eebe
00000060: 24f7 6fbe 3404 ccbe f3f9 55be 7c66 d1bd
00000070: 1c32 bbbe 8f07 d3be 0c66 c3be 1aee 1ebe
-0.29057336 -0.16002534 -0.33101377 -0.12725241 -0.30914286 -0.49641642 -0.36930776 -0.13407347
-0.41967723 -0.32515904 -0.26094422 -0.1529487 -0.30136552 -0.4141491 -0.14975289 -0.42955026
-0.2576858 -0.47523537 -0.4167288 -0.39752966 -0.38878584 -0.2238502 -0.24451269 -0.46634865
-0.2343412 -0.39846957 -0.2089613 -0.102246255 -0.36561668 -0.41216704 -0.38163793 -0.15520516

separableConv.1.running_mean f4 [32]
00000000: 54bf 7c3e cbf8 2fbe 0d1c 5a3e a9e9 103e
00000010: b1bb da3c 2ee9 bd3c 3b33 29bd 4b5c b8bc
00000020: fcde 8bbd 2769 663e 5a27 8dbe b0d6 fb3d
00000030: 3fc1 8cbd 44fe 133e 8223 39be c469 e43d
00000040: db82 d7bd f073 ef3d 1a82 fa3d 3730 0c3d
00000050: da2e 183e 0316 a3be 3e3d bfbd a9df cc3d
00000060: a77a 37be 9fe7 7f3e 307e 66bd ce3d 9c3d
00000070: 3190 543d 0aa3 cbbe 65f5 5fbb 8c91 32be
0.24682361 -0.1718475 0.21299763 0.14151634 0.026700826 0.023182478 -0.041308623 -0.022504946
-0.0682964 0.2250105 -0.27569085 0.12296808 -0.06872796 0.14452463 -0.18079951 0.11152986
-0.105230056 0.11692035 0.12231846 0.03422567 0.14861622 -0.3185273 -0.09337853 0.10003597
-0.17917882 0.249907 -0.056272686 0.07628976 0.051895324 -0.39772826 -0.0034173366 -0.17438334

separableConv.1.running_var f4 [32]
00000000: 3901 f740 954b ed40 a474 9840 3ad5 1a41
00000010: 0390 9840 3751 b140 52ac e240 80e4 ad40
00000020: 1c33 af40 2436 a840 6b17 ba40 e1ed 9740
00000030: 2081 e140 fb3e 9e40 ddbb c240 30cb c540
00000040: 18c5 bc40 f821 ae40 d170 aa40 a9c9 b540
00000050: e212 ba40 e5c7 be40 70f8 ba40 6bf3 c840
00000060: 532a f940 7fcf db40 54e7 f440 3495 f340
00000070: ecd8 b340 2b2d c240 1ee4 9f40 84b0 b440
7.7188993 7.4154763 4.7642384 9.677057 4.7675796 5.541164 7.083535 5.434143
5.474989 5.256609 5.8153586 4.747788 7.0470123 4.945188 6.0854325 6.181053
5.8990593 5.4416466 5.3262715 5.6808667 5.814805 5.961901 5.842827 6.279714
7.7864165 6.869079 7.6532383 7.6119633 5.6202297 6.0680137 4.9965963 5.6465473

classify.0.weight f4 [2, 736]
00000000: 92f5 d1be 585c 74bc 0fb1 723d 807d 69bd
00000010: 9fc2 f63d a6df 983e 8ea8 2fbe f9fe 013b
00000020: 4a80 c03e 8162 31be 3838 cf3d 3d95 58bd
00000030: ceb3 a93c c45c 153e 6164 84bd 8b2c b3bc
00000040: 9092 8abe 8bdd 71be 7a43 c53d e20f a23e
00000050: cb03 a93e 041e 213e e543 f73d 735a 4bbd
00000060: c57c 7c3d 278c 6f3d b6f3 f8bd d3b4 f0bd
00000070: 5cf5 5abe 7f90 b7bd 229b 96bd 6f45 52bc
00000080: a3f9 ebbc 1684 9fbc 03c4 0cbd f907 1bbe
00000090: e11d 0b3e ae58 4f3c 95f8 8a3c 3189 53bd
000000a0: 5590 4bbe b810 2cbe e02c bbbd edc5 69bd
000000b0: dc76 5dbe 5e91 f5bd 074a c53e ee84 543e
000000c0: c144 903b c5d3 013e 64db 16bd 9b76 9cbd
000000d0: d3d8 88bd 8666 ec3c 225d fb3a 1a1d 12bd
000000e0: c31e 61bd 9c16 a0bd 0d2a 34be 93e1 363e
000000f0: 656b 26bd a6a4 95be 0e45 223e 5fdd 763b
00000100: 175d 99bd 8b97 42bd 9b71 033d c9ce 0dbe
00000110: 3736 d93c 31cf 673e 0c31 fc3d c13d d03d
00000120: 13cc 7c3d ad9e da3d 2545 fe3d 2c0a b43d
00000130: c90a 113d b4f9 1b3d be26 f7bc 11c1 12bc
00000140: 7c98 debc 0431 23bd 729b 27bd dbbc d43c
00000150: 1847 e13d ca4d 883d 7aac e43d 66d0 db3d
00000160: 1f38 863d ea9e c83c 47fe 56bc a60f df3c
00000170: 2585 c13e c592 b33d 76c2 163e 0d4b 423e
00000180: 1d44 c83c 8840 a23d ab4e 3c3c 2583 cfbc
00000190: fc45 653d dd47 a13b 5a6e 89bc d104 ccbd
000001a0: b8da 1abe 132a 143d 52f2 f03d 29d6 a2bd
000001b0: 43d8 54bc 4905 ff3c fea0 98bd d6c8 29bc
000001c0: 658e 0f3c 0569 b6bc 18ad 75be 0afc c43e
000001d0: 958e 5a3e f709 23ba cb55 62be 982b 8b3e
000001e0: de8d febd fb6b ea3d 6425 bcbd 1057 a1bd
000001f0: 7a1f 223e e776 18be fdf0 42bd 55e5 56bb
00000200: b9e7 9ebc c8e8 fb3d 4282 9fbe 0d8c 47be
00000210: 7e18 083d 80de e9be 4638 92bd 0ccf 3dbc
00000220: 4ec8 3a3e 6323 fdbd ef1e cd3d 43ca 8b3e
00000230: dd59 87be b226 183e c775 223e 7eb5 96be
00000240: ddc0 183e d0a9 83be 35cc a13e af7c 91be
00000250: b30b 373e f4c5 5a3d d84e b63e 3e3c fa3c
00000260: 71ef 903e 858b a8bc acb6 cbbe 02b0 603e
00000270: ce0d 31be 3b20 a3bd a369 5d3e 8b8f f1bc
00000280: 2498 49bc 648e 8ebd b0bf 95bb 719e 97be
00000290: 2c33 84bd 73d1 89be 4792 6bbd e292 963d
000002a0: e9bf 18be 0b8a ddbd fd82 5b3d 1398 38be
000002b0: 3cca d13c 577e f2be b15e 1abe 3c84 4d3c
000002c0: 2b8c dd3c e137 b3bd 13a5 f3bd da4f 2abe
000002d0: c834 9b3c 53bf 5d3d d53e d6bd 47ff be3d
000002e0: d789 663e fb4a dbbd 9d6d 463e 083a 3ebf
000002f0: d13e cf3e c3d6 56bd 7539 b33e 847d 24bf
00000300: 73d9 4d3e f91e 06be f140 073d 0c40 76be
00000310: 85a4 22bd 785c 07bb 09a0 8abe 4df8 a8bd
00000320: 1ee6 2abc 92d3 bfbd 5a73 babd b39f dcbd
00000330: 8192 1b3e 122f 743e c355 9abe 9c86 863e
00000340: f29c 803e edc1 15bc f4b2 363e 3a83 cabd
00000350: 3e93 42bb 3ed4 143e 8ffb 96bb 218c dd3d
00000360: 01c1 ee3a e09d 13bd 31c5 253e 1f4f 193e
00000370: 72a9 d53d 473e 68be 8ae1 49be 65d9 56bd
00000380: 1530 85bd 18d6 9fbd d54c cf3b 30f4 a13c
00000390: 64ce 47bc 6241 e0bd 6525 8ebd edef a03c
000003a0: d2e5 4bbe 3398 e13c 93c3 74be 4ebc af3e
000003b0: 6e0e f3be 6b79 f3bd 554a fbbc a664 c7be
000003c0: 07d6 c6be b1f6 573e 6d88 2bbe 8d00 0d3e
000003d0: 432a 6dbc 4623 1e3c c6c7 213e e21c 063e
000003e0: 4aed 08bd 9a44 23be 8ad9 7b3d 154b 91be
000003f0: c36d 7e3e d8b2 553e 88dd 903e 954d a03d
-0.41007668 -0.014914595 0.059250887 -0.05700445 0.1204884 0.2985813 -0.17154142 0.0019835813
0.37597877 -0.17322733 0.10118145 -0.0528767 0.02071562 0.14586169 -0.06464458 -0.021871826
-0.27064943 -0.23619668 0.09632011 0.31652743 0.33010706 0.15734106 0.12073497 -0.049646806
0.061642427 0.05848327 -0.12155859 -0.117532395 -0.2138266 -0.08963107 -0.07353808 -0.012833937
-0.02880556 -0.019472163 -0.03436662 -0.1513976 0.13585617 0.01265542 0.016964236 -0.051644508
-0.19879277 -0.16803253 -0.091394186 -0.057073522 -0.21627373 -0.11990617 0.3853304 0.20753834
0.0044027274 0.1267844 -0.03683032 -0.0763981 -0.06681981 0.02885748 0.0019177536 -0.035672285
-0.054960977 -0.078168124 -0.17594166 0.17859487 -0.040629763 -0.2922718 0.15846655 0.0037668569
-0.074884586 -0.047507804 0.032090764 -0.13848414 0.02651511 0.22637631 0.123140424 0.101680286
0.061718058 0.10674796 0.12415532 0.08791003 0.035410676 0.038079932 -0.03016984 -0.008957163
-0.02717232 -0.039841667 -0.04091973 0.02596896 0.10999888 0.06655462 0.1116571 0.10733108
0.06553673 0.024489839 -0.013122148 0.027229141 0.37796894 0.087682284 0.14722618 0.18973942
0.024446541 0.079224646 0.011493365 -0.02533109 0.055974945 0.004921897 -0.016776253 -0.09961856
-0.15122497 0.036172938 0.11764969 -0.07951004 -0.012991014 0.03113045 -0.07452582 -0.010362824
0.008761977 -0.022266874 -0.23991811 0.3847354 0.21343453 -0.00062194414 -0.2210304 0.27181697
-0.12429403 0.11446377 -0.09186819 -0.07877934 0.1583232 -0.14889108 -0.047593106 -0.00327905
-0.019397603 0.12300259 -0.31154066 -0.19487019 0.033226483 -0.45677567 -0.071396396 -0.011585008
0.18240473 -0.12360265 0.10015666 0.2730275 -0.26435748 0.14858511 0.15865241 -0.29435343
0.14917322 -0.25715494 0.3160111 -0.2841544 0.17875557 0.05341144 0.35607028 0.030546304
0.2830768 -0.02057434 -0.39787805 0.21942142 -0.17290422 -0.07965132 0.21622328 -0.029487392
-0.01230434 -0.069607526 -0.00456997 -0.2961307 -0.06455073 -0.2691761 -0.057512548 0.073522344
-0.14916958 -0.10817345 0.053591717 -0.18026762 0.025609128 -0.47362015 -0.15075184 0.012543734
0.027044376 -0.087508924 -0.1189672 -0.16632023 0.018946066 0.05413754 -0.10461203 0.09326034
0.22513519 -0.10707661 0.19377752 -0.743073 0.40477613 -0.052450906 0.35004774 -0.6425402
0.20102482 -0.13097753 0.033020917 -0.2404787 -0.03970768 -0.002065448 -0.27075222 -0.082504846
-0.010430841 -0.09366526 -0.09104033 -0.10772648 0.15192606 0.23846081 -0.30143556 0.26274574
0.2511974 -0.009140474 0.17841703 -0.09888311 -0.0029689814 0.14534089 -0.004607625 0.10817743
0.0018215479 -0.036039233 0.16188504 0.14971589 0.1043271 -0.22680007 -0.19714943 -0.052453417
-0.065033115 -0.07804507 0.0063262978 0.019769758 -0.012195203 -0.10949971 -0.06940726 0.019645656
-0.19911888 0.027538395 -0.2390273 0.34323353 -0.47471946 -0.11888393 -0.030675093 -0.38943976
-0.38835165 0.21090199 -0.16751261 0.13769741 -0.014475408 0.0096519645 0.15798864 0.13096955
-0.03342942 -0.15944138 0.06148676 -0.28377596 0.24846558 0.20869005 0.28294015 0.078272976

classify.0.bias f4 [2]
00000000: fab1 043d 0c20 d5bc
0.032396294 -0.026016258
