Lab2/best results/EEGNet_ReLU.pt (torch, 78913 bytes, 17 tensors)

firstConv.0.weight f4 [16, 1, 1, 51]
000000 a7 81 cf bd 93 a7 20 be ec cc 02 3c 65 48 d4 bd
       -0.10132151 -0.15688924 0.0079834275 -0.10365371
000010 76 3d 80 bd 65 fb 97 bb df 70 dd 3d fe 18 a7 bd
       -0.06261723 -0.004638123 0.10812544 -0.08159064
000020 34 00 b3 bc 4a 0e 74 3c 87 c5 60 bc d0 d7 ec 3d
       -0.021850683 0.014895985 -0.013718969 0.115646005
000030 91 2a ec bc 0c b1 ca bc e5 b6 26 3d 1a a7 fc 3c
       -0.028828891 -0.024742626 0.040701766 0.030841399
000040 eb b1 51 bd 9f f4 ad bd 85 8e 23 bd 4a e2 38 bd
       -0.051195066 -0.084939234 -0.03993084 -0.04513768
000050 82 37 93 3d a7 b1 65 3d 8f e8 94 3d a4 91 15 bc
       0.07188322 0.056077626 0.072709195 -0.009128962
000060 5f d6 9a bd c9 7f e0 bd dc 23 36 3e 41 5c df 3d
       -0.07560419 -0.10961873 0.17787117 0.10906268
000070 0c e6 cc 3d 1e c3 68 bd 31 69 39 be 67 15 ed bd
       0.100048155 -0.056826703 -0.18106534 -0.11576348
000080 c2 2b d2 3d 9f b1 15 3e 49 4c 97 3d 71 ff 42 3d
       0.102622524 0.14618538 0.07387597 0.04760689
000090 c4 42 19 be 23 0f 08 be 79 ef 00 3d 8c 34 2e 3e
       -0.14966875 -0.13287024 0.03147838 0.17012233
0000a0 4d ec 04 3e 2c f9 6f 3b fe ba ac bd 17 cd 0d be
       0.12980767 0.0036617024 -0.084341034 -0.13847767
0000b0 ed a4 18 be a3 45 bc bd 6f 2e 23 3e 83 e4 ae bc
       -0.14906664 -0.0919297 0.15935682 -0.021349197
0000c0 93 fd 44 3d 24 78 ef bd 68 c0 7c bd 83 00 35 bd
       0.04809339 -0.11692837 -0.06170693 -0.04418994
0000d0 a3 ed 10 3c 52 a8 82 bd b7 c4 e2 3d 7d cc e4 3d
       0.0088457195 -0.06379761 0.11072677 0.111718155
0000e0 38 e7 cd bd 39 ab fb bd db b6 22 3d a3 df fa 3d
       -0.10053867 -0.122885175 0.039725166 0.122496866
0000f0 31 7b fd 3c 6e 27 d5 bd 65 3f ae bd eb a1 55 bd
       0.030942531 -0.10407911 -0.08508185 -0.05215637
000100 00 e9 89 3e 9a 6f 11 bd 3f bb 17 be 5c 0f 06 be
       0.26935577 -0.035506822 -0.14817522 -0.13091797
000110 7d 03 35 3e f1 33 f1 3d 0e db 1c bc 1c 00 36 be
       0.17677112 0.11777485 -0.009573711 -0.17773479
000120 69 7b b8 bd 0a 08 28 3e 33 38 fd 3d 47 0b 47 bd
       -0.090079136 0.16409317 0.12364235 -0.04859474
000130 bd 6f 3d be d6 97 c2 bc 06 9b 32 3e e0 67 83 bd
       -0.18499656 -0.023754042 0.17441949 -0.06416297
000140 63 4a 73 3d 16 91 16 be c7 8e 61 bb 2e 33 d8 3d
       0.059397113 -0.14703783 -0.0034417377 0.10556637
000150 cf dc c8 bb 16 ed 2d 3c 91 e5 6f bd 5a 43 86 3d
       -0.006129838 0.010615608 -0.05856854 0.06555815
000160 db c4 ab bd 2d d5 a5 3d 1a 00 db bd f1 1f a6 3d
       -0.083871566 0.08097301 -0.10693379 0.08111561
000170 5b a4 0d bd 8e 2e d6 3c c0 9c ad bd 70 80 62 3d
       -0.03458057 0.026145246 -0.08477163 0.05529827
000180 c9 59 a8 3d b0 b2 83 bd 2d 29 04 3d b0 f1 bd bd
       0.0822025 -0.06430566 0.03226583 -0.09274614
000190 1a b1 73 3d 63 e6 92 3c 3b f8 e3 3d de 90 9e bd
       0.05949507 0.017932123 0.111313306 -0.07742475
0001a0 d2 18 19 3e e2 65 1a bd 43 07 32 3d c5 53 d8 3d
       0.14950874 -0.03769482 0.043463957 0.10562853
0001b0 33 1d f9 bd 36 2a 3a be d9 1a bb 3c a1 76 fd bd
       -0.121637724 -0.18180165 0.02283995 -0.12376142
0001c0 9f eb 07 be c5 ec 54 bd 1b 0f 6c 3a 4c 1a e6 3d
       -0.13273476 -0.051983614 0.00090049364 0.112354845
0001d0 b6 ab c2 3d cf 85 21 3e ca d9 2d 3e b8 a0 2b 3e
       0.095054075 0.157737 0.16977611 0.16760528
0001e0 79 64 76 bd f4 51 05 bd 79 46 6a 3d f4 2c c1 bd
       -0.060154412 -0.03254886 0.057196114 -0.09432402
0001f0 c7 0a f7 bd 6e 68 43 3d 6d f0 92 3d 48 f6 e4 bd
       -0.120626025 0.047707014 0.07174764 -0.11179787
000200 22 7e 3e be 89 d7 af bd c2 1b c0 bd eb cd 05 bd
       -0.18602803 -0.08586032 -0.093802944 -0.03266708
000210 04 04 72 3d 81 87 52 bd e6 98 4d 3e 8a bc 38 3e
       0.05908586 -0.051398758 0.20077857 0.18040672
000220 f9 7a fb 3c 22 e5 df bc 94 5b 59 bd 39 8f fc bd
       0.030698286 -0.027330939 -0.05306585 -0.12332005
000230 a1 e3 43 be 61 27 ab 3b b0 c4 fa bd 97 45 cf 3d
       -0.19129802 0.0052232 -0.122445464 0.10120695
000240 32 84 25 3e eb e2 95 3d 0a 5d cb 3d c1 a9 07 3e
       0.1616371 0.07318672 0.09929855 0.1324835
000250 b3 19 b2 bc 03 13 31 bd 90 ac 64 3d 6e 02 85 bd
       -0.02174077 -0.04323102 0.05582863 -0.06494604
000260 13 33 9b 3d 76 3e dc bc bb 92 e0 bc 78 04 be 3d
       0.07578101 -0.026885252 -0.027413717 0.09278196
000270 92 cb 43 bc 6d 5e a5 bd e6 89 17 3d 45 6a 0e be
       -0.01195039 -0.08074651 0.036996745 -0.13907726
000280 a6 3f 13 be 63 53 62 3c 5d d6 fb bd 4d 6c 6f 3d
       -0.14379749 0.013813826 -0.12296746 0.058452893
000290 9c ca 0d 3e 35 c0 02 3c 46 5d 4f 3d bb 48 5b bd
       0.1384682 0.007980396 0.05062606 -0.053536158
0002a0 0e dd 0e 3d 7b 54 50 3d e4 ab 62 3e a7 7c 84 3d
       0.034878783 0.050861817 0.22135884 0.06469088
0002b0 f4 43 11 3e 81 ff 53 3e 26 65 a2 3d 6d 9a 07 bd
       0.14186078 0.20702936 0.07929449 -0.033106256
0002c0 6a 27 cb bd d9 00 8f bc f5 d2 b8 bc c2 a0 64 3d
       -0.09919627 -0.017456459 -0.02256153 0.055817373
0002d0 28 30 01 be 28 ca 09 bd 9e 5a 3c be c0 a0 62 be
       -0.12616026 -0.033640057 -0.18393943 -0.22131634
0002e0 b9 dc 2f be 6d 67 e5 bd 6c cd 2f be 39 c5 7f 3d
       -0.17174043 -0.112013675 -0.17168206 0.062443946
0002f0 51 2e 49 bd f9 2d f6 bd 0a db e3 3d a0 5f 05 bc
       -0.049116436 -0.12020487 0.11125763 -0.008140475
000300 5e 00 9d bd 28 d0 8e 3d 9c 10 1b 3e cb ef e1 3d
       -0.07666086 0.069732964 0.15143055 0.11032065
000310 f2 f7 cd 3d 0d 3f 3a 39 42 5e 86 3d dd 98 16 bd
       0.100570574 0.0001776183 0.06560947 -0.036766876
000320 0e 53 9f 3d af d5 42 3d 46 fa 48 bd cc f0 67 3d
       0.07779513 0.047567066 -0.049066804 0.056626126
000330 49 a9 8b 3d 70 bd 65 3e 54 be e1 3d d0 19 d0 3d
       0.06819398 0.22435546 0.1102263 0.10161173
000340 3f 4e 26 bd 3b 8c a7 3d 98 0c 64 3d f1 5d 90 3b
       -0.040601965 0.08181044 0.055676073 0.00440573
000350 17 47 a2 bd a8 b3 4c be 2d 4f b4 bd 6f ad fd bd
       -0.079237156 -0.19990408 -0.08804164 -0.123865955
000360 c4 e9 23 be 9d 28 87 3d a3 95 90 3d 0e 0c 60 bc
       -0.16007143 0.06599543 0.07059791 -0.013674749
000370 97 6d dd 3d 0e d7 1e 3e d1 94 35 3e 24 94 3a 3d
       0.10811918 0.15511724 0.1773255 0.045551434
000380 13 65 61 3e 29 ac 3f 3e 57 80 20 3e b8 52 95 3d
       0.22011213 0.18718018 0.15673958 0.07291168
000390 fe f5 d8 bc 39 85 a7 3d bf 1f 8b 3c ba 6e d9 bd
       -0.026484486 0.08179707 0.016982911 -0.106168225
0003a0 0d 41 ce bc 68 e1 24 bd 5b f7 07 be 7e 26 84 3d
       -0.025177503 -0.040254027 -0.13277952 0.06452654
0003b0 6d 0a 0a bc d9 a1 91 bd 4a 59 ef 3c 06 fb 88 3d
       -0.008425337 -0.07110948 0.029217381 0.06688504
0003c0 1c 4e 10 3e 15 5a 7b 3d 30 65 c2 3d 47 90 cb 3d
       0.14092296 0.061365206 0.09491956 0.09939628
0003d0 71 f1 48 3d 98 aa 5b 3d ae c1 e3 3b fb db 11 bd
       0.04905838 0.053629488 0.0069505787 -0.03561018
0003e0 37 d4 91 3d 06 da df 3c 69 da f4 3c 6a 60 0a 3c
       0.07120555 0.027325641 0.029889302 0.0084458385
0003f0 74 38 78 3d cc 98 1d 3e 53 5c 71 3d 37 aa d0 bd
       0.060600713 0.15390319 0.058925938 -0.10188716

firstConv.1.weight f4 [16]
000000 0e 01 6a 3f 10 f4 8d 3f 78 13 83 3f af ac 79 3f
       0.9140786 1.1090107 1.0240316 0.9752912
000010 a2 47 66 3f f6 b9 67 3f 48 51 70 3f 9b 6a 44 3f
       0.89953053 0.9051813 0.93874025 0.7672517
000020 89 6d 8c 3f 55 e3 81 3f 88 37 82 3f 98 47 7e 3f
       1.0970927 1.0147501 1.0173197 0.99327993
000030 8f ba 63 3f 78 be 7f 3f 42 90 87 3f e7 e2 88 3f
       0.8895654 0.9990001 1.0590899 1.0694245

firstConv.1.bias f4 [16]
000000 a7 b9 d7 bc c8 18 88 bb 74 77 04 bc ab 63 04 3d
       -0.026333643 -0.004153345 -0.0080851205 0.032321613
000010 d4 9b 7d 3c ce 9a 6d 3c 45 bd 41 bd 87 82 0d bd
       0.015479047 0.01450224 -0.047299642 -0.03454831
000020 91 66 da 3b 95 ab a8 bc 5a ca 2f bb 02 5a af bc
       0.006665059 -0.02058963 -0.0026823492 -0.021405224
000030 59 b1 d7 3c 07 e9 bc bc ac 0a 6d bd 05 8a 74 3d
       0.026329683 -0.023060335 -0.057871506 0.05970194

firstConv.1.running_mean f4 [16]
000000 8e a7 e5 3c 56 a5 97 3a ad a9 45 bc cb 2e 3f bc
       0.028033998 0.001156966 -0.01206438 -0.011668871
000010 de 96 a1 bd 7d 76 e3 3c c7 d0 b1 3d 9d 57 99 bd
       -0.07890104 0.02776646 0.08682399 -0.07487414
000020 28 a6 14 3a 9a 52 de 3a ef b2 bc 3b 77 72 3a 3d
       0.0005670511 0.0016961873 0.0057586352 0.04551932
000030 29 e8 0f 3e 1d 5b 32 3c 50 b1 81 bb 8a 85 38 39
       0.14053406 0.010885981 -0.003957905 0.00017597355

firstConv.1.running_var f4 [16]
000000 c5 73 52 41 00 9f 2b 40 ff b4 0d 42 6c d4 9b 41
       13.153264 2.6815796 35.426754 19.478722
000010 2d cf 9d 42 bf bb a7 42 72 29 a2 42 d4 18 f5 42
       78.90464 83.86669 81.08095 122.54849
000020 6a 89 e2 40 89 4b 61 40 3a 8b 42 42 12 f0 22 42
       7.079274 3.5202353 48.635963 40.734444
000030 11 bb 5b 43 cc 04 e8 41 68 f6 a2 41 c8 fd a9 40
       219.73073 29.002342 20.370316 5.312229

depthwiseConv.0.weight f4 [32, 1, 2, 1]
000000 0d 8c b8 bd 72 53 0a 3f d3 fd 1f be 0e 5a 18 3f
       -0.090110876 0.5403358 -0.1562417 0.5951241
000010 3c bb 69 3d d2 5a 91 bf 9b 7b 78 be 44 53 47 3f
       0.057063326 -1.1355841 -0.24265902 0.7786143
000020 44 7d 1e 3f 72 7e 19 bf cc 07 15 3f 8c ba c3 be
       0.6190989 -0.59958565 0.5821502 -0.3822826
000030 f5 10 3d be 62 d6 31 bf b0 7a 73 be 49 f4 2f 3e
       -0.184635 -0.6946775 -0.2377727 0.17183031
000040 d9 82 03 be a2 4b bf 3e af 09 10 3f 24 dc 35 bf
       -0.12842883 0.3736239 0.56264776 -0.7103903
000050 8b 14 0f be 3b c2 18 3f 4c b5 12 bf 28 bc 3c 3f
       -0.1397268 0.5967137 -0.5730789 0.73724604
000060 26 c5 27 3e 26 f7 3e 3f 72 7f 15 bf 14 e4 9b be
       0.163838 0.7459587 -0.5839759 -0.30447447
000070 80 99 02 bf 82 05 1a 3f 70 27 e8 3e be f6 a3 bd
       -0.5101547 0.60164654 0.45342588 -0.08006047
000080 14 2d 22 be dc 80 d9 3e e1 76 c5 3d 15 51 96 be
       -0.15837508 0.42481124 0.09641815 -0.29358736
000090 22 c8 35 3f 7a f0 09 3e 2d 50 9b 3e 2b 0a fe bd
       0.71008503 0.13470641 0.30334607 -0.12404283
0000a0 42 37 0c bf 2b dc 1f 3f 5e 30 6b 3e a9 fb 92 3e
       -0.54771817 0.62445325 0.2296767 0.28707626
0000b0 2f d8 14 3f 15 b0 0d bf df 21 0f bf 24 72 a5 3e
       0.5814237 -0.55346805 -0.5591106 0.32313645
0000c0 9c b8 52 be c3 47 08 3f b2 6c f4 3e 6e 64 9e bd
       -0.20578235 0.532345 0.47739178 -0.07733999
0000d0 41 5c 08 3f ef 04 54 be 23 5e 22 bf 38 6d d5 bd
       0.5326577 -0.20705007 -0.6342489 -0.104212224
0000e0 b1 df 78 3e 3a 22 01 be 36 81 86 3b 96 e7 62 bf
       0.24304081 -0.12610713 0.0041047586 -0.8863462
0000f0 da 56 59 bf 02 67 3f 3e 48 94 91 bd ce 02 8e 3e
       -0.8489815 0.18691638 -0.071083605 0.27736515

depthwiseConv.1.weight f4 [32]
000000 17 0d 63 3f 00 84 68 3f e6 de 8c 3f 87 0e 8d 3f
       0.8869185 0.90826416 1.1005523 1.1020058
000010 e6 b8 83 3f 27 03 82 3f d2 b9 81 3f ab 19 7b 3f
       1.0290802 1.0157212 1.0134833 0.9808604
000020 cd 3f 76 3f 0d f4 5a 3f eb f8 80 3f d0 f7 68 3f
       0.961911 0.8552864 1.0075964 0.9100313
000030 12 ff 64 3f 53 27 73 3f 07 f5 4f 3f be d8 5c 3f
       0.89451706 0.9498188 0.8123326 0.8626822
000040 e8 cc 87 3f fe 4a 88 3f f6 67 77 3f c6 54 84 3f
       1.0609407 1.0647886 0.96643007 1.0338371
000050 99 c0 85 3f ca b9 73 3f af 53 7f 3f 71 f6 81 3f
       1.0449401 0.95205367 0.99737066 1.0153333
000060 7a 44 76 3f bb f6 56 3f a7 06 82 3f a4 3e 73 3f
       0.96198237 0.8397023 1.015828 0.95017457
000070 0a bd 87 3f 52 36 84 3f fd 36 91 3f a8 e3 86 3f
       1.0604565 1.0329077 1.1344906 1.0538225

depthwiseConv.1.bias f4 [32]
000000 41 1e 94 be 1d fb 83 be 42 5f c8 be 4c 73 e3 be
       -0.28929332 -0.25777522 -0.39135176 -0.44423902
000010 97 2e c7 be 4b 9a c9 be 45 1b f2 be cc 42 8e be
       -0.38902733 -0.3937553 -0.4728643 -0.27785337
000020 47 08 41 be 08 a9 9b 3d be 17 6b be eb 3a 21 3d
       -0.18850814 0.076005995 -0.22958276 0.03936283
000030 eb 13 b3 3d 73 09 f4 be 30 bc 3d 3e 4b d8 a6 bc
       0.087440334 -0.4766346 0.18528819 -0.020366808
000040 ee 5f f2 be ae 39 f6 be 8b 13 ea be d8 41 e0 be
       -0.47338814 -0.4809088 -0.45718035 -0.43800235
000050 77 3e a8 be ec 87 89 be 82 1d c1 be ec e7 83 be
       -0.32860157 -0.26861513 -0.37717825 -0.2576288
000060 18 76 20 be 89 f2 4e be 51 d0 9e be 9a 4b 1c be
       -0.15670049 -0.20209707 -0.31018308 -0.15263215
000070 94 a0 fc be 92 cc f8 be 5d 8e 12 bf 4c 3a 0f bf
       -0.4934126 -0.48593575 -0.5724848 -0.5594833

depthwiseConv.1.running_mean f4 [32]
000000 73 9d 2a bc d0 65 22 bc 25 43 1c 3b 89 21 88 ba
       -0.010413515 -0.009911969 0.0023843732 -0.0010385971
000010 10 b6 a9 b8 2a a9 c7 ba 9b 52 ee bc 9c df 12 bb
       -8.09246e-05 -0.001523291 -0.029092124 -0.0022411114
000020 b5 30 36 3b 06 c2 2b 3a 14 42 08 3c 74 db 9a 3b
       0.0027800028 0.0006552044 0.0083165355 0.004725868
000030 7a bf 2a bd 5b 42 30 3d ce 3f b5 bb 61 2d 44 bc
       -0.041686513 0.04303203 -0.0055312878 -0.01197371
000040 85 82 bb 3a c4 b7 8e ba 1b 85 96 bc 7f e8 83 bb
       0.0014305866 -0.0010888507 -0.018374017 -0.0040255184
000050 0d 07 5d 39 8c d6 8c ba c5 cb a7 ba 15 61 b5 3b
       0.00021078829 -0.0010745092 -0.0012801817 0.0055352547
000060 27 24 1d 3c ee 7b 25 3c c9 2c f1 bb 2d 6f 8a 3c
       0.009591139 0.010100348 -0.007360075 0.016898716
000070 80 3c dc bb 23 77 4d 3d 91 a6 1d bd a3 7a 4c 3c
       -0.0067210793 0.050162446 -0.03848893 0.012480411

depthwiseConv.1.running_var f4 [32]
000000 19 6f 45 3e 58 11 5b 3e a5 5c c6 3f 1c ed 21 3f
       0.19280662 0.21393335 1.5497023 0.63252425
000010 c5 9a 5c 3e be d1 3c 3e 23 01 27 3f de be f8 3c
       0.21543415 0.18439385 0.6523611 0.03036445
000020 dd 55 a0 3d 58 1a 8b 3e 93 6a 63 3e 48 5c 7d 3e
       0.07828877 0.27168536 0.22208624 0.24742234
000030 e9 8a 26 3f f3 02 13 3f 77 b5 14 3e 27 87 c8 3d
       0.6505571 0.57426375 0.14522348 0.09791403
000040 d1 ea 34 3e 6d 3d b1 3d 36 b1 1b 3f 59 31 9f 3d
       0.176677 0.08654294 0.6081728 0.07773084
000050 2d 74 4e 3e d2 d9 72 3e a9 68 39 3e 15 f6 20 3e
       0.20161505 0.23715904 0.18106331 0.15718873
000060 a0 87 13 3e 0f 28 16 3e a3 b3 31 3e 9f 7a 01 3f
       0.14407206 0.14663719 0.17353682 0.5057773
000070 37 70 0f 3d 8a a4 6d 3f b3 d7 36 3f 1e d1 9d 3d
       0.035019126 0.9282919 0.7142288 0.077059016

separableConv.0.weight f4 [32, 32, 1, 15]
000000 f8 52 06 3d a2 75 ad 3c a5 a2 4d 3d 11 18 99 3d
       0.03279397 0.021174256 0.050203938 0.074752934
000010 4e ef b5 3d db 3b 58 3c 03 e0 7f 3c f0 b7 df bc
       0.08883534 0.013197864 0.015617373 -0.027309388
000020 4f f0 08 bc 98 65 67 3d 27 11 92 bc e5 fe aa bc
       -0.008358075 0.05649337 -0.017830444 -0.020873496
000030 8a 6e 47 bd 70 79 e3 3c 50 77 b4 3c b3 59 f8 3c
       -0.048689403 0.027767867 0.022029549 0.03031621
000040 a9 d0 25 3d 70 e8 38 3d 03 13 75 3d 46 b5 9c 3d
       0.040482197 0.045143545 0.059832584 0.07651763
000050 c3 9c 86 3c 6b 80 53 3c ed a7 9e bc c5 6a 04 bd
       0.016432172 0.012909035 -0.019367183 -0.032328386
000060 b2 45 e8 bc 14 37 fc ba 3b ea 4c bc 1e cf 3b bd
       -0.028353546 -0.0019242489 -0.012507017 -0.04585182
000070 4a 98 fd 3c aa 6e 3b bc 82 84 4f be d9 82 8c be
       0.030956406 -0.011439959 -0.20265391 -0.2744358
000080 1b 4f 67 be 4a 2c 22 be 68 30 1c be ec 79 8d bd
       -0.2258877 -0.15837207 -0.1525284 -0.069080204
000090 c5 ed fe bd 50 a1 d8 bd 91 90 d4 bd 8d c5 0b be
       -0.12447695 -0.10577643 -0.10379136 -0.13649578
0000a0 b4 da 37 be 58 df f6 bd 34 9e 50 bd 22 e1 c3 bd
       -0.17954522 -0.12054318 -0.050932124 -0.09564425
0000b0 c0 29 f0 bd 96 e0 cf bc f0 79 de bc 3c dd 7f bd
       -0.11726713 -0.025375646 -0.027157754 -0.062466845
0000c0 57 22 84 bd 7a dd a2 bd 34 2b 6a bc 42 8e e4 bc
       -0.06451862 -0.079523996 -0.014292527 -0.027899865
0000d0 b7 7c be bd 6a 39 db bd 8a 73 e1 bd a6 94 b7 bd
       -0.09301131 -0.1070431 -0.110083655 -0.08963899
0000e0 2b 1b 87 bd 9f ed d4 bd 64 cc 0a bd c4 20 a6 bb
       -0.06596979 -0.10396885 -0.03388633 -0.005069824
0000f0 df 1d 12 3d c3 8f 96 3c f2 e7 08 bd 20 f7 c5 bc
       0.03567302 0.018379098 -0.033424325 -0.02416569
000100 87 24 2a bd e5 db 24 bd d5 e7 6a 3b b6 6d 2c 3b
       -0.04153874 -0.04024877 0.003584375 0.002631051
000110 69 2e 7b bd 01 ad 04 bb f9 17 85 bd fb 64 c4 bc
       -0.061323557 -0.002024472 -0.06498713 -0.023973932
000120 d7 b4 66 bd b8 c6 ce bd ce ef d3 bd b4 e5 df 3c
       -0.056324806 -0.10096496 -0.103484735 0.02733121
000130 43 48 fe 3b 4c d3 12 bd b8 6f 2f bc 7b e5 a3 bd
       0.007760079 -0.03584604 -0.010707788 -0.08002754
000140 6e 80 79 bc 89 10 70 bd 29 7f df 3b f0 b0 e9 b9
       -0.015228374 -0.05860952 0.0068205786 -0.00044573052
000150 3c bd d2 3c 5d 97 96 3b 12 38 c9 3b b0 9c 3b 3c
       0.025725 0.0045956806 0.0061407173 0.011450931
000160 60 8f 6d bb 73 47 1b bd 29 be b8 3d 0d 3a a7 3d
       -0.0036248788 -0.037909936 0.09020645 0.08165369
000170 a6 87 8c bd 14 98 a7 bd 66 b4 9d bd 15 e5 c4 bd
       -0.068618104 -0.081833035 -0.07700424 -0.096140064
000180 e0 48 a4 bc f6 d1 c6 3d 3a 2a f7 3d 03 4b 9d 3d
       -0.02005428 0.097080156 0.12068601 0.07680323
000190 f0 8c 2d 3e 45 81 d0 3d 29 3d df 3d 24 7c 43 3d
       0.16948295 0.10180906 0.10900337 0.04772581
0001a0 cc 16 80 3d d8 c3 92 3d 27 c4 65 bd 56 76 f8 3b
       0.06254348 0.071662605 -0.05609527 0.007582466
0001b0 44 b3 ad bd 70 b3 67 bd 35 6a a9 3b e5 9d 41 bd
       -0.08481458 -0.05656761 0.0051701316 -0.04726972
0001c0 58 e5 78 3c 74 0a 1c bd 12 bb 80 3d 2c 61 03 bd
       0.015191399 -0.038095906 0.06285681 -0.032075092
0001d0 a7 82 49 bd f9 d9 0b be 9a 7d 38 be 4b 75 81 be
       -0.049196865 -0.13657369 -0.18016663 -0.252848
0001e0 78 55 1f 3d aa c1 39 3c df e4 42 bc 15 64 bc 3c
       0.03889987 0.011337677 -0.011895387 0.022996942
0001f0 3a 97 93 3d 2e c6 7c 3d 8f a1 d1 3c ad 87 8a 3d
       0.072065786 0.061712436 0.025589732 0.06764159
000200 ba 20 07 3d ba eb 98 3d 15 c8 db 3d 5d 59 19 3e
       0.032990195 0.07466836 0.10731522 0.14975496
000210 01 67 30 3e e7 61 1e 3e 63 90 20 3e 42 2a 24 3c
       0.17226793 0.15467034 0.15680079 0.010019841
000220 4f 17 c4 3c b5 5c 73 3d 0b 6d 4f 3d 38 c8 aa 3d
       0.023936896 0.059414584 0.0506411 0.0833897
000230 8f 20 cc 3c 05 25 b5 3d 39 aa 47 3d 88 59 c4 3c
       0.024917869 0.088449515 0.04874632 0.023968473
000240 3a 59 98 3d a3 36 30 3d 59 56 12 3d 4f 9e 4e 3d
       0.074388936 0.043020856 0.03572688 0.050443944
000250 aa 64 38 3d 6e 42 86 3c 9d 8f 10 bd e8 c1 6f 3c
       0.045017876 0.016389098 -0.03529321 0.014633633
000260 40 0d 16 3d 41 77 b8 3c fa 30 5b bc 23 d4 88 bd
       0.03663373 0.022517802 -0.013378376 -0.06681087
000270 61 95 cc bd 3f 00 c4 bc e4 58 45 bc 3a 05 05 bd
       -0.09989429 -0.023925899 -0.012045119 -0.032475688
000280 d5 bb 18 ba 13 20 48 bc 06 a2 f5 bb 83 20 78 3b
       -0.0005826329 -0.012214678 -0.0074961213 0.0037861175
000290 49 7c d3 3c 79 dc c4 3b 34 47 9e 3d cb f4 92 3d
       0.0258161 0.0060077277 0.07728425 0.07175597
0002a0 b3 11 0a 3d 57 34 1b 3c fd 38 55 3d 1d 91 8c bb
       0.033708286 0.009472928 0.0520563 -0.00428976
0002b0 a8 cc 8b 3d d0 ed d6 3a b9 8d 08 3d b9 42 e7 3c
       0.068261445 0.0016397778 0.033338282 0.028230058
0002c0 37 f3 bd 3d 5e 69 c2 3d c4 61 bd 3d 2b e6 92 3d
       0.09274905 0.094927534 0.09247163 0.07172807
0002d0 1c 86 a2 bc e3 da 63 3c bb ff 1e 3d cf c3 65 3d
       -0.019839339 0.013907167 0.038818102 0.05609494
0002e0 a3 40 33 bd 99 e6 9b bb 4a 0e da ba d8 9b b4 3c
       -0.043762814 -0.004757714 -0.0016636339 0.022046968
0002f0 90 95 ff 3c cd a6 81 bb 3a ac 6d bb bc 34 a0 3c
       0.031199247 -0.003956652 -0.0036265985 0.019556396
000300 6f 89 a0 3d ff a7 1e 3d 9e 61 f0 3c 7e 64 68 be
       0.078387134 0.038734432 0.029343423 -0.22694585
000310 92 ba 83 be 82 8d 5b be ce 0e 35 be d5 7f 16 be
       -0.2572828 -0.214407 -0.17681429 -0.14697202
000320 63 47 b3 bd 9b fe 20 be 17 73 cf bd 82 3e 83 bd
       -0.0875385 -0.15722124 -0.101293735 -0.06408407
000330 a4 17 05 3c b2 f3 41 3d fa c9 6e 3d 35 f4 cc 3d
       0.008123312 0.047351547 0.05829809 0.10007516
000340 1b 2b e8 3d c7 2d de 3d 5f a9 97 bd 8b 35 55 bd
       0.11336347 0.10848575 -0.07405352 -0.052053016
000350 d7 e8 9b bc 91 60 af 3d 3c 51 d1 3c 90 26 7f 3d
       -0.019031925 0.085633405 0.02555143 0.062292635
000360 f0 e6 ca 3d 73 75 34 3d 49 49 d1 3d ac ef fc 3c
       0.09907329 0.04405732 0.10219056 0.030876003
000370 5c 36 be bb b8 4d d1 bc 40 a0 c8 3b cc ca 02 bd
       -0.00580482 -0.025549755 0.006122619 -0.031931683
000380 88 da 6f bc 8f b4 0a be a7 f1 26 be e8 37 92 bd
       -0.014639504 -0.1354544 -0.1630312 -0.071395695
000390 43 52 9d bd 2e 8f 71 bd e3 39 df 3c 5e 11 1a bd
       -0.07681706 -0.058974437 0.027249282 -0.03761422
0003a0 c3 ea c0 bc 48 41 d0 bc 0a b9 40 bd 85 c6 a9 bc
       -0.023549443 -0.025421754 -0.047051467 -0.020724544
0003b0 3f 35 1b 3c e4 52 57 3d e8 51 9b 3d f7 44 96 3d
       0.009473144 0.052569285 0.07583982 0.07337373
0003c0 74 a7 a0 bc 9c f4 ac bd 6e 64 25 bd 14 46 b4 bd
       -0.019611098 -0.08445093 -0.04037898 -0.08802429
0003d0 f7 da b3 bd 95 bd 08 be 5b 5f a3 bd ee 82 03 be
       -0.087819986 -0.1335357 -0.07977172 -0.12842914
0003e0 cc 2c 45 be f2 bd 83 bd d8 37 89 bd 10 69 e7 bd
       -0.1925537 -0.064327136 -0.067001045 -0.11299336
0003f0 ff 81 f4 bd 77 7b a4 bd f8 cc bf bd bd 86 a9 bd
       -0.11938857 -0.080313616 -0.093652666 -0.082776524

separableConv.1.weight f4 [32]
000000 e7 15 95 3f b4 eb 98 3f 89 5e 9a 3f e9 46 bc 3f
       1.1647309 1.1946931 1.20601 1.470914
000010 d7 3a ad 3f 3f 6a b4 3f 16 d3 c2 3f c8 8e b3 3f
       1.3533581 1.4094924 1.5220668 1.4027948
000020 45 89 a7 3f 1e cc 8d 3f 5d 83 a8 3f e4 71 ae 3f
       1.3088766 1.1077917 1.3165089 1.3628507
000030 86 55 a3 3f 9e e7 a1 3f a8 11 9a 3f 25 24 b1 3f
       1.2760475 1.2648809 1.2036638 1.3839155
000040 e6 8b 8c 3f 8a 2c 99 3f 0b 76 aa 3f 58 43 b5 3f
       1.0980194 1.1966717 1.3317274 1.4161177
000050 ca 9a 95 3f c7 6e a5 3f 00 5b 98 3f eb 83 a7 3f
       1.1687863 1.2924432 1.1902771 1.3087133
000060 f0 92 98 3f 6b a2 ac 3f 7e 26 9f 3f 4b 31 b8 3f
       1.1919842 1.3487066 1.2433622 1.4390043
000070 bf 7d 9b 3f ae e7 95 3f 01 00 93 3f 64 15 a9 3f
       1.214775 1.1711328 1.1484376 1.3209653

separableConv.1.bias f4 [32]
000000 27 59 f2 bd fa 14 d7 bd 8a e9 e5 bd eb 49 ac be
       -0.11833411 -0.10502048 -0.11226185 -0.33650145
000010 be 0d 98 be 15 58 9e be 1a 19 77 be 61 8d 69 be
       -0.29697984 -0.30926576 -0.24130669 -0.22807838
000020 7e 1b ce be 51 04 23 be 37 a9 21 be 6a 5e c2 be
       -0.4025535 -0.15919615 -0.15787207 -0.37962657
000030 f6 ac 86 be b4 44 6a be 52 7e 8e be ee 8c af be
       -0.26303834 -0.2287777 -0.2783075 -0.34287208
000040 05 6c 1a be 3a c2 40 bd ea 8d 92 be 6f b6 54 be
       -0.15080269 -0.04706023 -0.28623897 -0.20772718
000050 24 9e 05 be 65 90 06 be b6 18 38 be aa 96 6a be
       -0.13048607 -0.1314102 -0.17978176 -0.22909036
000060 65 98 77 be da 68 95 be 8a 82 52 be 68 a2 8e be
       -0.24179228 -0.29181558 -0.20557609 -0.2785828
000070 ee c3 f5 bd e0 ae eb bd 1b dc 1f be 59 bd 3d be
       -0.12000261 -0.11507964 -0.15611307 -0.18529262

separableConv.1.running_mean f4 [32]
000000 12 ef e8 3e 47 88 87 bf b5 73 e9 bf 84 0e 8a bf
       0.45494896 -1.0588464 -1.8238436 -1.078568
000010 dd 12 09 bf 5a 5b c3 bf b9 a2 29 be 14 d5 85 bf
       -0.5354441 -1.5262253 -0.1656598 -1.0455651
000020 bb e4 5a bf 43 6f 65 bf d8 e8 2e bf 87 92 99 bd
       -0.85505265 -0.89622897 -0.6832404 -0.07498651
000030 d6 34 a4 bf 34 8a 18 bf a1 0a 13 3e b1 e6 be bf
       -1.2828624 -0.5958588 0.14359523 -1.4914151
000040 a1 a6 09 3f 71 23 31 c0 15 eb a3 bf 50 82 5d bf
       0.5376988 -2.7677882 -1.2806116 -0.86526966
000050 28 06 f5 3d 95 ce a4 bf b8 20 9c bf ac 7f b1 3e
       0.11964065 -1.2875544 -1.2197485 0.34667718
000060 83 84 8b bf 50 fc 8a bf b8 78 c2 bd d9 55 19 bf
       -1.0899814 -1.085825 -0.094956815 -0.5989662
000070 94 e6 78 be 42 c8 d5 be 34 cd 7b be 6e 6a 7a 3f
       -0.24306709 -0.41754347 -0.24589998 0.9781865

separableConv.1.running_var f4 [32]
000000 fc 27 15 40 a7 4b e2 3f 00 ef 44 40 4b 66 12 40
       2.3305655 1.7679337 3.0770874 2.2874935
000010 29 43 e8 3f 44 ab e0 3f 45 f6 80 3f a4 aa fb 3f
       1.8145496 1.7552266 1.0075155 1.966145
000020 1e a6 1d 40 f7 a4 08 40 04 a9 02 40 84 19 a8 3f
       2.463264 2.1350687 2.041566 1.3132787
000030 40 27 0e 40 6b 2b 08 40 e6 b8 d0 3f d0 7c 1e 40
       2.2211456 2.12765 1.6306427 2.476368
000040 a2 24 dc 3f 72 ed ce 40 3b d7 10 40 5c 9c 2c 40
       1.719868 6.466485 2.2631366 2.6970434
000050 df c9 12 40 e8 5b 18 40 b6 cd 11 40 50 5f 1a 40
       2.2935712 2.3806095 2.2781806 2.4120674
000060 6b 64 d7 3f 44 b3 0f 40 fa b3 bc 3f 98 73 0a 40
       1.682752 2.2453165 1.4742424 2.1633053
000070 ef da c5 3f 04 f3 da 3f dd 22 d0 3f c4 8e 3d 40
       1.5457438 1.7105412 1.626064 2.9618387

classify.0.weight f4 [2, 736]
000000 82 4b 8b 3e 20 ff 82 3e a1 18 79 bc af 02 7b 3e
       0.27206045 0.2558527 -0.015203626 0.24512742
000010 ae 9d d8 bd 4e aa 31 3e 74 b4 5e 3e bc ee cb 3d
       -0.1057695 0.17350122 0.21748525 0.09957644
000020 84 99 f5 bc 95 65 16 3e 20 c7 9c 3e 38 d1 87 bd
       -0.029980429 0.14687188 0.3062067 -0.06631702
000030 36 de 07 3e 46 e6 bf 3d bb 73 d8 3d 85 7c 2e bc
       0.1326836 0.09370093 0.10568949 -0.010649805
000040 a3 4c f0 3d a0 6e a7 3d 73 27 29 3d b1 c8 32 bd
       0.11733367 0.08175397 0.041297387 -0.043648425
000050 92 86 67 3d ce cd 41 bc a6 e2 84 3b 1b d3 8c 3b
       0.05652482 -0.011828853 0.004055339 0.0042976267
000060 3f 0b 66 3d 20 e4 a1 3c 7e a5 20 be c9 1a 95 be
       0.05616307 0.019762099 -0.1568813 -0.29121998
000070 ed 7c a4 be ab f1 cc bd 36 0c 7c bd 86 7a 4f bc
       -0.3212656 -0.10007032 -0.061535083 -0.012663489
000080 ad b4 80 bc 34 3f c9 bd 42 8f c6 bb a5 1e be bd
       -0.015711153 -0.09826508 -0.006059558 -0.09283189
000090 ba b3 7c 3d 25 b5 ee bb 36 d8 75 bd 15 e1 3b be
       0.061694838 -0.0072847777 -0.060020648 -0.1834758
0000a0 b5 32 e3 3d e3 08 c2 3d 8f a1 89 bd 3a 20 65 be
       0.11093656 0.09474351 -0.06720268 -0.22375575
0000b0 1d fc 84 be 44 7e 27 3d 5b f9 f8 3d 72 cc f4 3d
       -0.25973597 0.0408919 0.12156936 0.11953057
0000c0 29 8f bc 3d 7e a6 b4 3d ea f7 5c 3d e3 e2 26 3e
       0.09206993 0.08820818 0.053947367 0.16297488
0000d0 d2 64 59 bc 78 70 88 bc 91 01 42 bc 34 cd a5 3c
       -0.013268666 -0.016655192 -0.011841194 0.02023945
0000e0 47 ca 71 3c 77 e3 bc 3d a6 6f fd 3c 47 f7 6a be
       0.014757699 0.09223073 0.030937027 -0.22945891
0000f0 ff e8 9c bd 2d 49 0d 3e 39 61 c8 3e 3d 3d 4e 3b
       -0.07661628 0.13797446 0.39136675 0.0031469606
000100 14 c1 75 3e c4 71 09 3e 9d 4e d9 3d 60 3b ad 3d
       0.23999435 0.13422304 0.106106974 0.084585905
000110 a4 5a ad 3d 25 77 85 be 32 39 49 be d2 91 92 3e
       0.08464554 -0.26067463 -0.19650725 0.28626877
000120 94 2a 32 bd 99 ef 4f bd d4 f7 03 3d 8b af 3d 3d
       -0.043497637 -0.050765608 0.03221877 0.04630999
000130 e6 c6 4f 3e 10 32 0f 3e ee df 3a 3e 03 d4 18 be
       0.20290717 0.13983941 0.18249485 -0.14924626
000140 b5 90 02 bd b9 a0 55 be d9 91 1f 3e 4a 1b 01 3c
       -0.031876285 -0.20862092 0.1558298 0.007880041
000150 3f d7 2f bd 46 a6 bf bd 18 a8 88 3d 6b 41 a4 3d
       -0.042929884 -0.09357886 0.06672686 0.0802029
000160 c2 46 b3 3d e4 da 90 bd b5 6d 2d be b7 67 ae 3d
       0.0875373 -0.07073 -0.16936381 0.08515876
000170 88 38 7a be ee be cb bd df e1 b3 be ee a3 3a 3e
       -0.24435627 -0.09948526 -0.35133263 0.18226597
000180 ac da cd 3d 77 f7 c4 3d 22 04 60 3c c3 ab 07 3e
       0.10051474 0.09617513 0.01367286 0.13249116
000190 72 71 c8 3d 92 30 02 3d 16 ed 2a 3e a6 fb c3 bd
       0.09787263 0.0317846 0.16692004 -0.095694825
0001a0 95 cc a2 3e 20 53 c9 bc c2 53 37 3d 93 2a c7 3c
       0.3179671 -0.02457577 0.044757612 0.024312293
0001b0 15 bd 26 bd 1c 9c 19 bc 9b bd 2b 3d 1e bf db 3d
       -0.040707666 -0.009375598 0.04192887 0.10729812
0001c0 7d 66 f3 3d 45 e9 64 bd 98 ee c0 bd f2 a5 b6 bd
       0.118847825 -0.055886526 -0.09420508 -0.0891837
0001d0 9f 0c e6 3d 2f 5c be 3e eb b9 d4 bd 06 43 a2 bc
       0.11232876 0.37179706 -0.103870235 -0.01980735
0001e0 66 03 0a bd e9 9e 11 3e 7f 32 e2 bd 6c d6 2e be
       -0.033694647 0.14220776 -0.110447876 -0.17073983
0001f0 de a7 86 3d 74 d6 56 bd 25 10 6d bc 91 6b 97 bd
       0.06574987 -0.052450612 -0.014469181 -0.073935635
000200 b2 c8 00 3e fd ab bd 3d e5 ab 94 3d fa b4 84 3d
       0.12576559 0.0926132 0.07259349 0.06479831
000210 f4 a6 0b be ff ec 1b be fc 94 31 bd e7 f7 84 be
       -0.13637906 -0.15227126 -0.043354973 -0.25970384
000220 bc ba 9f be ee e4 0b 3e 96 a5 0e 3d 01 b9 5f be
       -0.31197155 0.13661548 0.034825884 -0.21847917
000230 39 b8 41 be 49 5e 0d be 30 f4 a4 3d 1e 15 d0 3d
       -0.18917932 -0.13805498 0.080543876 0.10160278
000240 94 13 40 bd dc 8a 9a 3e ee 6d 2b be c7 12 57 3e
       -0.04689367 0.30184066 -0.16741154 0.21003257
000250 ba 00 c1 bd 03 ce 1d 3e 90 7b 52 be d8 83 0f 3e
       -0.09423967 0.15410618 -0.20554948 0.14015138
000260 2f ac 8f 3d c7 47 e8 bd 47 22 a2 3d 02 4c 6d bd
       0.07015263 -0.113418154 0.07916694 -0.057933815
000270 87 dc 36 3d 1d 17 ea 3d 41 5d fe bc 37 e9 09 bc
       0.044643905 0.1143019 -0.031050326 -0.008417419
000280 8a 33 41 3d 45 e6 d6 3c da ef b2 3c 25 8d 12 3e
       0.047168292 0.026232848 0.021842886 0.14311655
000290 08 f8 91 be 60 21 af bd ab 24 16 3e 2c 40 ac bd
       -0.28509545 -0.08551288 0.14662425 -0.08410677
0002a0 6a b5 90 be b2 f9 9d bd 1c 1d 10 3e d6 66 88 3e
       -0.28263408 -0.07713641 0.14073604 0.26640958
0002b0 89 e6 9c 3d 48 8c 60 be 76 34 9e 3d 30 91 d5 3c
       0.076611586 -0.21928513 0.0772485 0.026070207
0002c0 56 28 c0 3d 7b 19 6d 3d df 86 30 3d 6c 9b de 3b
       0.093826935 0.05788563 0.043097373 0.00679343
0002d0 a9 7f 63 bd df a1 06 bd 4d c2 31 bd bf 9b a0 3e
       -0.055541668 -0.032869216 -0.04339819 0.31368825
0002e0 b4 19 5d be 5c 9f 1c be e8 9b c8 bd 69 ea 72 3d
       -0.21591836 -0.15295166 -0.09795362 0.059305582
0002f0 d7 f4 ca 3d 97 3d 14 3e ff 90 6e 3e 7f 6d fb 3d
       0.09909981 0.1447662 0.23297499 0.12276744
000300 41 47 58 3e 0b 89 67 3e ed da c7 3d e7 a7 a6 3e
       0.21120931 0.22610871 0.09758554 0.32549974
000310 ac 16 2a 3e d9 65 46 3e 0e 27 bc 3d a9 2b 72 3c
       0.16610211 0.1937479 0.091871366 0.014780917
000320 a7 19 f6 3d 02 99 96 3d 3f fa e0 3d 1b 4c cf bc
       0.120166115 0.07353403 0.10985231 -0.025304845
000330 b6 7b 44 3c 4a 44 11 bd ce 9a ef bd 78 61 da bd
       0.011992386 -0.035465516 -0.116994485 -0.10663122
000340 7c b2 92 bd 11 e5 8d bd 7c 98 7f be c6 d0 72 be
       -0.071629494 -0.069284566 -0.24960512 -0.23712453
000350 73 95 84 be 6b a3 cf bd 83 62 f7 bc 9e bc 72 3d
       -0.2589527 -0.101385914 -0.030198341 0.05926191
000360 c4 ef 03 bd 10 52 e4 bd b8 38 a8 3b f8 ed d4 bd
       -0.03221108 -0.11148465 0.0051337145 -0.103969514
000370 8c b9 43 bd f3 44 32 3d 41 9e 03 be 17 f9 a2 bd
       -0.047784373 0.043522786 -0.12853338 -0.07957666
000380 98 31 5d 3e f9 c9 8b 3d d9 1d 68 be 90 de 80 3d
       0.2160095 0.068256326 -0.22667636 0.062924504
000390 1e a7 00 bc d8 30 b7 bb 31 a5 12 be d4 45 b4 be
       -0.007852344 -0.0055905394 -0.14320828 -0.35209525
0003a0 73 f3 7f 3c d8 5f a4 3d ab 78 d4 bd 4b 50 ee bd
       0.015622008 0.08026093 -0.10374578 -0.116364084
0003b0 39 1d f7 bd be 2c 31 bc 2c b2 f4 3d 4c c5 81 3d
       -0.12066121 -0.01081389 0.11948046 0.063364595
0003c0 92 96 0b 3d c4 86 97 3e af 5a eb bd ca 11 a8 bd
       0.034079142 0.29595006 -0.11491906 -0.08206518
0003d0 61 31 e8 3d 6f 7d b8 3c 7d 7b 07 bc c2 7e 6d bb
       0.11337543 0.022520749 -0.008269188 -0.0036238884
0003e0 fe 89 f3 bd 84 56 06 be 35 59 1d 3e 0a 1d 9b bb
       -0.11891554 -0.1311894 0.15366061 -0.0047336863
0003f0 d2 04 ac 3c eb d6 45 3e 5d 4b 73 3e 3d 94 00 be
       0.020998392 0.19320266 0.23759218 -0.12556548

classify.0.bias f4 [2]
000000 9a d5 7f ba 21 e1 eb 3c
       -0.0009759307 0.028793873
