Lab2/best results/EEGNet_LeakyReLU.pt (torch, 79023 bytes, 17 tensors)

firstConv.0.weight f4 [16, 1, 1, 51]
-0.12373627 0.03608356 -0.0075441804 -0.07977835 0.14411667 0.17231204 0.047353838 -0.009975626
-0.13701276 -0.03820646 -0.030962557 -0.13212794 -0.1747759 0.09194467 0.031968202 0.17743354
0.03574664 -0.0066004186 0.13716401 -0.12195394 0.016066335 -0.19036736 -0.10924346 -0.10323313
0.077504165 0.09246858 0.12986536 0.14994095 0.053288348 0.047177095 -0.09155578 -0.09382874
-0.13192037 -0.17225787 -0.017029326 0.084749565 0.13668022 0.0538134 0.07928666 0.10251339
-0.075214446 -0.16224942 -0.038434986 -0.1687129 -0.053161375 -0.029852709 0.073474415 0.09279001
-0.012302204 0.1429597 0.0015570454 -0.16689451 0.010834615 -0.11622357 0.074316286 -0.039362896
-0.12044469 -0.13772991 0.1031548 0.012171566 0.047925927 -0.008136193 -0.10329833 -0.038933676
0.06700439 0.022022177 0.1071432 0.101971775 -0.05347114 -0.093594484 -0.15298164 0.011512167
0.080890216 0.16133238 -0.028844925 0.0055266866 -0.10070372 -0.06289044 -0.028684089 0.19244812
-0.02344439 0.06392462 -0.17493656 -0.088422716 0.04808251 0.095389046 0.038485467 -0.02394614
-0.13570799 -0.11423167 -0.06372457 0.17626576 0.15883791 -0.063335225 -0.12376475 -0.12088865
-0.08578049 -0.028181426 0.115603395 0.10965679 -0.041515965 -0.2545594 0.0034045998 0.07308404
0.045977335 -0.013412388 -0.06863595 0.02523778 -0.062471904 0.09093464 -0.0722021 0.07417987
-0.1682058 0.124086015 0.19001986 -0.15687387 -0.10024629 0.046408888 -0.0056416383 0.078240484
-0.12982479 0.0047692275 0.035715416 0.14865075 0.06666459 -0.18931715 -0.034731105 0.0152634205
0.1872855 -0.14180705 -0.09726663 0.09904182 0.14112635 0.00820732 -0.02325601 -0.08533911
-0.029370638 0.17183039 -0.14113684 0.025963183 -0.09909247 0.13023235 0.11415771 -0.06190536
-0.17577781 0.16374017 -0.018201113 -0.10515945 -0.0040258677 0.014230725 -0.02931331 0.15929957
-0.06386478 -0.09769324 -0.06487258 0.047253948 0.059694912 -0.05142051 0.044984035 0.08276381
0.018401748 0.010998604 -0.12905051 0.118255004 0.15329991 -0.0969063 0.07082094 -0.0386731
0.049547695 0.03508701 -0.08482644 -0.12585557 -0.003808999 -0.019145064 -0.0804345 0.0804322
-0.029234704 0.14789686 0.12903017 -0.009332583 0.13187349 -0.0589019 0.048965126 -0.078399464
-0.10205671 -0.10239231 -0.16899842 -0.13183583 -0.09848299 -0.06279087 0.062378075 0.0903917
0.034329582 0.13466069 0.18536867 0.029104989 0.11835347 -0.04263149 -0.08199796 -0.2280342
-0.04971576 -0.21284978 -0.15566878 -0.07177465 0.11593732 -0.18569049 0.017369956 0.15286115
0.03179862 -0.15591316 -0.013694395 -0.015474084 0.13212293 0.044671837 -0.11290685 -0.041260395
-0.0025562274 0.09235823 -0.03463398 -0.0061540073 -0.09538346 -0.037108965 0.1540191 0.06556862
-0.11603172 -0.035184596 -0.14911792 0.1592528 0.18235405 -0.19264536 -0.029339382 0.008403235
0.076324634 -0.03283426 0.05694318 -0.10124508 -0.0050070393 0.062751114 0.10055316 -0.05339037
-0.13480438 0.01143299 0.16372968 -0.014605819 0.031551223 -0.18811382 0.08903251 0.008557761
0.11327632 -0.16965874 -0.13137567 0.09732068 0.084567055 -0.04140297 -0.024946515 0.020455843
00000000: 7169 fdbd 5bcc 133d 2c35 f7bb d562 a3bd
00000010: 5293 133e 9172 303e 19f6 413d cf70 23bc
00000020: 134d 0cbe 617e 1cbd 30a5 fdbc 8c4c 07be
00000030: 74f8 32be 7d4d bc3d 17f1 023d 23b1 353e
00000040: 126b 123d 5348 d8bb b974 0c3e fdc2 f9bd
00000050: 8c9d 833c a9ef 42be 09bb dfbd e46b d3bd
00000060: 81ba 9e3d 2b60 bd3d 6dfb 043e 1f8a 193e
00000070: e244 5a3d c53c 413d 9981 bbbd 4829 c0bd
00000080: 2216 07be 5e64 30be 1681 8bbc 2e91 ad3d
00000090: e6f5 0b3e 716b 5c3d 0b61 a23d 8af2 d13d
000000a0: 080a 9abd b624 26be 016e 1dbd 13c3 2cbe
000000b0: bebf 59bd ab8d f4bc c179 963d b008 be3d
000000c0: 2f8f 49bc 0764 123e c615 cc3a 65e6 2abe
000000d0: ab83 313c a006 eebd 2333 983d fd3a 21bd
000000e0: b5ab f6bd 1209 0dbe d342 d33d 3f6b 473c
000000f0: fa4d 443d ab4d 05bc 138e d3bd eb78 1fbd
00000100: 9939 893d da67 b43c e56d db3d 94d6 d03d
00000110: 8e04 5bbd 77ae bfbd 38a7 1cbe 879d 3c3c
00000120: c5a9 a53d 5134 253e 314c ecbc 3519 b53b
00000130: c03d cebd b4cc 80bd e5fa eabc 1f11 453e
00000140: 730e c0bc e9ea 823d 9222 33be f816 b5bd
00000150: 2af2 443d 555b c33d f0a2 1d3d b22a c4bc
00000160: 09f7 0abe 4bf2 e9bd 0782 82bd 037f 343e
00000170: 68a6 223e e6b5 81bd 6078 fdbd 7894 f7bd
00000180: aead afbd bcdc e6bc 79c1 ec3d bd93 e03d
00000190: a50c 2abd 9c55 82be b51f 5f3b 16ad 953d
000001a0: bb52 3c3d a2bf 5bbc 0191 8cbd 76bf ce3c
000001b0: 8ae2 7fbd f13b ba3d b2de 93bd 9eeb 973d
000001c0: 243e 2cbe cf20 fe3d 9194 423e 8ba3 20be
000001d0: ed4d cdbd 3f17 3e3d 7edd b8bb 8c3c a03d
000001e0: caf0 04be 2e47 9c3b 544a 123d e737 183e
000001f0: 7287 883d 5bdc 41be 3442 0ebd 6d13 7a3c
00000200: c5c7 3f3e de35 11be ba33 c7bd 70d6 ca3d
00000210: 6d83 103e ff77 063c 6383 bebc 45c6 aebd
00000220: b19a f0bc 4ef4 2f3e 2d86 10be beb0 d43c
00000230: fef0 cabd a15b 053e 84cb e93d 7a90 7dbd
00000240: 19ff 33be 81ab 273e 801a 95bc d65d d7bd
00000250: 6deb 83bb fd27 693c 7722 f0bc 6d1f 233e
00000260: 8acb 82bd 6513 c8bd eadb 84bd 5b8d 413d
00000270: a782 743d 509e 52bd 2e41 383d 1380 a93d
00000280: 43bf 963c 7d33 343c d125 04be ae2f f23d
00000290: a7fa 1c3e cf76 c6bd 920a 913d af67 1ebd
000002a0: 86f2 4a3d 66b7 0f3d 7cb9 adbd 48e0 00be
000002b0: 66a0 79bb 1cd6 9cbc d8ba a4bd a3b9 a43d
000002c0: 9e7d efbc 4672 173e 7c20 043e b1e7 18bc
000002d0: d809 073e 1e43 71bd a88f 483d e68f a0bd
000002e0: 1c03 d1bd 0fb3 d1bd ec0d 2dbe f9ff 06be
000002f0: 73b1 c9bd 8098 80bd 2780 7f3d 491f b93d
00000300: 2d9d 0c3d 7ee4 093e 49d1 3d3e 966d ee3c
00000310: 4e63 f23d 5b9e 2ebd 8cee a7bd cc81 69be
00000320: c1a2 4bbd 4bf5 59be a367 1fbe 96fe 92bd
00000330: 8c70 ed3d a625 3ebe 704b 8e3c a287 1c3e
00000340: 453f 023d b3a7 1fbe 755e 60bc 0387 7dbc
00000350: 3c4b 073e d1f9 363d b53b e7bd a900 29bd
00000360: 6186 27bb 5026 bd3d 5cdc 0dbd 8ea7 c9bb
00000370: 6758 c3bd 92ff 17bd 2fb7 1d3e d748 863d
00000380: 0aa2 edbd b91d 10bd 5eb2 18be 2a13 233e
00000390: 05bb 3a3e d344 45be 2559 f0bc b9ad 093c
000003a0: 1750 9c3d 387d 06bd 403d 693d 9559 cfbd
000003b0: 1712 a4bb a883 803d d1ee cd3d dcaf 5abd
000003c0: 290a 0abe 7051 3b3c c1a8 273e 3f4d 6fbc
000003d0: db3b 013d e9a0 40be ad56 b63d da35 0c3c
000003e0: 6afd e73d 05bb 2dbe 5887 06be 1150 c73d
000003f0: 7e31 ad3d 2996 29bd a25c ccbc 0393 a73c

firstConv.1.weight f4 [16]
0.9606063 0.84183365 1.0132769 0.89963174 0.9254201 0.69786054 0.9679598 0.97036976
0.69506526 1.0120413 1.0374525 1.0214037 0.94320416 0.88471884 1.0967014 1.0427573
00000000: 4bea 753f 6982 573f 0fb3 813f 444e 663f
00000010: 55e8 6c3f fda6 323f 37cc 773f 276a 783f
00000020: ccef 313f 928a 813f 3ecb 843f 5bbd 823f
00000030: d475 713f ef7c 623f b660 8c3f 1279 853f

firstConv.1.bias f4 [16]
-0.0026273532 -0.039267313 0.037478127 0.0074277963 0.02276704 0.011907607 -0.042229623 0.0055828136
0.046141434 0.0021643927 0.009072662 -0.035124656 -0.03203606 -0.021460012 0.004223624 -0.028369697
00000000: ac2f 2cbb c3d6 20bd aa82 193d df64 f33b
00000010: f281 ba3c 2018 433c f8f8 2cbd 09f0 b63b
00000020: cdfe 3c3d 7cd8 0d3b 81a5 143c dfde 0fbd
00000030: 3e38 03bd e8cc afbc 5366 8a3b 9167 e8bc

firstConv.1.running_mean f4 [16]
-0.0011860266 0.044944588 -0.005117912 0.04239282 0.0009905545 0.10880701 -0.00075100566 -0.04785431
-0.17077129 0.0018572906 -0.0491397 -0.0026142516 0.004450984 -0.047336545 -0.004934812 0.004819741
00000000: 7374 9bba d117 383d 28b4 a7bb 18a4 2d3d
00000010: 7ed5 813a 36d6 de3d 23df 44ba e202 44bd
00000020: abde 2ebe 5570 f33a b646 49bd dd53 2bbb
00000030: 8fd9 913b f7e3 41bd 34b4 a1bb ebee 9d3b

firstConv.1.running_var f4 [16]
27.428715 13.152943 2.3693736 47.695324 2.6036294 142.25212 14.445987 36.882355
291.84174 4.041537 45.642925 22.814919 8.556037 67.372345 5.373511 7.013138
00000000: 026e db41 7472 5241 d1a3 1740 03c8 3e42
00000010: dda1 2640 8b40 0e43 c322 6741 8887 1342
00000020: beeb 9143 4554 8140 5b92 3642 f484 b641
00000030: 87e5 0841 a4be 8642 cdf3 ab40 a06b e040

depthwiseConv.0.weight f4 [32, 1, 2, 1]
-0.20889635 -1.109758 -0.35298264 0.11435046 -0.044408403 0.50503385 0.2630844 -0.44053024
0.075811446 -0.28752372 0.19664052 -0.67124385 -0.28319377 0.25833914 -0.5300602 -0.012473951
-0.30460423 0.060639303 -0.59072655 0.18010044 0.12360786 -0.05807249 -0.02351916 0.9309225
-0.22491117 0.6181568 -0.23191032 0.4229706 -0.44855866 -0.77260864 0.34155735 -0.21110767
-0.46259394 0.0061119236 0.43112376 0.050341487 -0.025333816 0.32253188 0.22429433 -0.820496
-0.09782614 0.08413247 0.3435949 0.39900497 -0.13868724 0.3655601 0.60331446 -0.08696927
-0.09754069 0.45791057 0.54086703 -0.17208621 -0.29568228 0.42638233 0.15240252 -0.28253016
-0.081873655 0.5914809 0.41190076 -0.050617274 0.93530035 0.02479554 -0.055149194 0.15992638
00000000: ede8 55be 8d0c 8ebf 24ba b4be 9330 ea3d
00000010: 96e5 35bd e649 013f 00b3 863e 2e8d e1be
00000020: 0843 9b3d 4f36 93be 225c 493e a3d6 2bbf
00000030: c6fe 90be 0745 843e 06b2 07bf 8b5f 4cbc
00000040: 16f5 9bbe eb60 783d db39 17bf 406c 383e
00000050: 1e26 fd3d 6bdd 6dbd 41ab c0bc f050 6e3f
00000060: 1d4f 66be 863f 1e3f e679 6dbe 9a8f d83e
00000070: 7ba9 e5be aec9 45bf 9be0 ae3e 9c2c 58be
00000080: 1dd9 ecbe 8846 c83b 41bc dc3e e032 4e3d
00000090: dd88 cfbc e622 a53e 6aad 653e 070c 52bf
000000a0: 1259 c8bd a54d ac3d aceb af3e 614a cc3e
000000b0: 0704 0ebe b22a bb3e d172 1a3f f21c b2bd
000000c0: 6ac3 c7bd 4173 ea3e 4376 0a3f 5e37 30be
000000d0: ab63 97be c94e da3e 680f 1c3e cba7 90be
000000e0: 60ad a7bd 4b6b 173f a8e4 d23e 0f54 4fbd
000000f0: d86f 6f3f 0420 cb3c 1fe4 61bd bec3 233e

depthwiseConv.1.weight f4 [32]
0.97187436 0.945723 0.9047539 0.87916267 1.0201833 1.000341 0.9488148 0.84187424
0.9310232 0.9468175 0.72762567 0.924938 0.95657974 0.96121436 0.948443 0.9894309
0.7348018 0.9228597 1.0167471 1.0225419 1.0520825 1.0076604 1.0056195 1.0356003
0.9492958 1.0258967 0.8295006 0.9701319 1.0264957 1.053237 0.9690663 1.039702
00000000: c2cc 783f e71a 723f f49d 673f ce10 613f
00000010: 5e95 823f 2d0b 803f 87e5 723f 1285 573f
00000020: 8957 6e3f a262 723f ad45 3a3f bdc8 6c3f
00000030: 69e2 743f 2512 763f 29cd 723f 584b 7d3f
00000040: f91b 3c3f 8940 6c3f c524 823f a7e2 823f
00000050: a4aa 863f 04fb 803f 24b8 803f 8d8e 843f
00000060: 0d05 733f 9550 833f 275a 543f 905a 783f
00000070: 3664 833f 78d0 863f bb14 783f f514 853f

depthwiseConv.1.bias f4 [32]
-0.31489813 -0.3321255 -0.45838687 0.038369283 -0.3978543 -0.36162427 -0.21127473 -0.24108264
-0.5214614 -0.48870078 -0.3040976 0.0014592826 -0.3563295 -0.28394926 -0.51679385 -0.45788494
-0.24526832 -0.094156764 -0.6243733 -0.39973128 -0.2969341 -0.35624143 -0.50417525 -0.36855644
-0.39141285 -0.39882228 0.16815537 -0.20501827 -0.5536413 -0.51094574 -0.43547165 -0.5755729
00000000: 543a a1be 5b0c aabe afb1 eabe 1c29 1d3d
00000010: 8fb3 cbbe d126 b9be 6758 58be 5ede 76be
00000020: 7f7e 05bf fd36 fabe aeb2 9bbe 6645 bf3a
00000030: d270 b6be cc61 91be 9a4c 04bf e56f eabe
00000040: 9e27 7bbe 43d5 c0bd eed6 1fbf 94a9 ccbe
00000050: bf07 98be 4765 b6be a111 01bf 6eb3 bcbe
00000060: 4467 c8be 6f32 ccbe ec30 2c3e 4ff0 51be
00000070: 70bb 0dbf 57cd 02bf 24f6 debe bf58 13bf

depthwiseConv.1.running_mean f4 [32]
0.0037550146 0.0006506015 -0.016649336 0.0053878617 -0.0074019623 -0.016585061 7.428917e-05 -0.0035091778
-0.00591264 -0.010048553 0.00039837224 0.012890967 -0.016449835 -0.008079737 -0.005450526 0.0008525696
-0.022124676 0.023058087 0.0005237489 -0.0009588853 -0.00033120057 0.0060913963 -0.007637803 -0.017927995
-0.011082808 -0.011938198 -0.0040668882 0.0035539048 0.0019977235 0.0017634593 -0.026801271 -0.0031173457
00000000: b116 763b 218d 2a3a 3064 88bc a98c b03b
00000010: 298c f2bb 65dd 87bc b2cb 9b38 3cfa 65bb
00000020: d2be c1bb b0a2 24bc 9edc d039 a234 533c
00000030: cec1 86bc e060 04bc 539a b2bb fa7e 5f3a
00000040: cf3e b5bc 50e4 bc3c 324c 093a b45d 7bba
00000050: fda4 adb9 569a c73b 8946 fabb bbdd 92bc
00000060: aa94 35bc 6e98 43bc 8843 85bb a1e8 683b
00000070: 3dec 023b e023 e73a 578e dbbc 624c 4cbb

depthwiseConv.1.running_var f4 [32]
1.5407575 0.0724455 0.16556968 0.09966719 0.07017091 0.377546 0.03290894 0.24725676
0.06688771 0.24085452 0.0044341553 0.40942943 0.2344781 0.09893987 1.2213016 0.05419129
0.10078612 0.10347541 0.102575414 0.59439576 0.0053916904 0.510016 0.085861884 0.30213386
0.15875246 0.18292671 0.07627173 0.0349013 0.39061165 0.18267524 0.9993703 0.02302559
00000000: 8b37 c53f 4e5e 943d 198b 293e 501e cc3d
00000010: c4b5 8f3d b64d c13e 86cb 063d e030 7d3e
00000020: 6cfc 883d 91a2 763e 644c 913b bca0 d13e
00000030: 071b 703e fda0 ca3d 9c53 9c3f b0f7 5d3d
00000040: f468 ce3d eaea d33d 0f13 d23d 522a 183f
00000050: c7ac b03b 6990 023f 5bd8 af3d 4ab1 9a3e
00000060: 0190 223e 2451 3b3e 5a34 9c3d aaf4 0e3d
00000070: 40fe c73e 380f 3b3e bbd6 7f3f 2aa0 bc3c

separableConv.0.weight f4 [32, 32, 1, 15]
-0.0015522938 -0.081376456 -0.064890325 0.067909636 -0.04813225 -0.047908153 0.08428872 -0.032438364
0.018882575 0.13120736 0.0086089885 0.009213812 0.1003129 -0.033573534 0.014519658 -0.1411862
-0.20493732 -0.16020261 -0.13986398 -0.11427198 -0.06466701 -0.03714445 -0.10041186 -0.15275222
-0.02987756 -0.11429938 -0.08118869 -0.079404965 -0.19073266 -0.07705358 -0.023419848 0.02358675
-0.015660916 -0.03926654 0.07817634 0.013229823 -0.08705347 -0.030994948 -0.021207917 -0.03930344
-0.064321585 -0.14316972 -0.074054115 -0.07164024 -0.060492698 0.03727429 0.045309484 0.04037549
-0.003295702 0.007329162 -0.0008721232 0.02633256 0.0015822661 -0.018806696 0.033782437 -0.05250108
0.019425957 0.032893438 -0.025683805 -0.041017797 0.101261504 0.14239483 0.061646834 0.10061395
0.024466043 0.022448136 0.09082282 0.043156438 0.04652142 0.0759304 0.05474126 0.06334879
0.0481681 -0.0027423655 0.098803885 0.13875824 0.12859233 0.098255746 0.06074744 0.037086017
0.054222655 0.07755957 0.059963632 0.034473818 0.056077927 0.07756399 0.015832236 0.03744173
-0.025935791 0.0702237 -0.07025742 0.01377378 -0.051078554 -0.09150181 0.05086114 -0.0034739245
-0.0071521513 0.09371564 0.022863273 0.0017247414 0.015469887 -0.023666149 -0.13089041 -0.054275032
-0.05994848 0.10090561 0.034163084 0.02918359 0.10166858 0.050388087 -0.012596131 -0.043091737
0.04860771 0.038286906 -0.05869624 -0.048510525 -0.06895066 -0.18105917 -0.11186413 -0.10162726
0.040141635 -0.019155039 0.07054339 -0.0047856756 0.10343694 0.10441399 0.0003907854 0.043122508
0.10646985 0.09841805 -0.0503932 0.02157449 0.029999053 0.06620513 0.08503625 -0.016615415
0.016801229 0.0275758 -0.07142467 0.06608648 0.08280048 -0.007574513 -0.0016094596 0.11060281
0.07872076 -0.05682741 0.045456804 0.06953825 0.049910296 0.090661764 -0.1075265 -0.12050269
-0.025409885 0.02901332 -0.04514292 -0.024282929 0.010293457 -0.032401066 0.012111109 0.05320768
0.03218791 0.04923919 0.083701774 0.044742145 -0.03063919 0.033063754 -0.09846289 -0.04027187
0.08972727 -0.049269482 -0.017713562 -0.0011230463 0.051527873 -0.022798268 -0.10566403 -0.041228063
-0.025867753 0.009954942 -0.06917608 0.012094805 -0.09479205 -0.11066908 -0.12675487 -0.02059974
-0.09008272 -0.08306608 0.065074146 -0.07312687 0.06645836 0.038165674 -0.1420007 -0.0138128055
0.015646642 -0.22854418 -0.1161654 -0.011706578 -0.07146966 -0.12470133 -0.037975516 -0.08778817
-0.11498329 0.08403834 -0.04749572 0.049447715 0.0726247 -0.12292776 -0.04161572 0.0071006124
-0.2308774 -0.18087551 -0.10839659 -0.12761435 -0.09981845 -0.17503709 -0.086613275 -0.09502206
-0.058040872 -0.083830975 -0.09107676 -0.04002108 0.027364338 0.033744283 0.047430586 0.0035550387
0.02792513 -0.02876208 -0.06875319 -0.00996957 0.061313972 0.11176489 0.059511393 0.1066715
0.050396338 0.053696956 0.08991563 0.089383766 0.010534373 0.01394661 0.006727894 0.059443843
-0.065900065 -0.007400458 -0.0018100633 -0.019471118 -0.030526279 0.027513247 0.018487858 0.0055410955
-0.012124591 0.043099348 -0.0056435466 0.09101552 0.043834772 0.064761035 0.020622658 0.07654106
00000000: 5676 cbba b3a8 a6bd 38e5 84bd 3514 8b3d
00000010: 5226 45bd 573b 44bd 909f ac3d 17de 04bd
00000020: a1af 9a3c 395b 063e b70c 0d3c 87f5 163c
00000030: da70 cd3d 6784 09bd dce3 6d3c 1d93 10be
00000040: 17db 51be 270c 24be 8138 0fbe 6e07 eabd
00000050: 2370 84bd c724 18bd bca4 cdbd 146b 1cbe
00000060: c9c1 f4bc cb15 eabd 4246 a6bd 129f a2bd
00000070: 6c4f 43be 44ce 9dbd fbda bfbc 0039 c13c
00000080: 524b 80bc f4d5 20bd eb1a a03d e6c1 583c
00000090: 1749 b2bd 1ee9 fdbc 3abc adbc a5fc 20bd
000000a0: 09bb 83bd 159b 12be afa9 97bd 1eb8 92bd
000000b0: 31c7 77bd edac 183d 7096 393d c560 253d
000000c0: b4fc 57bb 7829 f03b 329f 64ba 62b7 d73c
000000d0: 0a64 cf3a 8010 9abc 745f 0a3d 5f0b 57bd
000000e0: 2f23 9f3c 45bb 063d d866 d2bc 4702 28bd
000000f0: 3162 cf3d f3cf 113e 6481 7c3d b00e ce3d
00000100: 036d c83c 27e5 b73c 5101 ba3d cec4 303d
00000110: 3f8d 3e3d 6681 9b3d 5f38 603d 03bd 813d
00000120: ea4b 453d 42b9 33bb b159 ca3d a416 0e3e
00000130: b5ad 033e 4f3a c93d 4fd2 783d 82e7 173d
00000140: 9318 5e3d 8dd7 9e3d 6d9c 753d 6b34 0d3d
00000150: f8b1 653d dfd9 9e3d 9bb2 813c 805c 193d
00000160: 4c77 d4bc 71d1 8f3d 1fe3 8fbd 6cab 613c
00000170: bf37 51bd 4d65 bbbd c553 503d c8aa 63bb
00000180: 985c eabb fced bf3d c24b bb3c b810 e23a
00000190: 6975 7d3c 83df c1bc 2308 06be 7f4f 5ebd
000001a0: 8a8c 75bd 9aa7 ce3d 97ee 0b3d 6d12 ef3c
000001b0: 9e37 d03d bd63 4e3d 0160 4ebc f680 30bd
000001c0: e118 473d bbd2 1c3d 786b 70bd f9b2 46bd
000001d0: 0136 8dbd 9367 39be 0519 e5bd f421 d0bd
000001e0: 8e6b 243d 07eb 9cbc 0e79 903d 28d1 9cbb
000001f0: bfd6 d33d 01d7 d53d 54e2 cc39 3aa1 303d
00000200: dd0c da3d 678f c93d 1a69 4ebd fcbc b03c
00000210: 93c0 f53c 8e96 873d 7c27 ae3d 0d1d 88bc
00000220: bba2 893c a5e6 e13c 1947 92bd 5958 873d
00000230: 4c93 a93d 9f33 f8bb 81f4 d2ba ba83 e23d
00000240: 5a38 a13d dcc3 68bd ea30 3a3d 126a 8e3d
00000250: bd6e 4c3d e0ac b93d db36 dcbd 1dca f6bd
00000260: 6428 d0bc 58ad ed3c c8e7 38bd feec c6bc
00000270: e3a5 283c fbb6 04bd ac6d 463c 4cf0 593d
00000280: 78d7 033d 08af 493d d66b ab3d 8a43 373d
00000290: 0aff fabc dc6d 073d e9a6 c9bd 1ef4 24bd
000002a0: eec2 b73d ccce 49bd 081c 91bc 2e33 93ba
000002b0: e40e 533d 6fc3 babc 6266 d8bd c2de 28bd
000002c0: 9ce8 d3bc 0e1a 233c 30ac 8dbd 4a29 463c
000002d0: 5622 c2bd 78a6 e2bd 07cc 01be c9c0 a8bc
000002e0: 4a7d b8bd 8d1e aabd 9845 853d 8ac3 95bd
000002f0: 521b 883d 9c53 1c3d a268 11be 1b4f 62bc
00000300: 632d 803c 7c07 6abe 20e8 edbd f2cc 3fbc
00000310: af5e 92bd 6963 ffbd 378c 1bbd 49ca b3bd
00000320: 5c7c ebbd 4b1c ac3d df8a 42bd b089 4a3d
00000330: 42bc 943d 8dc1 fbbd 3f75 2abd 41ac e83b
00000340: 206b 6cbe 6e37 39be 08ff ddbd 56ad 02be
00000350: 9e6d ccbd ec3c 33be 4d62 b1bd ed9a c2bd
00000360: 44bc 6dbd 93af abbd 7486 babd 25ed 23bd
00000370: 2d2b e03c 7237 0a3d 9346 423d a7fb 683b
00000380: 3ec3 e43c 749e ebbc 79ce 8cbd 6857 23bc
00000390: 5c24 7b3d fee4 e43d 38c2 733d 9676 da3d
000003a0: 646c 4e3d 57f1 5b3d b025 b83d d60e b73d
000003b0: 5d98 2c3c 5280 643c aa75 dc3b 637b 733d
000003c0: 9df6 86bd 8b7f f2bb a53f edba e581 9fbc
000003d0: 3f12 fabc 7663 e13c d973 973c 1492 b53b
000003e0: 38a6 46bc f188 303d 80ed b8bb 5866 ba3d
000003f0: 178c 333d 6fa1 843d d9f0 a83c 8fc1 9c3d

separableConv.1.weight f4 [32]
1.1344389 1.1420382 1.357288 1.1180514 1.2205765 1.2130766 1.3958358 1.1885564
1.2484765 1.339752 1.3454392 1.3192666 1.2094284 1.2844054 1.2789676 1.3685871
1.3170977 1.3829633 1.2554774 1.380147 1.2797377 1.3834218 1.1414592 1.1553346
1.4530847 1.2401417 1.2427348 1.1640569 1.4199269 1.291186 1.3077723 1.1749276
00000000: 4b35 913f 4f2e 923f 9dbb ad3f 4f1c 8f3f
00000010: da3b 9c3f 1846 9b3f bfaa b23f 9e22 983f
00000020: 14ce 9f3f fe7c ab3f 5a37 ac3f badd a83f
00000030: 8dce 9a3f 6567 a43f 36b5 a33f dd2d af3f
00000040: a896 a83f f104 b13f 7cb3 a03f a8a8 b03f
00000050: 72ce a33f f713 b13f 561b 923f 01e2 933f
00000060: aefe b93f f7bc 9e3f ef11 9f3f d1ff 943f
00000070: 2ac0 b53f 9545 a53f 1565 a73f 0764 963f

separableConv.1.bias f4 [32]
-0.10327289 -0.1318185 -0.34146696 -0.070762016 -0.115940645 -0.08476994 -0.21833034 -0.06329821
-0.10581326 -0.17407712 -0.29235348 -0.25214043 -0.1930464 -0.15537159 -0.25552037 -0.29544377
-0.34247962 -0.28759396 -0.2901028 -0.22932339 -0.26493287 -0.11095729 -0.111989245 -0.08799296
-0.3022533 -0.24367012 -0.18513477 -0.056005564 -0.32571238 -0.13912602 -0.23014759 -0.05167718
00000000: bd80 d3bd 6efb 06be c2d4 aebe adeb 90bd
00000010: 4a72 edbd dd9b adbd fd91 5fbe 7ea2 81bd
00000020: 9fb4 d8bd 4641 32be 5baf 95be 8d18 81be
00000030: f5ad 45be bb19 1fbe 91d3 82be 6844 97be
00000040: 7d59 afbe 843f 93be 5b88 94be c0d3 6abe
00000050: 48a5 87be 933d e3bd 9e5a e5bd a735 b4bd
00000060: f2c0 9abe a984 79be f893 3dbe 1766 65bd
00000070: c6c3 a6be 0d77 0ebe cfab 6bbe 73ab 53bd

separableConv.1.running_mean f4 [32]
-0.6437985 0.07318587 -1.144208 -0.038004115 -0.54179615 -0.6558407 -0.40594712 -1.2754866
0.77377886 -0.29090163 -0.9549421 -0.6778225 -1.4436538 -1.0259254 0.8796095 -1.2192605
-1.3422568 -0.39758474 0.10896702 -0.7931585 -1.0135225 -0.63998437 -1.3108356 -1.8020968
-1.0381325 -1.4707774 -0.6264605 -0.63537407 -0.6429581 0.32962868 -0.8494714 -1.5064076
00000000: facf 24bf 79e2 953d 6875 92bf 34aa 1bbd
00000010: 27b3 0abf 2de5 27bf 4dd8 cfbe 2543 a3bf
00000020: 5f16 463f 0ff1 94be 1677 74bf c685 2dbf
00000030: a6c9 b8bf 8651 83bf 172e 613f ba10 9cbf
00000040: 12cf abbf 3a90 cbbe 1a2a df3d 6f0c 4bbf
00000050: 1bbb 81bf 04d6 23bf 76c9 a7bf 1cab e6bf
00000060: 87e1 84bf 6f42 bcbf b75f 20bf e0a7 22bf
00000070: e798 24bf 17c5 a83e f576 59bf f7d1 c0bf

separableConv.1.running_var f4 [32]
1.4753758 1.2664143 1.6926696 1.699143 1.1367387 1.1387421 1.0777301 1.4871581
1.7011297 2.4864295 1.8221675 1.8369884 1.9888506 1.5492755 1.1809381 1.6937013
1.6799396 1.2917931 1.0309292 1.2529427 2.4926853 0.96007067 1.7128416 2.5999727
1.7951914 2.4959657 1.4867454 1.3142613 1.1555597 1.4003658 1.7596171 2.859698
00000000: 1dd9 bc3f dd19 a23f 66a9 d83f 857d d93f
00000010: a780 913f 4dc2 913f 0ff3 893f 325b be3f
00000020: 9ebe d93f a921 1f40 c93c e93f 7022 eb3f
00000030: a892 fe3f a94e c63f fb28 973f 34cb d83f
00000040: 4308 d73f 7a59 a53f 7df5 833f 6d60 a03f
00000050: 2888 1f40 31c7 753f 653e db3f f465 2640
00000060: d5c8 e53f e7bd 1f40 ac4d be3f b739 a83f
00000070: 61e9 933f 303f b33f 223b e13f 4b05 3740

classify.0.weight f4 [2, 736]
0.0517217 -0.030924447 -0.12653936 -0.164749 -0.21246733 -0.24175535 -0.010690919 -0.039787825
-0.14192891 0.034842175 -0.21210378 -0.10190189 -0.13820143 -0.119281545 0.019668413 -0.023589196
-0.13322534 0.20112336 -0.17053233 -0.23672935 -0.02317018 -0.23807229 0.020874651 -0.071304254
0.054365832 0.11866727 0.089394175 -0.06922598 0.19611621 0.026589913 -0.084846444 -0.38278294
-0.04206798 0.3336802 0.12505575 0.093942165 -0.13747793 0.062231276 0.053358033 0.09896994
0.14068905 0.110131115 0.08811928 -0.034004834 -0.058217157 0.050224144 0.11569817 0.3119602
0.21457545 0.17156176 0.00086682284 0.28036097 -0.07609724 -0.052949343 -0.031029403 -0.15438442
-0.054579053 0.034058373 -0.108923 -0.10873273 -0.22679617 0.15021466 -0.04464822 -0.10190171
-0.11001739 -0.013847988 -0.14780612 0.062239088 -0.045837387 0.091639124 0.03938982 0.081102066
0.32574463 0.1361974 0.0011842792 0.108198486 0.102118134 0.13322008 0.0022239392 0.16638535
0.058514565 -0.02674172 0.22546782 0.087440364 0.0638601 -0.085070446 0.08290907 0.027086467
-0.050775003 0.043732055 -0.0063824607 0.03760337 0.1863335 0.108197235 -0.20465125 0.19864522
-0.24130021 0.09560944 -0.29586127 -0.17118254 -0.007845146 -0.071303345 -0.0074634007 -0.22249192
-0.17029874 0.10041248 -0.07316953 -0.08726828 -0.08775438 -0.0766022 -0.0030375854 -0.13399716
-0.121981196 -0.07295328 0.08535561 0.22724254 0.21635379 0.0012938994 0.19749936 -0.030658614
-0.0026997612 -0.107129194 -0.05108641 0.033123832 -0.046790533 -0.051986165 0.056122195 0.08953535
0.023261484 0.0029016165 0.15518725 0.124217995 -0.10186813 -0.008934663 0.005097985 -0.016346728
0.06677343 -0.12881793 0.20899989 0.022907423 0.030326962 0.0029116222 -0.08106374 -0.023468671
0.06477189 -0.08777233 -0.08342851 -0.03287471 -0.14155364 -0.06528867 0.1518693 -0.03921277
0.118057385 -0.21349195 0.27254108 -0.22902215 -0.056832112 0.08456044 0.058271367 -0.17858437
-0.054557733 0.24221662 0.100326255 0.0029967823 0.04651495 0.02828721 -0.025950044 0.01594296
0.042645536 0.063121215 0.009460923 0.11363748 0.07849616 0.108030654 0.29583105 -0.14491096
0.34437862 0.20392294 -0.020385752 -0.09370575 0.08224059 -0.0032117777 0.16750556 -0.108445026
0.0353968 -0.15741505 -0.19210614 -0.3624092 -0.15171896 -0.20018095 -0.11716745 -0.23089677
-0.22142881 -0.40614563 -0.4428111 -0.22389475 -0.16109139 -0.036686376 -0.037176397 -0.06558885
-0.002952054 -0.019716332 -0.030636698 -0.01793705 0.04807212 0.02419201 -0.019445201 -0.037760515
-0.17778128 0.05601519 -0.083559535 -0.026248785 -0.16353887 -0.21902168 -0.15168683 -0.27287108
0.035079647 -0.077471964 -0.09616191 -0.3654666 -0.22818027 0.17900199 0.042831615 0.085095674
0.106616415 -0.011183907 0.035711367 0.019343786 0.0030534633 0.06584244 -0.08810225 0.039539378
0.021371335 0.057952125 0.06640046 0.10573821 0.07749479 0.069889285 0.21817455 0.21101184
0.19881289 0.1491309 -0.11827882 0.10068403 0.2829563 0.069714256 0.06499779 -0.054806005
-0.15595728 -0.21350712 -0.041799605 -0.17380078 -0.0764315 0.20058836 0.18271688 0.01754162
00000000: 22da 533d 4455 fdbc 8993 01be f6b3 28be
00000010: 0991 59be b78e 77be f728 2fbc 8ff8 22bd
00000020: d055 11be abb6 0e3d bc31 59be f0b1 d0bd
00000030: ad84 0dbe e249 f4bd a71f a13c 213e c1bc
00000040: 396c 08be 48f3 4d3e 07a0 2ebe 2e69 72be
00000050: 64cf bdbc 39c9 73be 5101 ab3c f707 92bd
00000060: b5ae 5e3d d307 f33d 4b14 b73d 5ac6 8dbd
00000070: b0d2 483e 17d3 d93c f9c3 adbd 20fc c3be
00000080: 794f 2cbd 22d8 aa3e 9d0e 003e c064 c03d
00000090: 04c7 0cbe 39e6 7e3d f48d 5a3d c0b0 ca3d
000000a0: ca10 103e 6c8c e13d e277 b43d a748 0bbd
000000b0: 1d75 6ebd d5b7 4d3d 2af3 ec3d 3fb9 9f3e
000000c0: abb9 5b3e e3ad 2f3e 7f3b 633a 798b 8f3e
000000d0: dfd8 9bbd 69e1 58bd 6031 febc f316 1ebe
000000e0: 498e 5fbd cb80 0b3d 0613 dfbd 44af debd
000000f0: 413d 68be dfd1 193e 0de1 36bd d8b1 d0bd
00000100: cc50 e1bd ace2 62bc 7d5a 17be 6aee 7e3d
00000110: fcbf 3bbd 4bad bb3d 3857 213d d718 a63d
00000120: 00c8 a63e 5577 0b3e d139 9b3a 2b97 dd3d
00000130: 5023 d13d d86a 083e 82bf 113b ec60 2a3e
00000140: f8ac 6f3d 7411 dbbc 09e1 663e ef13 b33d
00000150: 16c9 823d 6a39 aebd 3bcc a93d 70e4 dd3c
00000160: 73f9 4fbd 6220 333d f623 d1bb fe05 1a3d
00000170: 36ce 3e3e 8396 dd3d 1990 51be a769 4b3e
00000180: 6717 77be e2ce c33d 217b 97be 7a4a 2fbe
00000190: ed88 00bc 7d07 92bd 8b8f f4bb ecd4 63be
000001a0: cb62 2ebe 0fa5 cd3d e8d9 95bd b6b9 b2bd
000001b0: 92b8 b3bd 9de1 9cbd 3a12 47bb 8d36 09be
000001c0: 47d1 f9bd 8768 95bd ecce ae3d 45b2 683e
000001d0: d98b 5d3e 0f98 a93a 463d 4a3e c627 fbbc
000001e0: 7aee 30bb 8d66 dbbd fc3f 51bd dbac 073d
000001f0: 6ea7 3fbd 72ef 54bd 63e0 653d 4f5e b73d
00000200: de8e be3c 0c29 3e3b 68e9 1e3e 0166 fe3d
00000210: 3da0 d0bd b162 12bc ff0c a73b 93e9 85bc
00000220: 82c0 883d d9e8 03be 1104 563e 59a8 bb3c
00000230: 4070 f83c ead0 3e3b bf04 a6bd 5f41 c0bc
00000240: 20a7 843d fbc1 b3bd 91dc aabd a2a7 06bd
00000250: 70f3 10be 11b6 85bd a083 1b3e 929d 20bd
00000260: 12c8 f13d a29d 5abe 818a 8b3e c884 6abe
00000270: cac8 68bd 062e ad3d f5ad 6e3d d2de 36be
00000280: ee77 5fbd a207 783e da77 cd3d aa65 443b
00000290: 7686 3e3d 94ba e73c 3095 d4bc cf9a 823c
000002a0: 16ad 2e3d b245 813d fd01 1b3c c4ba e83d
000002b0: 98c2 a03d 2d3f dd3d 2b77 973e 8a63 14be
000002c0: 6552 b03e 2dd1 503e 0500 a7bc cde8 bfbd
000002d0: c16d a83d b07c 52bb 9486 2b3e 6d18 debd
000002e0: 3cfc 103d 6931 21be 79b7 44be b38d b9be
000002f0: 375c 1bbe 3cfc 4cbe 7df5 efbd 3470 6cbe
00000300: 3cbe 62be 52f2 cfbe 23b8 e2be aa44 65be
00000310: 24f5 24be 7444 16bd 4746 18bd 7253 86bd
00000320: 3f77 41bb 2584 a1bc d0f9 fabc b8f0 92bc
00000330: 45e7 443d 522e c63c 8b4b 9fbc c5aa 1abd
00000340: 4c0c 36be 2f70 653d 4321 abbd b107 d7bc
00000350: bc76 27be 3847 60be cb53 1bbe c2b5 8bbe
00000360: adaf 0f3d 9fa9 9ebd 89f0 c4bd 701e bbbe
00000370: 17a8 69be 4c4c 373e 3470 2f3d a446 ae3d
00000380: b559 da3d b53c 37bc 1546 123d dc76 9e3c
00000390: 9d1c 483b 67d8 863d f46e b4bd 0bf4 213d
000003a0: f012 af3c 355f 6d3d f7fc 873d 468d d83d
000003b0: 97b5 9e3d 1d22 8f3d 2669 5f3e 7d13 583e
000003c0: 9b95 4b3e c5b5 183e 2a3c f2bd 6e33 ce3d
000003d0: a6df 903e 59c6 8e3d 901d 853d 437c 60bd
000003e0: 44b3 1fbe 9ca1 5abe 1036 2bbd d5f8 31be
000003f0: 1e88 9cbd 0967 4d3e 221a 3b3e 72b3 8f3c

classify.0.bias f4 [2]
0.055828564 -0.0039938027
00000000: 7eac 643d 72de 82bb
